#map = affine_map<(d0, d1, d2) -> (d0, d1)>
#map1 = affine_map<(d0, d1, d2) -> (d0, d1, d2)>
#map2 = affine_map<(d0, d1, d2) -> (d1)>
#map3 = affine_map<(d0, d1, d2) -> (d0, d2)>
#map4 = affine_map<(d0, d1) -> (d0, d1)>
#map5 = affine_map<(d0, d1, d2, d3) -> (d0, d1, d2, d3)>
#map6 = affine_map<(d0, d1, d2, d3) -> (d0, d1, d2)>
#map7 = affine_map<(d0, d1, d2, d3) -> (d0, d1, d3)>
#map8 = affine_map<(d0, d1, d2) -> (d0, 0, d1, d2)>
#map9 = affine_map<(d0, d1) -> (0, d0, d1)>
#map10 = affine_map<(d0, d1, d2, d3) -> (d0, d1, d2, 0)>
module {
  func.func @forward(%arg0: tensor<6755192832xf32>, %arg1: tensor<1x40xi64>) -> (tensor<1x40x32000xf32>, tensor<1x40x4096xf32>) {
    %extracted_slice = tensor.extract_slice %arg0[0] [4096] [1] : tensor<6755192832xf32> to tensor<4096xf32>
    %extracted_slice_0 = tensor.extract_slice %arg0[4096] [4096] [1] : tensor<6755192832xf32> to tensor<4096xf32>
    %extracted_slice_1 = tensor.extract_slice %arg0[8192] [4096] [1] : tensor<6755192832xf32> to tensor<4096xf32>
    %extracted_slice_2 = tensor.extract_slice %arg0[12288] [4096] [1] : tensor<6755192832xf32> to tensor<4096xf32>
    %extracted_slice_3 = tensor.extract_slice %arg0[16384] [4096] [1] : tensor<6755192832xf32> to tensor<4096xf32>
    %extracted_slice_4 = tensor.extract_slice %arg0[20480] [4096] [1] : tensor<6755192832xf32> to tensor<4096xf32>
    %extracted_slice_5 = tensor.extract_slice %arg0[24576] [4096] [1] : tensor<6755192832xf32> to tensor<4096xf32>
    %extracted_slice_6 = tensor.extract_slice %arg0[28672] [4096] [1] : tensor<6755192832xf32> to tensor<4096xf32>
    %extracted_slice_7 = tensor.extract_slice %arg0[32768] [4096] [1] : tensor<6755192832xf32> to tensor<4096xf32>
    %extracted_slice_8 = tensor.extract_slice %arg0[36864] [4096] [1] : tensor<6755192832xf32> to tensor<4096xf32>
    %extracted_slice_9 = tensor.extract_slice %arg0[40960] [4096] [1] : tensor<6755192832xf32> to tensor<4096xf32>
    %extracted_slice_10 = tensor.extract_slice %arg0[45056] [4096] [1] : tensor<6755192832xf32> to tensor<4096xf32>
    %extracted_slice_11 = tensor.extract_slice %arg0[49152] [4096] [1] : tensor<6755192832xf32> to tensor<4096xf32>
    %extracted_slice_12 = tensor.extract_slice %arg0[53248] [4096] [1] : tensor<6755192832xf32> to tensor<4096xf32>
    %extracted_slice_13 = tensor.extract_slice %arg0[57344] [4096] [1] : tensor<6755192832xf32> to tensor<4096xf32>
    %extracted_slice_14 = tensor.extract_slice %arg0[61440] [4096] [1] : tensor<6755192832xf32> to tensor<4096xf32>
    %extracted_slice_15 = tensor.extract_slice %arg0[65536] [4096] [1] : tensor<6755192832xf32> to tensor<4096xf32>
    %extracted_slice_16 = tensor.extract_slice %arg0[69632] [4096] [1] : tensor<6755192832xf32> to tensor<4096xf32>
    %extracted_slice_17 = tensor.extract_slice %arg0[73728] [4096] [1] : tensor<6755192832xf32> to tensor<4096xf32>
    %extracted_slice_18 = tensor.extract_slice %arg0[77824] [4096] [1] : tensor<6755192832xf32> to tensor<4096xf32>
    %extracted_slice_19 = tensor.extract_slice %arg0[81920] [4096] [1] : tensor<6755192832xf32> to tensor<4096xf32>
    %extracted_slice_20 = tensor.extract_slice %arg0[86016] [4096] [1] : tensor<6755192832xf32> to tensor<4096xf32>
    %extracted_slice_21 = tensor.extract_slice %arg0[90112] [4096] [1] : tensor<6755192832xf32> to tensor<4096xf32>
    %extracted_slice_22 = tensor.extract_slice %arg0[94208] [4096] [1] : tensor<6755192832xf32> to tensor<4096xf32>
    %extracted_slice_23 = tensor.extract_slice %arg0[98304] [4096] [1] : tensor<6755192832xf32> to tensor<4096xf32>
    %extracted_slice_24 = tensor.extract_slice %arg0[102400] [4096] [1] : tensor<6755192832xf32> to tensor<4096xf32>
    %extracted_slice_25 = tensor.extract_slice %arg0[106496] [4096] [1] : tensor<6755192832xf32> to tensor<4096xf32>
    %extracted_slice_26 = tensor.extract_slice %arg0[110592] [4096] [1] : tensor<6755192832xf32> to tensor<4096xf32>
    %extracted_slice_27 = tensor.extract_slice %arg0[114688] [4096] [1] : tensor<6755192832xf32> to tensor<4096xf32>
    %extracted_slice_28 = tensor.extract_slice %arg0[118784] [4096] [1] : tensor<6755192832xf32> to tensor<4096xf32>
    %extracted_slice_29 = tensor.extract_slice %arg0[122880] [4096] [1] : tensor<6755192832xf32> to tensor<4096xf32>
    %extracted_slice_30 = tensor.extract_slice %arg0[126976] [4096] [1] : tensor<6755192832xf32> to tensor<4096xf32>
    %extracted_slice_31 = tensor.extract_slice %arg0[131072] [4096] [1] : tensor<6755192832xf32> to tensor<4096xf32>
    %extracted_slice_32 = tensor.extract_slice %arg0[135168] [4096] [1] : tensor<6755192832xf32> to tensor<4096xf32>
    %extracted_slice_33 = tensor.extract_slice %arg0[139264] [4096] [1] : tensor<6755192832xf32> to tensor<4096xf32>
    %extracted_slice_34 = tensor.extract_slice %arg0[143360] [4096] [1] : tensor<6755192832xf32> to tensor<4096xf32>
    %extracted_slice_35 = tensor.extract_slice %arg0[147456] [4096] [1] : tensor<6755192832xf32> to tensor<4096xf32>
    %extracted_slice_36 = tensor.extract_slice %arg0[151552] [4096] [1] : tensor<6755192832xf32> to tensor<4096xf32>
    %extracted_slice_37 = tensor.extract_slice %arg0[155648] [4096] [1] : tensor<6755192832xf32> to tensor<4096xf32>
    %extracted_slice_38 = tensor.extract_slice %arg0[159744] [4096] [1] : tensor<6755192832xf32> to tensor<4096xf32>
    %extracted_slice_39 = tensor.extract_slice %arg0[163840] [4096] [1] : tensor<6755192832xf32> to tensor<4096xf32>
    %extracted_slice_40 = tensor.extract_slice %arg0[167936] [4096] [1] : tensor<6755192832xf32> to tensor<4096xf32>
    %extracted_slice_41 = tensor.extract_slice %arg0[172032] [4096] [1] : tensor<6755192832xf32> to tensor<4096xf32>
    %extracted_slice_42 = tensor.extract_slice %arg0[176128] [4096] [1] : tensor<6755192832xf32> to tensor<4096xf32>
    %extracted_slice_43 = tensor.extract_slice %arg0[180224] [4096] [1] : tensor<6755192832xf32> to tensor<4096xf32>
    %extracted_slice_44 = tensor.extract_slice %arg0[184320] [4096] [1] : tensor<6755192832xf32> to tensor<4096xf32>
    %extracted_slice_45 = tensor.extract_slice %arg0[188416] [4096] [1] : tensor<6755192832xf32> to tensor<4096xf32>
    %extracted_slice_46 = tensor.extract_slice %arg0[192512] [4096] [1] : tensor<6755192832xf32> to tensor<4096xf32>
    %extracted_slice_47 = tensor.extract_slice %arg0[196608] [4096] [1] : tensor<6755192832xf32> to tensor<4096xf32>
    %extracted_slice_48 = tensor.extract_slice %arg0[200704] [4096] [1] : tensor<6755192832xf32> to tensor<4096xf32>
    %extracted_slice_49 = tensor.extract_slice %arg0[204800] [4096] [1] : tensor<6755192832xf32> to tensor<4096xf32>
    %extracted_slice_50 = tensor.extract_slice %arg0[208896] [4096] [1] : tensor<6755192832xf32> to tensor<4096xf32>
    %extracted_slice_51 = tensor.extract_slice %arg0[212992] [4096] [1] : tensor<6755192832xf32> to tensor<4096xf32>
    %extracted_slice_52 = tensor.extract_slice %arg0[217088] [4096] [1] : tensor<6755192832xf32> to tensor<4096xf32>
    %extracted_slice_53 = tensor.extract_slice %arg0[221184] [4096] [1] : tensor<6755192832xf32> to tensor<4096xf32>
    %extracted_slice_54 = tensor.extract_slice %arg0[225280] [4096] [1] : tensor<6755192832xf32> to tensor<4096xf32>
    %extracted_slice_55 = tensor.extract_slice %arg0[229376] [4096] [1] : tensor<6755192832xf32> to tensor<4096xf32>
    %extracted_slice_56 = tensor.extract_slice %arg0[233472] [4096] [1] : tensor<6755192832xf32> to tensor<4096xf32>
    %extracted_slice_57 = tensor.extract_slice %arg0[237568] [4096] [1] : tensor<6755192832xf32> to tensor<4096xf32>
    %extracted_slice_58 = tensor.extract_slice %arg0[241664] [4096] [1] : tensor<6755192832xf32> to tensor<4096xf32>
    %extracted_slice_59 = tensor.extract_slice %arg0[245760] [4096] [1] : tensor<6755192832xf32> to tensor<4096xf32>
    %extracted_slice_60 = tensor.extract_slice %arg0[249856] [4096] [1] : tensor<6755192832xf32> to tensor<4096xf32>
    %extracted_slice_61 = tensor.extract_slice %arg0[253952] [4096] [1] : tensor<6755192832xf32> to tensor<4096xf32>
    %extracted_slice_62 = tensor.extract_slice %arg0[258048] [4096] [1] : tensor<6755192832xf32> to tensor<4096xf32>
    %extracted_slice_63 = tensor.extract_slice %arg0[262144] [4096] [1] : tensor<6755192832xf32> to tensor<4096xf32>
    %extracted_slice_64 = tensor.extract_slice %arg0[266240] [131072000] [1] : tensor<6755192832xf32> to tensor<131072000xf32>
    %expanded = tensor.expand_shape %extracted_slice_64 [[0, 1]] : tensor<131072000xf32> into tensor<32000x4096xf32>
    %extracted_slice_65 = tensor.extract_slice %arg0[131338240] [16777216] [1] : tensor<6755192832xf32> to tensor<16777216xf32>
    %expanded_66 = tensor.expand_shape %extracted_slice_65 [[0, 1]] : tensor<16777216xf32> into tensor<4096x4096xf32>
    %extracted_slice_67 = tensor.extract_slice %arg0[148115456] [16777216] [1] : tensor<6755192832xf32> to tensor<16777216xf32>
    %expanded_68 = tensor.expand_shape %extracted_slice_67 [[0, 1]] : tensor<16777216xf32> into tensor<4096x4096xf32>
    %extracted_slice_69 = tensor.extract_slice %arg0[164892672] [16777216] [1] : tensor<6755192832xf32> to tensor<16777216xf32>
    %expanded_70 = tensor.expand_shape %extracted_slice_69 [[0, 1]] : tensor<16777216xf32> into tensor<4096x4096xf32>
    %extracted_slice_71 = tensor.extract_slice %arg0[181669888] [16777216] [1] : tensor<6755192832xf32> to tensor<16777216xf32>
    %expanded_72 = tensor.expand_shape %extracted_slice_71 [[0, 1]] : tensor<16777216xf32> into tensor<4096x4096xf32>
    %extracted_slice_73 = tensor.extract_slice %arg0[198447104] [45088768] [1] : tensor<6755192832xf32> to tensor<45088768xf32>
    %expanded_74 = tensor.expand_shape %extracted_slice_73 [[0, 1]] : tensor<45088768xf32> into tensor<11008x4096xf32>
    %extracted_slice_75 = tensor.extract_slice %arg0[243535872] [45088768] [1] : tensor<6755192832xf32> to tensor<45088768xf32>
    %expanded_76 = tensor.expand_shape %extracted_slice_75 [[0, 1]] : tensor<45088768xf32> into tensor<11008x4096xf32>
    %extracted_slice_77 = tensor.extract_slice %arg0[288624640] [45088768] [1] : tensor<6755192832xf32> to tensor<45088768xf32>
    %expanded_78 = tensor.expand_shape %extracted_slice_77 [[0, 1]] : tensor<45088768xf32> into tensor<4096x11008xf32>
    %extracted_slice_79 = tensor.extract_slice %arg0[333713408] [16777216] [1] : tensor<6755192832xf32> to tensor<16777216xf32>
    %expanded_80 = tensor.expand_shape %extracted_slice_79 [[0, 1]] : tensor<16777216xf32> into tensor<4096x4096xf32>
    %extracted_slice_81 = tensor.extract_slice %arg0[350490624] [16777216] [1] : tensor<6755192832xf32> to tensor<16777216xf32>
    %expanded_82 = tensor.expand_shape %extracted_slice_81 [[0, 1]] : tensor<16777216xf32> into tensor<4096x4096xf32>
    %extracted_slice_83 = tensor.extract_slice %arg0[367267840] [16777216] [1] : tensor<6755192832xf32> to tensor<16777216xf32>
    %expanded_84 = tensor.expand_shape %extracted_slice_83 [[0, 1]] : tensor<16777216xf32> into tensor<4096x4096xf32>
    %extracted_slice_85 = tensor.extract_slice %arg0[384045056] [16777216] [1] : tensor<6755192832xf32> to tensor<16777216xf32>
    %expanded_86 = tensor.expand_shape %extracted_slice_85 [[0, 1]] : tensor<16777216xf32> into tensor<4096x4096xf32>
    %extracted_slice_87 = tensor.extract_slice %arg0[400822272] [45088768] [1] : tensor<6755192832xf32> to tensor<45088768xf32>
    %expanded_88 = tensor.expand_shape %extracted_slice_87 [[0, 1]] : tensor<45088768xf32> into tensor<11008x4096xf32>
    %extracted_slice_89 = tensor.extract_slice %arg0[445911040] [45088768] [1] : tensor<6755192832xf32> to tensor<45088768xf32>
    %expanded_90 = tensor.expand_shape %extracted_slice_89 [[0, 1]] : tensor<45088768xf32> into tensor<11008x4096xf32>
    %extracted_slice_91 = tensor.extract_slice %arg0[490999808] [45088768] [1] : tensor<6755192832xf32> to tensor<45088768xf32>
    %expanded_92 = tensor.expand_shape %extracted_slice_91 [[0, 1]] : tensor<45088768xf32> into tensor<4096x11008xf32>
    %extracted_slice_93 = tensor.extract_slice %arg0[536088576] [16777216] [1] : tensor<6755192832xf32> to tensor<16777216xf32>
    %expanded_94 = tensor.expand_shape %extracted_slice_93 [[0, 1]] : tensor<16777216xf32> into tensor<4096x4096xf32>
    %extracted_slice_95 = tensor.extract_slice %arg0[552865792] [16777216] [1] : tensor<6755192832xf32> to tensor<16777216xf32>
    %expanded_96 = tensor.expand_shape %extracted_slice_95 [[0, 1]] : tensor<16777216xf32> into tensor<4096x4096xf32>
    %extracted_slice_97 = tensor.extract_slice %arg0[569643008] [16777216] [1] : tensor<6755192832xf32> to tensor<16777216xf32>
    %expanded_98 = tensor.expand_shape %extracted_slice_97 [[0, 1]] : tensor<16777216xf32> into tensor<4096x4096xf32>
    %extracted_slice_99 = tensor.extract_slice %arg0[586420224] [16777216] [1] : tensor<6755192832xf32> to tensor<16777216xf32>
    %expanded_100 = tensor.expand_shape %extracted_slice_99 [[0, 1]] : tensor<16777216xf32> into tensor<4096x4096xf32>
    %extracted_slice_101 = tensor.extract_slice %arg0[603197440] [45088768] [1] : tensor<6755192832xf32> to tensor<45088768xf32>
    %expanded_102 = tensor.expand_shape %extracted_slice_101 [[0, 1]] : tensor<45088768xf32> into tensor<11008x4096xf32>
    %extracted_slice_103 = tensor.extract_slice %arg0[648286208] [45088768] [1] : tensor<6755192832xf32> to tensor<45088768xf32>
    %expanded_104 = tensor.expand_shape %extracted_slice_103 [[0, 1]] : tensor<45088768xf32> into tensor<11008x4096xf32>
    %extracted_slice_105 = tensor.extract_slice %arg0[693374976] [45088768] [1] : tensor<6755192832xf32> to tensor<45088768xf32>
    %expanded_106 = tensor.expand_shape %extracted_slice_105 [[0, 1]] : tensor<45088768xf32> into tensor<4096x11008xf32>
    %extracted_slice_107 = tensor.extract_slice %arg0[738463744] [16777216] [1] : tensor<6755192832xf32> to tensor<16777216xf32>
    %expanded_108 = tensor.expand_shape %extracted_slice_107 [[0, 1]] : tensor<16777216xf32> into tensor<4096x4096xf32>
    %extracted_slice_109 = tensor.extract_slice %arg0[755240960] [16777216] [1] : tensor<6755192832xf32> to tensor<16777216xf32>
    %expanded_110 = tensor.expand_shape %extracted_slice_109 [[0, 1]] : tensor<16777216xf32> into tensor<4096x4096xf32>
    %extracted_slice_111 = tensor.extract_slice %arg0[772018176] [16777216] [1] : tensor<6755192832xf32> to tensor<16777216xf32>
    %expanded_112 = tensor.expand_shape %extracted_slice_111 [[0, 1]] : tensor<16777216xf32> into tensor<4096x4096xf32>
    %extracted_slice_113 = tensor.extract_slice %arg0[788795392] [16777216] [1] : tensor<6755192832xf32> to tensor<16777216xf32>
    %expanded_114 = tensor.expand_shape %extracted_slice_113 [[0, 1]] : tensor<16777216xf32> into tensor<4096x4096xf32>
    %extracted_slice_115 = tensor.extract_slice %arg0[805572608] [45088768] [1] : tensor<6755192832xf32> to tensor<45088768xf32>
    %expanded_116 = tensor.expand_shape %extracted_slice_115 [[0, 1]] : tensor<45088768xf32> into tensor<11008x4096xf32>
    %extracted_slice_117 = tensor.extract_slice %arg0[850661376] [45088768] [1] : tensor<6755192832xf32> to tensor<45088768xf32>
    %expanded_118 = tensor.expand_shape %extracted_slice_117 [[0, 1]] : tensor<45088768xf32> into tensor<11008x4096xf32>
    %extracted_slice_119 = tensor.extract_slice %arg0[895750144] [45088768] [1] : tensor<6755192832xf32> to tensor<45088768xf32>
    %expanded_120 = tensor.expand_shape %extracted_slice_119 [[0, 1]] : tensor<45088768xf32> into tensor<4096x11008xf32>
    %extracted_slice_121 = tensor.extract_slice %arg0[940838912] [16777216] [1] : tensor<6755192832xf32> to tensor<16777216xf32>
    %expanded_122 = tensor.expand_shape %extracted_slice_121 [[0, 1]] : tensor<16777216xf32> into tensor<4096x4096xf32>
    %extracted_slice_123 = tensor.extract_slice %arg0[957616128] [16777216] [1] : tensor<6755192832xf32> to tensor<16777216xf32>
    %expanded_124 = tensor.expand_shape %extracted_slice_123 [[0, 1]] : tensor<16777216xf32> into tensor<4096x4096xf32>
    %extracted_slice_125 = tensor.extract_slice %arg0[974393344] [16777216] [1] : tensor<6755192832xf32> to tensor<16777216xf32>
    %expanded_126 = tensor.expand_shape %extracted_slice_125 [[0, 1]] : tensor<16777216xf32> into tensor<4096x4096xf32>
    %extracted_slice_127 = tensor.extract_slice %arg0[991170560] [16777216] [1] : tensor<6755192832xf32> to tensor<16777216xf32>
    %expanded_128 = tensor.expand_shape %extracted_slice_127 [[0, 1]] : tensor<16777216xf32> into tensor<4096x4096xf32>
    %extracted_slice_129 = tensor.extract_slice %arg0[1007947776] [45088768] [1] : tensor<6755192832xf32> to tensor<45088768xf32>
    %expanded_130 = tensor.expand_shape %extracted_slice_129 [[0, 1]] : tensor<45088768xf32> into tensor<11008x4096xf32>
    %extracted_slice_131 = tensor.extract_slice %arg0[1053036544] [45088768] [1] : tensor<6755192832xf32> to tensor<45088768xf32>
    %expanded_132 = tensor.expand_shape %extracted_slice_131 [[0, 1]] : tensor<45088768xf32> into tensor<11008x4096xf32>
    %extracted_slice_133 = tensor.extract_slice %arg0[1098125312] [45088768] [1] : tensor<6755192832xf32> to tensor<45088768xf32>
    %expanded_134 = tensor.expand_shape %extracted_slice_133 [[0, 1]] : tensor<45088768xf32> into tensor<4096x11008xf32>
    %extracted_slice_135 = tensor.extract_slice %arg0[1143214080] [16777216] [1] : tensor<6755192832xf32> to tensor<16777216xf32>
    %expanded_136 = tensor.expand_shape %extracted_slice_135 [[0, 1]] : tensor<16777216xf32> into tensor<4096x4096xf32>
    %extracted_slice_137 = tensor.extract_slice %arg0[1159991296] [16777216] [1] : tensor<6755192832xf32> to tensor<16777216xf32>
    %expanded_138 = tensor.expand_shape %extracted_slice_137 [[0, 1]] : tensor<16777216xf32> into tensor<4096x4096xf32>
    %extracted_slice_139 = tensor.extract_slice %arg0[1176768512] [16777216] [1] : tensor<6755192832xf32> to tensor<16777216xf32>
    %expanded_140 = tensor.expand_shape %extracted_slice_139 [[0, 1]] : tensor<16777216xf32> into tensor<4096x4096xf32>
    %extracted_slice_141 = tensor.extract_slice %arg0[1193545728] [16777216] [1] : tensor<6755192832xf32> to tensor<16777216xf32>
    %expanded_142 = tensor.expand_shape %extracted_slice_141 [[0, 1]] : tensor<16777216xf32> into tensor<4096x4096xf32>
    %extracted_slice_143 = tensor.extract_slice %arg0[1210322944] [45088768] [1] : tensor<6755192832xf32> to tensor<45088768xf32>
    %expanded_144 = tensor.expand_shape %extracted_slice_143 [[0, 1]] : tensor<45088768xf32> into tensor<11008x4096xf32>
    %extracted_slice_145 = tensor.extract_slice %arg0[1255411712] [45088768] [1] : tensor<6755192832xf32> to tensor<45088768xf32>
    %expanded_146 = tensor.expand_shape %extracted_slice_145 [[0, 1]] : tensor<45088768xf32> into tensor<11008x4096xf32>
    %extracted_slice_147 = tensor.extract_slice %arg0[1300500480] [45088768] [1] : tensor<6755192832xf32> to tensor<45088768xf32>
    %expanded_148 = tensor.expand_shape %extracted_slice_147 [[0, 1]] : tensor<45088768xf32> into tensor<4096x11008xf32>
    %extracted_slice_149 = tensor.extract_slice %arg0[1345589248] [16777216] [1] : tensor<6755192832xf32> to tensor<16777216xf32>
    %expanded_150 = tensor.expand_shape %extracted_slice_149 [[0, 1]] : tensor<16777216xf32> into tensor<4096x4096xf32>
    %extracted_slice_151 = tensor.extract_slice %arg0[1362366464] [16777216] [1] : tensor<6755192832xf32> to tensor<16777216xf32>
    %expanded_152 = tensor.expand_shape %extracted_slice_151 [[0, 1]] : tensor<16777216xf32> into tensor<4096x4096xf32>
    %extracted_slice_153 = tensor.extract_slice %arg0[1379143680] [16777216] [1] : tensor<6755192832xf32> to tensor<16777216xf32>
    %expanded_154 = tensor.expand_shape %extracted_slice_153 [[0, 1]] : tensor<16777216xf32> into tensor<4096x4096xf32>
    %extracted_slice_155 = tensor.extract_slice %arg0[1395920896] [16777216] [1] : tensor<6755192832xf32> to tensor<16777216xf32>
    %expanded_156 = tensor.expand_shape %extracted_slice_155 [[0, 1]] : tensor<16777216xf32> into tensor<4096x4096xf32>
    %extracted_slice_157 = tensor.extract_slice %arg0[1412698112] [45088768] [1] : tensor<6755192832xf32> to tensor<45088768xf32>
    %expanded_158 = tensor.expand_shape %extracted_slice_157 [[0, 1]] : tensor<45088768xf32> into tensor<11008x4096xf32>
    %extracted_slice_159 = tensor.extract_slice %arg0[1457786880] [45088768] [1] : tensor<6755192832xf32> to tensor<45088768xf32>
    %expanded_160 = tensor.expand_shape %extracted_slice_159 [[0, 1]] : tensor<45088768xf32> into tensor<11008x4096xf32>
    %extracted_slice_161 = tensor.extract_slice %arg0[1502875648] [45088768] [1] : tensor<6755192832xf32> to tensor<45088768xf32>
    %expanded_162 = tensor.expand_shape %extracted_slice_161 [[0, 1]] : tensor<45088768xf32> into tensor<4096x11008xf32>
    %extracted_slice_163 = tensor.extract_slice %arg0[1547964416] [16777216] [1] : tensor<6755192832xf32> to tensor<16777216xf32>
    %expanded_164 = tensor.expand_shape %extracted_slice_163 [[0, 1]] : tensor<16777216xf32> into tensor<4096x4096xf32>
    %extracted_slice_165 = tensor.extract_slice %arg0[1564741632] [16777216] [1] : tensor<6755192832xf32> to tensor<16777216xf32>
    %expanded_166 = tensor.expand_shape %extracted_slice_165 [[0, 1]] : tensor<16777216xf32> into tensor<4096x4096xf32>
    %extracted_slice_167 = tensor.extract_slice %arg0[1581518848] [16777216] [1] : tensor<6755192832xf32> to tensor<16777216xf32>
    %expanded_168 = tensor.expand_shape %extracted_slice_167 [[0, 1]] : tensor<16777216xf32> into tensor<4096x4096xf32>
    %extracted_slice_169 = tensor.extract_slice %arg0[1598296064] [16777216] [1] : tensor<6755192832xf32> to tensor<16777216xf32>
    %expanded_170 = tensor.expand_shape %extracted_slice_169 [[0, 1]] : tensor<16777216xf32> into tensor<4096x4096xf32>
    %extracted_slice_171 = tensor.extract_slice %arg0[1615073280] [45088768] [1] : tensor<6755192832xf32> to tensor<45088768xf32>
    %expanded_172 = tensor.expand_shape %extracted_slice_171 [[0, 1]] : tensor<45088768xf32> into tensor<11008x4096xf32>
    %extracted_slice_173 = tensor.extract_slice %arg0[1660162048] [45088768] [1] : tensor<6755192832xf32> to tensor<45088768xf32>
    %expanded_174 = tensor.expand_shape %extracted_slice_173 [[0, 1]] : tensor<45088768xf32> into tensor<11008x4096xf32>
    %extracted_slice_175 = tensor.extract_slice %arg0[1705250816] [45088768] [1] : tensor<6755192832xf32> to tensor<45088768xf32>
    %expanded_176 = tensor.expand_shape %extracted_slice_175 [[0, 1]] : tensor<45088768xf32> into tensor<4096x11008xf32>
    %extracted_slice_177 = tensor.extract_slice %arg0[1750339584] [16777216] [1] : tensor<6755192832xf32> to tensor<16777216xf32>
    %expanded_178 = tensor.expand_shape %extracted_slice_177 [[0, 1]] : tensor<16777216xf32> into tensor<4096x4096xf32>
    %extracted_slice_179 = tensor.extract_slice %arg0[1767116800] [16777216] [1] : tensor<6755192832xf32> to tensor<16777216xf32>
    %expanded_180 = tensor.expand_shape %extracted_slice_179 [[0, 1]] : tensor<16777216xf32> into tensor<4096x4096xf32>
    %extracted_slice_181 = tensor.extract_slice %arg0[1783894016] [16777216] [1] : tensor<6755192832xf32> to tensor<16777216xf32>
    %expanded_182 = tensor.expand_shape %extracted_slice_181 [[0, 1]] : tensor<16777216xf32> into tensor<4096x4096xf32>
    %extracted_slice_183 = tensor.extract_slice %arg0[1800671232] [16777216] [1] : tensor<6755192832xf32> to tensor<16777216xf32>
    %expanded_184 = tensor.expand_shape %extracted_slice_183 [[0, 1]] : tensor<16777216xf32> into tensor<4096x4096xf32>
    %extracted_slice_185 = tensor.extract_slice %arg0[1817448448] [45088768] [1] : tensor<6755192832xf32> to tensor<45088768xf32>
    %expanded_186 = tensor.expand_shape %extracted_slice_185 [[0, 1]] : tensor<45088768xf32> into tensor<11008x4096xf32>
    %extracted_slice_187 = tensor.extract_slice %arg0[1862537216] [45088768] [1] : tensor<6755192832xf32> to tensor<45088768xf32>
    %expanded_188 = tensor.expand_shape %extracted_slice_187 [[0, 1]] : tensor<45088768xf32> into tensor<11008x4096xf32>
    %extracted_slice_189 = tensor.extract_slice %arg0[1907625984] [45088768] [1] : tensor<6755192832xf32> to tensor<45088768xf32>
    %expanded_190 = tensor.expand_shape %extracted_slice_189 [[0, 1]] : tensor<45088768xf32> into tensor<4096x11008xf32>
    %extracted_slice_191 = tensor.extract_slice %arg0[1952714752] [16777216] [1] : tensor<6755192832xf32> to tensor<16777216xf32>
    %expanded_192 = tensor.expand_shape %extracted_slice_191 [[0, 1]] : tensor<16777216xf32> into tensor<4096x4096xf32>
    %extracted_slice_193 = tensor.extract_slice %arg0[1969491968] [16777216] [1] : tensor<6755192832xf32> to tensor<16777216xf32>
    %expanded_194 = tensor.expand_shape %extracted_slice_193 [[0, 1]] : tensor<16777216xf32> into tensor<4096x4096xf32>
    %extracted_slice_195 = tensor.extract_slice %arg0[1986269184] [16777216] [1] : tensor<6755192832xf32> to tensor<16777216xf32>
    %expanded_196 = tensor.expand_shape %extracted_slice_195 [[0, 1]] : tensor<16777216xf32> into tensor<4096x4096xf32>
    %extracted_slice_197 = tensor.extract_slice %arg0[2003046400] [16777216] [1] : tensor<6755192832xf32> to tensor<16777216xf32>
    %expanded_198 = tensor.expand_shape %extracted_slice_197 [[0, 1]] : tensor<16777216xf32> into tensor<4096x4096xf32>
    %extracted_slice_199 = tensor.extract_slice %arg0[2019823616] [45088768] [1] : tensor<6755192832xf32> to tensor<45088768xf32>
    %expanded_200 = tensor.expand_shape %extracted_slice_199 [[0, 1]] : tensor<45088768xf32> into tensor<11008x4096xf32>
    %extracted_slice_201 = tensor.extract_slice %arg0[2064912384] [45088768] [1] : tensor<6755192832xf32> to tensor<45088768xf32>
    %expanded_202 = tensor.expand_shape %extracted_slice_201 [[0, 1]] : tensor<45088768xf32> into tensor<11008x4096xf32>
    %extracted_slice_203 = tensor.extract_slice %arg0[2110001152] [45088768] [1] : tensor<6755192832xf32> to tensor<45088768xf32>
    %expanded_204 = tensor.expand_shape %extracted_slice_203 [[0, 1]] : tensor<45088768xf32> into tensor<4096x11008xf32>
    %extracted_slice_205 = tensor.extract_slice %arg0[2155089920] [16777216] [1] : tensor<6755192832xf32> to tensor<16777216xf32>
    %expanded_206 = tensor.expand_shape %extracted_slice_205 [[0, 1]] : tensor<16777216xf32> into tensor<4096x4096xf32>
    %extracted_slice_207 = tensor.extract_slice %arg0[2171867136] [16777216] [1] : tensor<6755192832xf32> to tensor<16777216xf32>
    %expanded_208 = tensor.expand_shape %extracted_slice_207 [[0, 1]] : tensor<16777216xf32> into tensor<4096x4096xf32>
    %extracted_slice_209 = tensor.extract_slice %arg0[2188644352] [16777216] [1] : tensor<6755192832xf32> to tensor<16777216xf32>
    %expanded_210 = tensor.expand_shape %extracted_slice_209 [[0, 1]] : tensor<16777216xf32> into tensor<4096x4096xf32>
    %extracted_slice_211 = tensor.extract_slice %arg0[2205421568] [16777216] [1] : tensor<6755192832xf32> to tensor<16777216xf32>
    %expanded_212 = tensor.expand_shape %extracted_slice_211 [[0, 1]] : tensor<16777216xf32> into tensor<4096x4096xf32>
    %extracted_slice_213 = tensor.extract_slice %arg0[2222198784] [45088768] [1] : tensor<6755192832xf32> to tensor<45088768xf32>
    %expanded_214 = tensor.expand_shape %extracted_slice_213 [[0, 1]] : tensor<45088768xf32> into tensor<11008x4096xf32>
    %extracted_slice_215 = tensor.extract_slice %arg0[2267287552] [45088768] [1] : tensor<6755192832xf32> to tensor<45088768xf32>
    %expanded_216 = tensor.expand_shape %extracted_slice_215 [[0, 1]] : tensor<45088768xf32> into tensor<11008x4096xf32>
    %extracted_slice_217 = tensor.extract_slice %arg0[2312376320] [45088768] [1] : tensor<6755192832xf32> to tensor<45088768xf32>
    %expanded_218 = tensor.expand_shape %extracted_slice_217 [[0, 1]] : tensor<45088768xf32> into tensor<4096x11008xf32>
    %extracted_slice_219 = tensor.extract_slice %arg0[2357465088] [16777216] [1] : tensor<6755192832xf32> to tensor<16777216xf32>
    %expanded_220 = tensor.expand_shape %extracted_slice_219 [[0, 1]] : tensor<16777216xf32> into tensor<4096x4096xf32>
    %extracted_slice_221 = tensor.extract_slice %arg0[2374242304] [16777216] [1] : tensor<6755192832xf32> to tensor<16777216xf32>
    %expanded_222 = tensor.expand_shape %extracted_slice_221 [[0, 1]] : tensor<16777216xf32> into tensor<4096x4096xf32>
    %extracted_slice_223 = tensor.extract_slice %arg0[2391019520] [16777216] [1] : tensor<6755192832xf32> to tensor<16777216xf32>
    %expanded_224 = tensor.expand_shape %extracted_slice_223 [[0, 1]] : tensor<16777216xf32> into tensor<4096x4096xf32>
    %extracted_slice_225 = tensor.extract_slice %arg0[2407796736] [16777216] [1] : tensor<6755192832xf32> to tensor<16777216xf32>
    %expanded_226 = tensor.expand_shape %extracted_slice_225 [[0, 1]] : tensor<16777216xf32> into tensor<4096x4096xf32>
    %extracted_slice_227 = tensor.extract_slice %arg0[2424573952] [45088768] [1] : tensor<6755192832xf32> to tensor<45088768xf32>
    %expanded_228 = tensor.expand_shape %extracted_slice_227 [[0, 1]] : tensor<45088768xf32> into tensor<11008x4096xf32>
    %extracted_slice_229 = tensor.extract_slice %arg0[2469662720] [45088768] [1] : tensor<6755192832xf32> to tensor<45088768xf32>
    %expanded_230 = tensor.expand_shape %extracted_slice_229 [[0, 1]] : tensor<45088768xf32> into tensor<11008x4096xf32>
    %extracted_slice_231 = tensor.extract_slice %arg0[2514751488] [45088768] [1] : tensor<6755192832xf32> to tensor<45088768xf32>
    %expanded_232 = tensor.expand_shape %extracted_slice_231 [[0, 1]] : tensor<45088768xf32> into tensor<4096x11008xf32>
    %extracted_slice_233 = tensor.extract_slice %arg0[2559840256] [16777216] [1] : tensor<6755192832xf32> to tensor<16777216xf32>
    %expanded_234 = tensor.expand_shape %extracted_slice_233 [[0, 1]] : tensor<16777216xf32> into tensor<4096x4096xf32>
    %extracted_slice_235 = tensor.extract_slice %arg0[2576617472] [16777216] [1] : tensor<6755192832xf32> to tensor<16777216xf32>
    %expanded_236 = tensor.expand_shape %extracted_slice_235 [[0, 1]] : tensor<16777216xf32> into tensor<4096x4096xf32>
    %extracted_slice_237 = tensor.extract_slice %arg0[2593394688] [16777216] [1] : tensor<6755192832xf32> to tensor<16777216xf32>
    %expanded_238 = tensor.expand_shape %extracted_slice_237 [[0, 1]] : tensor<16777216xf32> into tensor<4096x4096xf32>
    %extracted_slice_239 = tensor.extract_slice %arg0[2610171904] [16777216] [1] : tensor<6755192832xf32> to tensor<16777216xf32>
    %expanded_240 = tensor.expand_shape %extracted_slice_239 [[0, 1]] : tensor<16777216xf32> into tensor<4096x4096xf32>
    %extracted_slice_241 = tensor.extract_slice %arg0[2626949120] [45088768] [1] : tensor<6755192832xf32> to tensor<45088768xf32>
    %expanded_242 = tensor.expand_shape %extracted_slice_241 [[0, 1]] : tensor<45088768xf32> into tensor<11008x4096xf32>
    %extracted_slice_243 = tensor.extract_slice %arg0[2672037888] [45088768] [1] : tensor<6755192832xf32> to tensor<45088768xf32>
    %expanded_244 = tensor.expand_shape %extracted_slice_243 [[0, 1]] : tensor<45088768xf32> into tensor<11008x4096xf32>
    %extracted_slice_245 = tensor.extract_slice %arg0[2717126656] [45088768] [1] : tensor<6755192832xf32> to tensor<45088768xf32>
    %expanded_246 = tensor.expand_shape %extracted_slice_245 [[0, 1]] : tensor<45088768xf32> into tensor<4096x11008xf32>
    %extracted_slice_247 = tensor.extract_slice %arg0[2762215424] [16777216] [1] : tensor<6755192832xf32> to tensor<16777216xf32>
    %expanded_248 = tensor.expand_shape %extracted_slice_247 [[0, 1]] : tensor<16777216xf32> into tensor<4096x4096xf32>
    %extracted_slice_249 = tensor.extract_slice %arg0[2778992640] [16777216] [1] : tensor<6755192832xf32> to tensor<16777216xf32>
    %expanded_250 = tensor.expand_shape %extracted_slice_249 [[0, 1]] : tensor<16777216xf32> into tensor<4096x4096xf32>
    %extracted_slice_251 = tensor.extract_slice %arg0[2795769856] [16777216] [1] : tensor<6755192832xf32> to tensor<16777216xf32>
    %expanded_252 = tensor.expand_shape %extracted_slice_251 [[0, 1]] : tensor<16777216xf32> into tensor<4096x4096xf32>
    %extracted_slice_253 = tensor.extract_slice %arg0[2812547072] [16777216] [1] : tensor<6755192832xf32> to tensor<16777216xf32>
    %expanded_254 = tensor.expand_shape %extracted_slice_253 [[0, 1]] : tensor<16777216xf32> into tensor<4096x4096xf32>
    %extracted_slice_255 = tensor.extract_slice %arg0[2829324288] [45088768] [1] : tensor<6755192832xf32> to tensor<45088768xf32>
    %expanded_256 = tensor.expand_shape %extracted_slice_255 [[0, 1]] : tensor<45088768xf32> into tensor<11008x4096xf32>
    %extracted_slice_257 = tensor.extract_slice %arg0[2874413056] [45088768] [1] : tensor<6755192832xf32> to tensor<45088768xf32>
    %expanded_258 = tensor.expand_shape %extracted_slice_257 [[0, 1]] : tensor<45088768xf32> into tensor<11008x4096xf32>
    %extracted_slice_259 = tensor.extract_slice %arg0[2919501824] [45088768] [1] : tensor<6755192832xf32> to tensor<45088768xf32>
    %expanded_260 = tensor.expand_shape %extracted_slice_259 [[0, 1]] : tensor<45088768xf32> into tensor<4096x11008xf32>
    %extracted_slice_261 = tensor.extract_slice %arg0[2964590592] [16777216] [1] : tensor<6755192832xf32> to tensor<16777216xf32>
    %expanded_262 = tensor.expand_shape %extracted_slice_261 [[0, 1]] : tensor<16777216xf32> into tensor<4096x4096xf32>
    %extracted_slice_263 = tensor.extract_slice %arg0[2981367808] [16777216] [1] : tensor<6755192832xf32> to tensor<16777216xf32>
    %expanded_264 = tensor.expand_shape %extracted_slice_263 [[0, 1]] : tensor<16777216xf32> into tensor<4096x4096xf32>
    %extracted_slice_265 = tensor.extract_slice %arg0[2998145024] [16777216] [1] : tensor<6755192832xf32> to tensor<16777216xf32>
    %expanded_266 = tensor.expand_shape %extracted_slice_265 [[0, 1]] : tensor<16777216xf32> into tensor<4096x4096xf32>
    %extracted_slice_267 = tensor.extract_slice %arg0[3014922240] [16777216] [1] : tensor<6755192832xf32> to tensor<16777216xf32>
    %expanded_268 = tensor.expand_shape %extracted_slice_267 [[0, 1]] : tensor<16777216xf32> into tensor<4096x4096xf32>
    %extracted_slice_269 = tensor.extract_slice %arg0[3031699456] [45088768] [1] : tensor<6755192832xf32> to tensor<45088768xf32>
    %expanded_270 = tensor.expand_shape %extracted_slice_269 [[0, 1]] : tensor<45088768xf32> into tensor<11008x4096xf32>
    %extracted_slice_271 = tensor.extract_slice %arg0[3076788224] [45088768] [1] : tensor<6755192832xf32> to tensor<45088768xf32>
    %expanded_272 = tensor.expand_shape %extracted_slice_271 [[0, 1]] : tensor<45088768xf32> into tensor<11008x4096xf32>
    %extracted_slice_273 = tensor.extract_slice %arg0[3121876992] [45088768] [1] : tensor<6755192832xf32> to tensor<45088768xf32>
    %expanded_274 = tensor.expand_shape %extracted_slice_273 [[0, 1]] : tensor<45088768xf32> into tensor<4096x11008xf32>
    %extracted_slice_275 = tensor.extract_slice %arg0[3166965760] [16777216] [1] : tensor<6755192832xf32> to tensor<16777216xf32>
    %expanded_276 = tensor.expand_shape %extracted_slice_275 [[0, 1]] : tensor<16777216xf32> into tensor<4096x4096xf32>
    %extracted_slice_277 = tensor.extract_slice %arg0[3183742976] [16777216] [1] : tensor<6755192832xf32> to tensor<16777216xf32>
    %expanded_278 = tensor.expand_shape %extracted_slice_277 [[0, 1]] : tensor<16777216xf32> into tensor<4096x4096xf32>
    %extracted_slice_279 = tensor.extract_slice %arg0[3200520192] [16777216] [1] : tensor<6755192832xf32> to tensor<16777216xf32>
    %expanded_280 = tensor.expand_shape %extracted_slice_279 [[0, 1]] : tensor<16777216xf32> into tensor<4096x4096xf32>
    %extracted_slice_281 = tensor.extract_slice %arg0[3217297408] [16777216] [1] : tensor<6755192832xf32> to tensor<16777216xf32>
    %expanded_282 = tensor.expand_shape %extracted_slice_281 [[0, 1]] : tensor<16777216xf32> into tensor<4096x4096xf32>
    %extracted_slice_283 = tensor.extract_slice %arg0[3234074624] [45088768] [1] : tensor<6755192832xf32> to tensor<45088768xf32>
    %expanded_284 = tensor.expand_shape %extracted_slice_283 [[0, 1]] : tensor<45088768xf32> into tensor<11008x4096xf32>
    %extracted_slice_285 = tensor.extract_slice %arg0[3279163392] [45088768] [1] : tensor<6755192832xf32> to tensor<45088768xf32>
    %expanded_286 = tensor.expand_shape %extracted_slice_285 [[0, 1]] : tensor<45088768xf32> into tensor<11008x4096xf32>
    %extracted_slice_287 = tensor.extract_slice %arg0[3324252160] [45088768] [1] : tensor<6755192832xf32> to tensor<45088768xf32>
    %expanded_288 = tensor.expand_shape %extracted_slice_287 [[0, 1]] : tensor<45088768xf32> into tensor<4096x11008xf32>
    %extracted_slice_289 = tensor.extract_slice %arg0[3369340928] [16777216] [1] : tensor<6755192832xf32> to tensor<16777216xf32>
    %expanded_290 = tensor.expand_shape %extracted_slice_289 [[0, 1]] : tensor<16777216xf32> into tensor<4096x4096xf32>
    %extracted_slice_291 = tensor.extract_slice %arg0[3386118144] [16777216] [1] : tensor<6755192832xf32> to tensor<16777216xf32>
    %expanded_292 = tensor.expand_shape %extracted_slice_291 [[0, 1]] : tensor<16777216xf32> into tensor<4096x4096xf32>
    %extracted_slice_293 = tensor.extract_slice %arg0[3402895360] [16777216] [1] : tensor<6755192832xf32> to tensor<16777216xf32>
    %expanded_294 = tensor.expand_shape %extracted_slice_293 [[0, 1]] : tensor<16777216xf32> into tensor<4096x4096xf32>
    %extracted_slice_295 = tensor.extract_slice %arg0[3419672576] [16777216] [1] : tensor<6755192832xf32> to tensor<16777216xf32>
    %expanded_296 = tensor.expand_shape %extracted_slice_295 [[0, 1]] : tensor<16777216xf32> into tensor<4096x4096xf32>
    %extracted_slice_297 = tensor.extract_slice %arg0[3436449792] [45088768] [1] : tensor<6755192832xf32> to tensor<45088768xf32>
    %expanded_298 = tensor.expand_shape %extracted_slice_297 [[0, 1]] : tensor<45088768xf32> into tensor<11008x4096xf32>
    %extracted_slice_299 = tensor.extract_slice %arg0[3481538560] [45088768] [1] : tensor<6755192832xf32> to tensor<45088768xf32>
    %expanded_300 = tensor.expand_shape %extracted_slice_299 [[0, 1]] : tensor<45088768xf32> into tensor<11008x4096xf32>
    %extracted_slice_301 = tensor.extract_slice %arg0[3526627328] [45088768] [1] : tensor<6755192832xf32> to tensor<45088768xf32>
    %expanded_302 = tensor.expand_shape %extracted_slice_301 [[0, 1]] : tensor<45088768xf32> into tensor<4096x11008xf32>
    %extracted_slice_303 = tensor.extract_slice %arg0[3571716096] [16777216] [1] : tensor<6755192832xf32> to tensor<16777216xf32>
    %expanded_304 = tensor.expand_shape %extracted_slice_303 [[0, 1]] : tensor<16777216xf32> into tensor<4096x4096xf32>
    %extracted_slice_305 = tensor.extract_slice %arg0[3588493312] [16777216] [1] : tensor<6755192832xf32> to tensor<16777216xf32>
    %expanded_306 = tensor.expand_shape %extracted_slice_305 [[0, 1]] : tensor<16777216xf32> into tensor<4096x4096xf32>
    %extracted_slice_307 = tensor.extract_slice %arg0[3605270528] [16777216] [1] : tensor<6755192832xf32> to tensor<16777216xf32>
    %expanded_308 = tensor.expand_shape %extracted_slice_307 [[0, 1]] : tensor<16777216xf32> into tensor<4096x4096xf32>
    %extracted_slice_309 = tensor.extract_slice %arg0[3622047744] [16777216] [1] : tensor<6755192832xf32> to tensor<16777216xf32>
    %expanded_310 = tensor.expand_shape %extracted_slice_309 [[0, 1]] : tensor<16777216xf32> into tensor<4096x4096xf32>
    %extracted_slice_311 = tensor.extract_slice %arg0[3638824960] [45088768] [1] : tensor<6755192832xf32> to tensor<45088768xf32>
    %expanded_312 = tensor.expand_shape %extracted_slice_311 [[0, 1]] : tensor<45088768xf32> into tensor<11008x4096xf32>
    %extracted_slice_313 = tensor.extract_slice %arg0[3683913728] [45088768] [1] : tensor<6755192832xf32> to tensor<45088768xf32>
    %expanded_314 = tensor.expand_shape %extracted_slice_313 [[0, 1]] : tensor<45088768xf32> into tensor<11008x4096xf32>
    %extracted_slice_315 = tensor.extract_slice %arg0[3729002496] [45088768] [1] : tensor<6755192832xf32> to tensor<45088768xf32>
    %expanded_316 = tensor.expand_shape %extracted_slice_315 [[0, 1]] : tensor<45088768xf32> into tensor<4096x11008xf32>
    %extracted_slice_317 = tensor.extract_slice %arg0[3774091264] [16777216] [1] : tensor<6755192832xf32> to tensor<16777216xf32>
    %expanded_318 = tensor.expand_shape %extracted_slice_317 [[0, 1]] : tensor<16777216xf32> into tensor<4096x4096xf32>
    %extracted_slice_319 = tensor.extract_slice %arg0[3790868480] [16777216] [1] : tensor<6755192832xf32> to tensor<16777216xf32>
    %expanded_320 = tensor.expand_shape %extracted_slice_319 [[0, 1]] : tensor<16777216xf32> into tensor<4096x4096xf32>
    %extracted_slice_321 = tensor.extract_slice %arg0[3807645696] [16777216] [1] : tensor<6755192832xf32> to tensor<16777216xf32>
    %expanded_322 = tensor.expand_shape %extracted_slice_321 [[0, 1]] : tensor<16777216xf32> into tensor<4096x4096xf32>
    %extracted_slice_323 = tensor.extract_slice %arg0[3824422912] [16777216] [1] : tensor<6755192832xf32> to tensor<16777216xf32>
    %expanded_324 = tensor.expand_shape %extracted_slice_323 [[0, 1]] : tensor<16777216xf32> into tensor<4096x4096xf32>
    %extracted_slice_325 = tensor.extract_slice %arg0[3841200128] [45088768] [1] : tensor<6755192832xf32> to tensor<45088768xf32>
    %expanded_326 = tensor.expand_shape %extracted_slice_325 [[0, 1]] : tensor<45088768xf32> into tensor<11008x4096xf32>
    %extracted_slice_327 = tensor.extract_slice %arg0[3886288896] [45088768] [1] : tensor<6755192832xf32> to tensor<45088768xf32>
    %expanded_328 = tensor.expand_shape %extracted_slice_327 [[0, 1]] : tensor<45088768xf32> into tensor<11008x4096xf32>
    %extracted_slice_329 = tensor.extract_slice %arg0[3931377664] [45088768] [1] : tensor<6755192832xf32> to tensor<45088768xf32>
    %expanded_330 = tensor.expand_shape %extracted_slice_329 [[0, 1]] : tensor<45088768xf32> into tensor<4096x11008xf32>
    %extracted_slice_331 = tensor.extract_slice %arg0[3976466432] [16777216] [1] : tensor<6755192832xf32> to tensor<16777216xf32>
    %expanded_332 = tensor.expand_shape %extracted_slice_331 [[0, 1]] : tensor<16777216xf32> into tensor<4096x4096xf32>
    %extracted_slice_333 = tensor.extract_slice %arg0[3993243648] [16777216] [1] : tensor<6755192832xf32> to tensor<16777216xf32>
    %expanded_334 = tensor.expand_shape %extracted_slice_333 [[0, 1]] : tensor<16777216xf32> into tensor<4096x4096xf32>
    %extracted_slice_335 = tensor.extract_slice %arg0[4010020864] [16777216] [1] : tensor<6755192832xf32> to tensor<16777216xf32>
    %expanded_336 = tensor.expand_shape %extracted_slice_335 [[0, 1]] : tensor<16777216xf32> into tensor<4096x4096xf32>
    %extracted_slice_337 = tensor.extract_slice %arg0[4026798080] [16777216] [1] : tensor<6755192832xf32> to tensor<16777216xf32>
    %expanded_338 = tensor.expand_shape %extracted_slice_337 [[0, 1]] : tensor<16777216xf32> into tensor<4096x4096xf32>
    %extracted_slice_339 = tensor.extract_slice %arg0[4043575296] [45088768] [1] : tensor<6755192832xf32> to tensor<45088768xf32>
    %expanded_340 = tensor.expand_shape %extracted_slice_339 [[0, 1]] : tensor<45088768xf32> into tensor<11008x4096xf32>
    %extracted_slice_341 = tensor.extract_slice %arg0[4088664064] [45088768] [1] : tensor<6755192832xf32> to tensor<45088768xf32>
    %expanded_342 = tensor.expand_shape %extracted_slice_341 [[0, 1]] : tensor<45088768xf32> into tensor<11008x4096xf32>
    %extracted_slice_343 = tensor.extract_slice %arg0[4133752832] [45088768] [1] : tensor<6755192832xf32> to tensor<45088768xf32>
    %expanded_344 = tensor.expand_shape %extracted_slice_343 [[0, 1]] : tensor<45088768xf32> into tensor<4096x11008xf32>
    %extracted_slice_345 = tensor.extract_slice %arg0[4178841600] [16777216] [1] : tensor<6755192832xf32> to tensor<16777216xf32>
    %expanded_346 = tensor.expand_shape %extracted_slice_345 [[0, 1]] : tensor<16777216xf32> into tensor<4096x4096xf32>
    %extracted_slice_347 = tensor.extract_slice %arg0[4195618816] [16777216] [1] : tensor<6755192832xf32> to tensor<16777216xf32>
    %expanded_348 = tensor.expand_shape %extracted_slice_347 [[0, 1]] : tensor<16777216xf32> into tensor<4096x4096xf32>
    %extracted_slice_349 = tensor.extract_slice %arg0[4212396032] [16777216] [1] : tensor<6755192832xf32> to tensor<16777216xf32>
    %expanded_350 = tensor.expand_shape %extracted_slice_349 [[0, 1]] : tensor<16777216xf32> into tensor<4096x4096xf32>
    %extracted_slice_351 = tensor.extract_slice %arg0[4229173248] [16777216] [1] : tensor<6755192832xf32> to tensor<16777216xf32>
    %expanded_352 = tensor.expand_shape %extracted_slice_351 [[0, 1]] : tensor<16777216xf32> into tensor<4096x4096xf32>
    %extracted_slice_353 = tensor.extract_slice %arg0[4245950464] [45088768] [1] : tensor<6755192832xf32> to tensor<45088768xf32>
    %expanded_354 = tensor.expand_shape %extracted_slice_353 [[0, 1]] : tensor<45088768xf32> into tensor<11008x4096xf32>
    %extracted_slice_355 = tensor.extract_slice %arg0[4291039232] [45088768] [1] : tensor<6755192832xf32> to tensor<45088768xf32>
    %expanded_356 = tensor.expand_shape %extracted_slice_355 [[0, 1]] : tensor<45088768xf32> into tensor<11008x4096xf32>
    %extracted_slice_357 = tensor.extract_slice %arg0[4336128000] [45088768] [1] : tensor<6755192832xf32> to tensor<45088768xf32>
    %expanded_358 = tensor.expand_shape %extracted_slice_357 [[0, 1]] : tensor<45088768xf32> into tensor<4096x11008xf32>
    %extracted_slice_359 = tensor.extract_slice %arg0[4381216768] [16777216] [1] : tensor<6755192832xf32> to tensor<16777216xf32>
    %expanded_360 = tensor.expand_shape %extracted_slice_359 [[0, 1]] : tensor<16777216xf32> into tensor<4096x4096xf32>
    %extracted_slice_361 = tensor.extract_slice %arg0[4397993984] [16777216] [1] : tensor<6755192832xf32> to tensor<16777216xf32>
    %expanded_362 = tensor.expand_shape %extracted_slice_361 [[0, 1]] : tensor<16777216xf32> into tensor<4096x4096xf32>
    %extracted_slice_363 = tensor.extract_slice %arg0[4414771200] [16777216] [1] : tensor<6755192832xf32> to tensor<16777216xf32>
    %expanded_364 = tensor.expand_shape %extracted_slice_363 [[0, 1]] : tensor<16777216xf32> into tensor<4096x4096xf32>
    %extracted_slice_365 = tensor.extract_slice %arg0[4431548416] [16777216] [1] : tensor<6755192832xf32> to tensor<16777216xf32>
    %expanded_366 = tensor.expand_shape %extracted_slice_365 [[0, 1]] : tensor<16777216xf32> into tensor<4096x4096xf32>
    %extracted_slice_367 = tensor.extract_slice %arg0[4448325632] [45088768] [1] : tensor<6755192832xf32> to tensor<45088768xf32>
    %expanded_368 = tensor.expand_shape %extracted_slice_367 [[0, 1]] : tensor<45088768xf32> into tensor<11008x4096xf32>
    %extracted_slice_369 = tensor.extract_slice %arg0[4493414400] [45088768] [1] : tensor<6755192832xf32> to tensor<45088768xf32>
    %expanded_370 = tensor.expand_shape %extracted_slice_369 [[0, 1]] : tensor<45088768xf32> into tensor<11008x4096xf32>
    %extracted_slice_371 = tensor.extract_slice %arg0[4538503168] [45088768] [1] : tensor<6755192832xf32> to tensor<45088768xf32>
    %expanded_372 = tensor.expand_shape %extracted_slice_371 [[0, 1]] : tensor<45088768xf32> into tensor<4096x11008xf32>
    %extracted_slice_373 = tensor.extract_slice %arg0[4583591936] [16777216] [1] : tensor<6755192832xf32> to tensor<16777216xf32>
    %expanded_374 = tensor.expand_shape %extracted_slice_373 [[0, 1]] : tensor<16777216xf32> into tensor<4096x4096xf32>
    %extracted_slice_375 = tensor.extract_slice %arg0[4600369152] [16777216] [1] : tensor<6755192832xf32> to tensor<16777216xf32>
    %expanded_376 = tensor.expand_shape %extracted_slice_375 [[0, 1]] : tensor<16777216xf32> into tensor<4096x4096xf32>
    %extracted_slice_377 = tensor.extract_slice %arg0[4617146368] [16777216] [1] : tensor<6755192832xf32> to tensor<16777216xf32>
    %expanded_378 = tensor.expand_shape %extracted_slice_377 [[0, 1]] : tensor<16777216xf32> into tensor<4096x4096xf32>
    %extracted_slice_379 = tensor.extract_slice %arg0[4633923584] [16777216] [1] : tensor<6755192832xf32> to tensor<16777216xf32>
    %expanded_380 = tensor.expand_shape %extracted_slice_379 [[0, 1]] : tensor<16777216xf32> into tensor<4096x4096xf32>
    %extracted_slice_381 = tensor.extract_slice %arg0[4650700800] [45088768] [1] : tensor<6755192832xf32> to tensor<45088768xf32>
    %expanded_382 = tensor.expand_shape %extracted_slice_381 [[0, 1]] : tensor<45088768xf32> into tensor<11008x4096xf32>
    %extracted_slice_383 = tensor.extract_slice %arg0[4695789568] [45088768] [1] : tensor<6755192832xf32> to tensor<45088768xf32>
    %expanded_384 = tensor.expand_shape %extracted_slice_383 [[0, 1]] : tensor<45088768xf32> into tensor<11008x4096xf32>
    %extracted_slice_385 = tensor.extract_slice %arg0[4740878336] [45088768] [1] : tensor<6755192832xf32> to tensor<45088768xf32>
    %expanded_386 = tensor.expand_shape %extracted_slice_385 [[0, 1]] : tensor<45088768xf32> into tensor<4096x11008xf32>
    %extracted_slice_387 = tensor.extract_slice %arg0[4785967104] [16777216] [1] : tensor<6755192832xf32> to tensor<16777216xf32>
    %expanded_388 = tensor.expand_shape %extracted_slice_387 [[0, 1]] : tensor<16777216xf32> into tensor<4096x4096xf32>
    %extracted_slice_389 = tensor.extract_slice %arg0[4802744320] [16777216] [1] : tensor<6755192832xf32> to tensor<16777216xf32>
    %expanded_390 = tensor.expand_shape %extracted_slice_389 [[0, 1]] : tensor<16777216xf32> into tensor<4096x4096xf32>
    %extracted_slice_391 = tensor.extract_slice %arg0[4819521536] [16777216] [1] : tensor<6755192832xf32> to tensor<16777216xf32>
    %expanded_392 = tensor.expand_shape %extracted_slice_391 [[0, 1]] : tensor<16777216xf32> into tensor<4096x4096xf32>
    %extracted_slice_393 = tensor.extract_slice %arg0[4836298752] [16777216] [1] : tensor<6755192832xf32> to tensor<16777216xf32>
    %expanded_394 = tensor.expand_shape %extracted_slice_393 [[0, 1]] : tensor<16777216xf32> into tensor<4096x4096xf32>
    %extracted_slice_395 = tensor.extract_slice %arg0[4853075968] [45088768] [1] : tensor<6755192832xf32> to tensor<45088768xf32>
    %expanded_396 = tensor.expand_shape %extracted_slice_395 [[0, 1]] : tensor<45088768xf32> into tensor<11008x4096xf32>
    %extracted_slice_397 = tensor.extract_slice %arg0[4898164736] [45088768] [1] : tensor<6755192832xf32> to tensor<45088768xf32>
    %expanded_398 = tensor.expand_shape %extracted_slice_397 [[0, 1]] : tensor<45088768xf32> into tensor<11008x4096xf32>
    %extracted_slice_399 = tensor.extract_slice %arg0[4943253504] [45088768] [1] : tensor<6755192832xf32> to tensor<45088768xf32>
    %expanded_400 = tensor.expand_shape %extracted_slice_399 [[0, 1]] : tensor<45088768xf32> into tensor<4096x11008xf32>
    %extracted_slice_401 = tensor.extract_slice %arg0[4988342272] [16777216] [1] : tensor<6755192832xf32> to tensor<16777216xf32>
    %expanded_402 = tensor.expand_shape %extracted_slice_401 [[0, 1]] : tensor<16777216xf32> into tensor<4096x4096xf32>
    %extracted_slice_403 = tensor.extract_slice %arg0[5005119488] [16777216] [1] : tensor<6755192832xf32> to tensor<16777216xf32>
    %expanded_404 = tensor.expand_shape %extracted_slice_403 [[0, 1]] : tensor<16777216xf32> into tensor<4096x4096xf32>
    %extracted_slice_405 = tensor.extract_slice %arg0[5021896704] [16777216] [1] : tensor<6755192832xf32> to tensor<16777216xf32>
    %expanded_406 = tensor.expand_shape %extracted_slice_405 [[0, 1]] : tensor<16777216xf32> into tensor<4096x4096xf32>
    %extracted_slice_407 = tensor.extract_slice %arg0[5038673920] [16777216] [1] : tensor<6755192832xf32> to tensor<16777216xf32>
    %expanded_408 = tensor.expand_shape %extracted_slice_407 [[0, 1]] : tensor<16777216xf32> into tensor<4096x4096xf32>
    %extracted_slice_409 = tensor.extract_slice %arg0[5055451136] [45088768] [1] : tensor<6755192832xf32> to tensor<45088768xf32>
    %expanded_410 = tensor.expand_shape %extracted_slice_409 [[0, 1]] : tensor<45088768xf32> into tensor<11008x4096xf32>
    %extracted_slice_411 = tensor.extract_slice %arg0[5100539904] [45088768] [1] : tensor<6755192832xf32> to tensor<45088768xf32>
    %expanded_412 = tensor.expand_shape %extracted_slice_411 [[0, 1]] : tensor<45088768xf32> into tensor<11008x4096xf32>
    %extracted_slice_413 = tensor.extract_slice %arg0[5145628672] [45088768] [1] : tensor<6755192832xf32> to tensor<45088768xf32>
    %expanded_414 = tensor.expand_shape %extracted_slice_413 [[0, 1]] : tensor<45088768xf32> into tensor<4096x11008xf32>
    %extracted_slice_415 = tensor.extract_slice %arg0[5190717440] [16777216] [1] : tensor<6755192832xf32> to tensor<16777216xf32>
    %expanded_416 = tensor.expand_shape %extracted_slice_415 [[0, 1]] : tensor<16777216xf32> into tensor<4096x4096xf32>
    %extracted_slice_417 = tensor.extract_slice %arg0[5207494656] [16777216] [1] : tensor<6755192832xf32> to tensor<16777216xf32>
    %expanded_418 = tensor.expand_shape %extracted_slice_417 [[0, 1]] : tensor<16777216xf32> into tensor<4096x4096xf32>
    %extracted_slice_419 = tensor.extract_slice %arg0[5224271872] [16777216] [1] : tensor<6755192832xf32> to tensor<16777216xf32>
    %expanded_420 = tensor.expand_shape %extracted_slice_419 [[0, 1]] : tensor<16777216xf32> into tensor<4096x4096xf32>
    %extracted_slice_421 = tensor.extract_slice %arg0[5241049088] [16777216] [1] : tensor<6755192832xf32> to tensor<16777216xf32>
    %expanded_422 = tensor.expand_shape %extracted_slice_421 [[0, 1]] : tensor<16777216xf32> into tensor<4096x4096xf32>
    %extracted_slice_423 = tensor.extract_slice %arg0[5257826304] [45088768] [1] : tensor<6755192832xf32> to tensor<45088768xf32>
    %expanded_424 = tensor.expand_shape %extracted_slice_423 [[0, 1]] : tensor<45088768xf32> into tensor<11008x4096xf32>
    %extracted_slice_425 = tensor.extract_slice %arg0[5302915072] [45088768] [1] : tensor<6755192832xf32> to tensor<45088768xf32>
    %expanded_426 = tensor.expand_shape %extracted_slice_425 [[0, 1]] : tensor<45088768xf32> into tensor<11008x4096xf32>
    %extracted_slice_427 = tensor.extract_slice %arg0[5348003840] [45088768] [1] : tensor<6755192832xf32> to tensor<45088768xf32>
    %expanded_428 = tensor.expand_shape %extracted_slice_427 [[0, 1]] : tensor<45088768xf32> into tensor<4096x11008xf32>
    %extracted_slice_429 = tensor.extract_slice %arg0[5393092608] [16777216] [1] : tensor<6755192832xf32> to tensor<16777216xf32>
    %expanded_430 = tensor.expand_shape %extracted_slice_429 [[0, 1]] : tensor<16777216xf32> into tensor<4096x4096xf32>
    %extracted_slice_431 = tensor.extract_slice %arg0[5409869824] [16777216] [1] : tensor<6755192832xf32> to tensor<16777216xf32>
    %expanded_432 = tensor.expand_shape %extracted_slice_431 [[0, 1]] : tensor<16777216xf32> into tensor<4096x4096xf32>
    %extracted_slice_433 = tensor.extract_slice %arg0[5426647040] [16777216] [1] : tensor<6755192832xf32> to tensor<16777216xf32>
    %expanded_434 = tensor.expand_shape %extracted_slice_433 [[0, 1]] : tensor<16777216xf32> into tensor<4096x4096xf32>
    %extracted_slice_435 = tensor.extract_slice %arg0[5443424256] [16777216] [1] : tensor<6755192832xf32> to tensor<16777216xf32>
    %expanded_436 = tensor.expand_shape %extracted_slice_435 [[0, 1]] : tensor<16777216xf32> into tensor<4096x4096xf32>
    %extracted_slice_437 = tensor.extract_slice %arg0[5460201472] [45088768] [1] : tensor<6755192832xf32> to tensor<45088768xf32>
    %expanded_438 = tensor.expand_shape %extracted_slice_437 [[0, 1]] : tensor<45088768xf32> into tensor<11008x4096xf32>
    %extracted_slice_439 = tensor.extract_slice %arg0[5505290240] [45088768] [1] : tensor<6755192832xf32> to tensor<45088768xf32>
    %expanded_440 = tensor.expand_shape %extracted_slice_439 [[0, 1]] : tensor<45088768xf32> into tensor<11008x4096xf32>
    %extracted_slice_441 = tensor.extract_slice %arg0[5550379008] [45088768] [1] : tensor<6755192832xf32> to tensor<45088768xf32>
    %expanded_442 = tensor.expand_shape %extracted_slice_441 [[0, 1]] : tensor<45088768xf32> into tensor<4096x11008xf32>
    %extracted_slice_443 = tensor.extract_slice %arg0[5595467776] [16777216] [1] : tensor<6755192832xf32> to tensor<16777216xf32>
    %expanded_444 = tensor.expand_shape %extracted_slice_443 [[0, 1]] : tensor<16777216xf32> into tensor<4096x4096xf32>
    %extracted_slice_445 = tensor.extract_slice %arg0[5612244992] [16777216] [1] : tensor<6755192832xf32> to tensor<16777216xf32>
    %expanded_446 = tensor.expand_shape %extracted_slice_445 [[0, 1]] : tensor<16777216xf32> into tensor<4096x4096xf32>
    %extracted_slice_447 = tensor.extract_slice %arg0[5629022208] [16777216] [1] : tensor<6755192832xf32> to tensor<16777216xf32>
    %expanded_448 = tensor.expand_shape %extracted_slice_447 [[0, 1]] : tensor<16777216xf32> into tensor<4096x4096xf32>
    %extracted_slice_449 = tensor.extract_slice %arg0[5645799424] [16777216] [1] : tensor<6755192832xf32> to tensor<16777216xf32>
    %expanded_450 = tensor.expand_shape %extracted_slice_449 [[0, 1]] : tensor<16777216xf32> into tensor<4096x4096xf32>
    %extracted_slice_451 = tensor.extract_slice %arg0[5662576640] [45088768] [1] : tensor<6755192832xf32> to tensor<45088768xf32>
    %expanded_452 = tensor.expand_shape %extracted_slice_451 [[0, 1]] : tensor<45088768xf32> into tensor<11008x4096xf32>
    %extracted_slice_453 = tensor.extract_slice %arg0[5707665408] [45088768] [1] : tensor<6755192832xf32> to tensor<45088768xf32>
    %expanded_454 = tensor.expand_shape %extracted_slice_453 [[0, 1]] : tensor<45088768xf32> into tensor<11008x4096xf32>
    %extracted_slice_455 = tensor.extract_slice %arg0[5752754176] [45088768] [1] : tensor<6755192832xf32> to tensor<45088768xf32>
    %expanded_456 = tensor.expand_shape %extracted_slice_455 [[0, 1]] : tensor<45088768xf32> into tensor<4096x11008xf32>
    %extracted_slice_457 = tensor.extract_slice %arg0[5797842944] [16777216] [1] : tensor<6755192832xf32> to tensor<16777216xf32>
    %expanded_458 = tensor.expand_shape %extracted_slice_457 [[0, 1]] : tensor<16777216xf32> into tensor<4096x4096xf32>
    %extracted_slice_459 = tensor.extract_slice %arg0[5814620160] [16777216] [1] : tensor<6755192832xf32> to tensor<16777216xf32>
    %expanded_460 = tensor.expand_shape %extracted_slice_459 [[0, 1]] : tensor<16777216xf32> into tensor<4096x4096xf32>
    %extracted_slice_461 = tensor.extract_slice %arg0[5831397376] [16777216] [1] : tensor<6755192832xf32> to tensor<16777216xf32>
    %expanded_462 = tensor.expand_shape %extracted_slice_461 [[0, 1]] : tensor<16777216xf32> into tensor<4096x4096xf32>
    %extracted_slice_463 = tensor.extract_slice %arg0[5848174592] [16777216] [1] : tensor<6755192832xf32> to tensor<16777216xf32>
    %expanded_464 = tensor.expand_shape %extracted_slice_463 [[0, 1]] : tensor<16777216xf32> into tensor<4096x4096xf32>
    %extracted_slice_465 = tensor.extract_slice %arg0[5864951808] [45088768] [1] : tensor<6755192832xf32> to tensor<45088768xf32>
    %expanded_466 = tensor.expand_shape %extracted_slice_465 [[0, 1]] : tensor<45088768xf32> into tensor<11008x4096xf32>
    %extracted_slice_467 = tensor.extract_slice %arg0[5910040576] [45088768] [1] : tensor<6755192832xf32> to tensor<45088768xf32>
    %expanded_468 = tensor.expand_shape %extracted_slice_467 [[0, 1]] : tensor<45088768xf32> into tensor<11008x4096xf32>
    %extracted_slice_469 = tensor.extract_slice %arg0[5955129344] [45088768] [1] : tensor<6755192832xf32> to tensor<45088768xf32>
    %expanded_470 = tensor.expand_shape %extracted_slice_469 [[0, 1]] : tensor<45088768xf32> into tensor<4096x11008xf32>
    %extracted_slice_471 = tensor.extract_slice %arg0[6000218112] [16777216] [1] : tensor<6755192832xf32> to tensor<16777216xf32>
    %expanded_472 = tensor.expand_shape %extracted_slice_471 [[0, 1]] : tensor<16777216xf32> into tensor<4096x4096xf32>
    %extracted_slice_473 = tensor.extract_slice %arg0[6016995328] [16777216] [1] : tensor<6755192832xf32> to tensor<16777216xf32>
    %expanded_474 = tensor.expand_shape %extracted_slice_473 [[0, 1]] : tensor<16777216xf32> into tensor<4096x4096xf32>
    %extracted_slice_475 = tensor.extract_slice %arg0[6033772544] [16777216] [1] : tensor<6755192832xf32> to tensor<16777216xf32>
    %expanded_476 = tensor.expand_shape %extracted_slice_475 [[0, 1]] : tensor<16777216xf32> into tensor<4096x4096xf32>
    %extracted_slice_477 = tensor.extract_slice %arg0[6050549760] [16777216] [1] : tensor<6755192832xf32> to tensor<16777216xf32>
    %expanded_478 = tensor.expand_shape %extracted_slice_477 [[0, 1]] : tensor<16777216xf32> into tensor<4096x4096xf32>
    %extracted_slice_479 = tensor.extract_slice %arg0[6067326976] [45088768] [1] : tensor<6755192832xf32> to tensor<45088768xf32>
    %expanded_480 = tensor.expand_shape %extracted_slice_479 [[0, 1]] : tensor<45088768xf32> into tensor<11008x4096xf32>
    %extracted_slice_481 = tensor.extract_slice %arg0[6112415744] [45088768] [1] : tensor<6755192832xf32> to tensor<45088768xf32>
    %expanded_482 = tensor.expand_shape %extracted_slice_481 [[0, 1]] : tensor<45088768xf32> into tensor<11008x4096xf32>
    %extracted_slice_483 = tensor.extract_slice %arg0[6157504512] [45088768] [1] : tensor<6755192832xf32> to tensor<45088768xf32>
    %expanded_484 = tensor.expand_shape %extracted_slice_483 [[0, 1]] : tensor<45088768xf32> into tensor<4096x11008xf32>
    %extracted_slice_485 = tensor.extract_slice %arg0[6202593280] [16777216] [1] : tensor<6755192832xf32> to tensor<16777216xf32>
    %expanded_486 = tensor.expand_shape %extracted_slice_485 [[0, 1]] : tensor<16777216xf32> into tensor<4096x4096xf32>
    %extracted_slice_487 = tensor.extract_slice %arg0[6219370496] [16777216] [1] : tensor<6755192832xf32> to tensor<16777216xf32>
    %expanded_488 = tensor.expand_shape %extracted_slice_487 [[0, 1]] : tensor<16777216xf32> into tensor<4096x4096xf32>
    %extracted_slice_489 = tensor.extract_slice %arg0[6236147712] [16777216] [1] : tensor<6755192832xf32> to tensor<16777216xf32>
    %expanded_490 = tensor.expand_shape %extracted_slice_489 [[0, 1]] : tensor<16777216xf32> into tensor<4096x4096xf32>
    %extracted_slice_491 = tensor.extract_slice %arg0[6252924928] [16777216] [1] : tensor<6755192832xf32> to tensor<16777216xf32>
    %expanded_492 = tensor.expand_shape %extracted_slice_491 [[0, 1]] : tensor<16777216xf32> into tensor<4096x4096xf32>
    %extracted_slice_493 = tensor.extract_slice %arg0[6269702144] [45088768] [1] : tensor<6755192832xf32> to tensor<45088768xf32>
    %expanded_494 = tensor.expand_shape %extracted_slice_493 [[0, 1]] : tensor<45088768xf32> into tensor<11008x4096xf32>
    %extracted_slice_495 = tensor.extract_slice %arg0[6314790912] [45088768] [1] : tensor<6755192832xf32> to tensor<45088768xf32>
    %expanded_496 = tensor.expand_shape %extracted_slice_495 [[0, 1]] : tensor<45088768xf32> into tensor<11008x4096xf32>
    %extracted_slice_497 = tensor.extract_slice %arg0[6359879680] [45088768] [1] : tensor<6755192832xf32> to tensor<45088768xf32>
    %expanded_498 = tensor.expand_shape %extracted_slice_497 [[0, 1]] : tensor<45088768xf32> into tensor<4096x11008xf32>
    %extracted_slice_499 = tensor.extract_slice %arg0[6404968448] [16777216] [1] : tensor<6755192832xf32> to tensor<16777216xf32>
    %expanded_500 = tensor.expand_shape %extracted_slice_499 [[0, 1]] : tensor<16777216xf32> into tensor<4096x4096xf32>
    %extracted_slice_501 = tensor.extract_slice %arg0[6421745664] [16777216] [1] : tensor<6755192832xf32> to tensor<16777216xf32>
    %expanded_502 = tensor.expand_shape %extracted_slice_501 [[0, 1]] : tensor<16777216xf32> into tensor<4096x4096xf32>
    %extracted_slice_503 = tensor.extract_slice %arg0[6438522880] [16777216] [1] : tensor<6755192832xf32> to tensor<16777216xf32>
    %expanded_504 = tensor.expand_shape %extracted_slice_503 [[0, 1]] : tensor<16777216xf32> into tensor<4096x4096xf32>
    %extracted_slice_505 = tensor.extract_slice %arg0[6455300096] [16777216] [1] : tensor<6755192832xf32> to tensor<16777216xf32>
    %expanded_506 = tensor.expand_shape %extracted_slice_505 [[0, 1]] : tensor<16777216xf32> into tensor<4096x4096xf32>
    %extracted_slice_507 = tensor.extract_slice %arg0[6472077312] [45088768] [1] : tensor<6755192832xf32> to tensor<45088768xf32>
    %expanded_508 = tensor.expand_shape %extracted_slice_507 [[0, 1]] : tensor<45088768xf32> into tensor<11008x4096xf32>
    %extracted_slice_509 = tensor.extract_slice %arg0[6517166080] [45088768] [1] : tensor<6755192832xf32> to tensor<45088768xf32>
    %expanded_510 = tensor.expand_shape %extracted_slice_509 [[0, 1]] : tensor<45088768xf32> into tensor<11008x4096xf32>
    %extracted_slice_511 = tensor.extract_slice %arg0[6562254848] [45088768] [1] : tensor<6755192832xf32> to tensor<45088768xf32>
    %expanded_512 = tensor.expand_shape %extracted_slice_511 [[0, 1]] : tensor<45088768xf32> into tensor<4096x11008xf32>
    %extracted_slice_513 = tensor.extract_slice %arg0[6607343616] [131072000] [1] : tensor<6755192832xf32> to tensor<131072000xf32>
    %expanded_514 = tensor.expand_shape %extracted_slice_513 [[0, 1]] : tensor<131072000xf32> into tensor<32000x4096xf32>
    %extracted_slice_515 = tensor.extract_slice %arg0[6738415616] [262144] [1] : tensor<6755192832xf32> to tensor<262144xf32>
    %expanded_516 = tensor.expand_shape %extracted_slice_515 [[0, 1, 2, 3]] : tensor<262144xf32> into tensor<1x1x2048x128xf32>
    %extracted_slice_517 = tensor.extract_slice %arg0[6738677760] [262144] [1] : tensor<6755192832xf32> to tensor<262144xf32>
    %expanded_518 = tensor.expand_shape %extracted_slice_517 [[0, 1, 2, 3]] : tensor<262144xf32> into tensor<1x1x2048x128xf32>
    %extracted_slice_519 = tensor.extract_slice %arg0[6738939904] [262144] [1] : tensor<6755192832xf32> to tensor<262144xf32>
    %expanded_520 = tensor.expand_shape %extracted_slice_519 [[0, 1, 2, 3]] : tensor<262144xf32> into tensor<1x1x2048x128xf32>
    %extracted_slice_521 = tensor.extract_slice %arg0[6739202048] [262144] [1] : tensor<6755192832xf32> to tensor<262144xf32>
    %expanded_522 = tensor.expand_shape %extracted_slice_521 [[0, 1, 2, 3]] : tensor<262144xf32> into tensor<1x1x2048x128xf32>
    %extracted_slice_523 = tensor.extract_slice %arg0[6739464192] [262144] [1] : tensor<6755192832xf32> to tensor<262144xf32>
    %expanded_524 = tensor.expand_shape %extracted_slice_523 [[0, 1, 2, 3]] : tensor<262144xf32> into tensor<1x1x2048x128xf32>
    %extracted_slice_525 = tensor.extract_slice %arg0[6739726336] [262144] [1] : tensor<6755192832xf32> to tensor<262144xf32>
    %expanded_526 = tensor.expand_shape %extracted_slice_525 [[0, 1, 2, 3]] : tensor<262144xf32> into tensor<1x1x2048x128xf32>
    %extracted_slice_527 = tensor.extract_slice %arg0[6739988480] [262144] [1] : tensor<6755192832xf32> to tensor<262144xf32>
    %expanded_528 = tensor.expand_shape %extracted_slice_527 [[0, 1, 2, 3]] : tensor<262144xf32> into tensor<1x1x2048x128xf32>
    %extracted_slice_529 = tensor.extract_slice %arg0[6740250624] [262144] [1] : tensor<6755192832xf32> to tensor<262144xf32>
    %expanded_530 = tensor.expand_shape %extracted_slice_529 [[0, 1, 2, 3]] : tensor<262144xf32> into tensor<1x1x2048x128xf32>
    %extracted_slice_531 = tensor.extract_slice %arg0[6740512768] [262144] [1] : tensor<6755192832xf32> to tensor<262144xf32>
    %expanded_532 = tensor.expand_shape %extracted_slice_531 [[0, 1, 2, 3]] : tensor<262144xf32> into tensor<1x1x2048x128xf32>
    %extracted_slice_533 = tensor.extract_slice %arg0[6740774912] [262144] [1] : tensor<6755192832xf32> to tensor<262144xf32>
    %expanded_534 = tensor.expand_shape %extracted_slice_533 [[0, 1, 2, 3]] : tensor<262144xf32> into tensor<1x1x2048x128xf32>
    %extracted_slice_535 = tensor.extract_slice %arg0[6741037056] [262144] [1] : tensor<6755192832xf32> to tensor<262144xf32>
    %expanded_536 = tensor.expand_shape %extracted_slice_535 [[0, 1, 2, 3]] : tensor<262144xf32> into tensor<1x1x2048x128xf32>
    %extracted_slice_537 = tensor.extract_slice %arg0[6741299200] [262144] [1] : tensor<6755192832xf32> to tensor<262144xf32>
    %expanded_538 = tensor.expand_shape %extracted_slice_537 [[0, 1, 2, 3]] : tensor<262144xf32> into tensor<1x1x2048x128xf32>
    %extracted_slice_539 = tensor.extract_slice %arg0[6741561344] [262144] [1] : tensor<6755192832xf32> to tensor<262144xf32>
    %expanded_540 = tensor.expand_shape %extracted_slice_539 [[0, 1, 2, 3]] : tensor<262144xf32> into tensor<1x1x2048x128xf32>
    %extracted_slice_541 = tensor.extract_slice %arg0[6741823488] [262144] [1] : tensor<6755192832xf32> to tensor<262144xf32>
    %expanded_542 = tensor.expand_shape %extracted_slice_541 [[0, 1, 2, 3]] : tensor<262144xf32> into tensor<1x1x2048x128xf32>
    %extracted_slice_543 = tensor.extract_slice %arg0[6742085632] [262144] [1] : tensor<6755192832xf32> to tensor<262144xf32>
    %expanded_544 = tensor.expand_shape %extracted_slice_543 [[0, 1, 2, 3]] : tensor<262144xf32> into tensor<1x1x2048x128xf32>
    %extracted_slice_545 = tensor.extract_slice %arg0[6742347776] [262144] [1] : tensor<6755192832xf32> to tensor<262144xf32>
    %expanded_546 = tensor.expand_shape %extracted_slice_545 [[0, 1, 2, 3]] : tensor<262144xf32> into tensor<1x1x2048x128xf32>
    %extracted_slice_547 = tensor.extract_slice %arg0[6742609920] [262144] [1] : tensor<6755192832xf32> to tensor<262144xf32>
    %expanded_548 = tensor.expand_shape %extracted_slice_547 [[0, 1, 2, 3]] : tensor<262144xf32> into tensor<1x1x2048x128xf32>
    %extracted_slice_549 = tensor.extract_slice %arg0[6742872064] [262144] [1] : tensor<6755192832xf32> to tensor<262144xf32>
    %expanded_550 = tensor.expand_shape %extracted_slice_549 [[0, 1, 2, 3]] : tensor<262144xf32> into tensor<1x1x2048x128xf32>
    %extracted_slice_551 = tensor.extract_slice %arg0[6743134208] [262144] [1] : tensor<6755192832xf32> to tensor<262144xf32>
    %expanded_552 = tensor.expand_shape %extracted_slice_551 [[0, 1, 2, 3]] : tensor<262144xf32> into tensor<1x1x2048x128xf32>
    %extracted_slice_553 = tensor.extract_slice %arg0[6743396352] [262144] [1] : tensor<6755192832xf32> to tensor<262144xf32>
    %expanded_554 = tensor.expand_shape %extracted_slice_553 [[0, 1, 2, 3]] : tensor<262144xf32> into tensor<1x1x2048x128xf32>
    %extracted_slice_555 = tensor.extract_slice %arg0[6743658496] [262144] [1] : tensor<6755192832xf32> to tensor<262144xf32>
    %expanded_556 = tensor.expand_shape %extracted_slice_555 [[0, 1, 2, 3]] : tensor<262144xf32> into tensor<1x1x2048x128xf32>
    %extracted_slice_557 = tensor.extract_slice %arg0[6743920640] [262144] [1] : tensor<6755192832xf32> to tensor<262144xf32>
    %expanded_558 = tensor.expand_shape %extracted_slice_557 [[0, 1, 2, 3]] : tensor<262144xf32> into tensor<1x1x2048x128xf32>
    %extracted_slice_559 = tensor.extract_slice %arg0[6744182784] [262144] [1] : tensor<6755192832xf32> to tensor<262144xf32>
    %expanded_560 = tensor.expand_shape %extracted_slice_559 [[0, 1, 2, 3]] : tensor<262144xf32> into tensor<1x1x2048x128xf32>
    %extracted_slice_561 = tensor.extract_slice %arg0[6744444928] [262144] [1] : tensor<6755192832xf32> to tensor<262144xf32>
    %expanded_562 = tensor.expand_shape %extracted_slice_561 [[0, 1, 2, 3]] : tensor<262144xf32> into tensor<1x1x2048x128xf32>
    %extracted_slice_563 = tensor.extract_slice %arg0[6744707072] [262144] [1] : tensor<6755192832xf32> to tensor<262144xf32>
    %expanded_564 = tensor.expand_shape %extracted_slice_563 [[0, 1, 2, 3]] : tensor<262144xf32> into tensor<1x1x2048x128xf32>
    %extracted_slice_565 = tensor.extract_slice %arg0[6744969216] [262144] [1] : tensor<6755192832xf32> to tensor<262144xf32>
    %expanded_566 = tensor.expand_shape %extracted_slice_565 [[0, 1, 2, 3]] : tensor<262144xf32> into tensor<1x1x2048x128xf32>
    %extracted_slice_567 = tensor.extract_slice %arg0[6745231360] [262144] [1] : tensor<6755192832xf32> to tensor<262144xf32>
    %expanded_568 = tensor.expand_shape %extracted_slice_567 [[0, 1, 2, 3]] : tensor<262144xf32> into tensor<1x1x2048x128xf32>
    %extracted_slice_569 = tensor.extract_slice %arg0[6745493504] [262144] [1] : tensor<6755192832xf32> to tensor<262144xf32>
    %expanded_570 = tensor.expand_shape %extracted_slice_569 [[0, 1, 2, 3]] : tensor<262144xf32> into tensor<1x1x2048x128xf32>
    %extracted_slice_571 = tensor.extract_slice %arg0[6745755648] [262144] [1] : tensor<6755192832xf32> to tensor<262144xf32>
    %expanded_572 = tensor.expand_shape %extracted_slice_571 [[0, 1, 2, 3]] : tensor<262144xf32> into tensor<1x1x2048x128xf32>
    %extracted_slice_573 = tensor.extract_slice %arg0[6746017792] [262144] [1] : tensor<6755192832xf32> to tensor<262144xf32>
    %expanded_574 = tensor.expand_shape %extracted_slice_573 [[0, 1, 2, 3]] : tensor<262144xf32> into tensor<1x1x2048x128xf32>
    %extracted_slice_575 = tensor.extract_slice %arg0[6746279936] [262144] [1] : tensor<6755192832xf32> to tensor<262144xf32>
    %expanded_576 = tensor.expand_shape %extracted_slice_575 [[0, 1, 2, 3]] : tensor<262144xf32> into tensor<1x1x2048x128xf32>
    %extracted_slice_577 = tensor.extract_slice %arg0[6746542080] [262144] [1] : tensor<6755192832xf32> to tensor<262144xf32>
    %expanded_578 = tensor.expand_shape %extracted_slice_577 [[0, 1, 2, 3]] : tensor<262144xf32> into tensor<1x1x2048x128xf32>
    %extracted_slice_579 = tensor.extract_slice %arg0[6746804224] [262144] [1] : tensor<6755192832xf32> to tensor<262144xf32>
    %expanded_580 = tensor.expand_shape %extracted_slice_579 [[0, 1, 2, 3]] : tensor<262144xf32> into tensor<1x1x2048x128xf32>
    %extracted_slice_581 = tensor.extract_slice %arg0[6747066368] [262144] [1] : tensor<6755192832xf32> to tensor<262144xf32>
    %expanded_582 = tensor.expand_shape %extracted_slice_581 [[0, 1, 2, 3]] : tensor<262144xf32> into tensor<1x1x2048x128xf32>
    %extracted_slice_583 = tensor.extract_slice %arg0[6747328512] [262144] [1] : tensor<6755192832xf32> to tensor<262144xf32>
    %expanded_584 = tensor.expand_shape %extracted_slice_583 [[0, 1, 2, 3]] : tensor<262144xf32> into tensor<1x1x2048x128xf32>
    %extracted_slice_585 = tensor.extract_slice %arg0[6747590656] [262144] [1] : tensor<6755192832xf32> to tensor<262144xf32>
    %expanded_586 = tensor.expand_shape %extracted_slice_585 [[0, 1, 2, 3]] : tensor<262144xf32> into tensor<1x1x2048x128xf32>
    %extracted_slice_587 = tensor.extract_slice %arg0[6747852800] [262144] [1] : tensor<6755192832xf32> to tensor<262144xf32>
    %expanded_588 = tensor.expand_shape %extracted_slice_587 [[0, 1, 2, 3]] : tensor<262144xf32> into tensor<1x1x2048x128xf32>
    %extracted_slice_589 = tensor.extract_slice %arg0[6748114944] [262144] [1] : tensor<6755192832xf32> to tensor<262144xf32>
    %expanded_590 = tensor.expand_shape %extracted_slice_589 [[0, 1, 2, 3]] : tensor<262144xf32> into tensor<1x1x2048x128xf32>
    %extracted_slice_591 = tensor.extract_slice %arg0[6748377088] [262144] [1] : tensor<6755192832xf32> to tensor<262144xf32>
    %expanded_592 = tensor.expand_shape %extracted_slice_591 [[0, 1, 2, 3]] : tensor<262144xf32> into tensor<1x1x2048x128xf32>
    %extracted_slice_593 = tensor.extract_slice %arg0[6748639232] [262144] [1] : tensor<6755192832xf32> to tensor<262144xf32>
    %expanded_594 = tensor.expand_shape %extracted_slice_593 [[0, 1, 2, 3]] : tensor<262144xf32> into tensor<1x1x2048x128xf32>
    %extracted_slice_595 = tensor.extract_slice %arg0[6748901376] [262144] [1] : tensor<6755192832xf32> to tensor<262144xf32>
    %expanded_596 = tensor.expand_shape %extracted_slice_595 [[0, 1, 2, 3]] : tensor<262144xf32> into tensor<1x1x2048x128xf32>
    %extracted_slice_597 = tensor.extract_slice %arg0[6749163520] [262144] [1] : tensor<6755192832xf32> to tensor<262144xf32>
    %expanded_598 = tensor.expand_shape %extracted_slice_597 [[0, 1, 2, 3]] : tensor<262144xf32> into tensor<1x1x2048x128xf32>
    %extracted_slice_599 = tensor.extract_slice %arg0[6749425664] [262144] [1] : tensor<6755192832xf32> to tensor<262144xf32>
    %expanded_600 = tensor.expand_shape %extracted_slice_599 [[0, 1, 2, 3]] : tensor<262144xf32> into tensor<1x1x2048x128xf32>
    %extracted_slice_601 = tensor.extract_slice %arg0[6749687808] [262144] [1] : tensor<6755192832xf32> to tensor<262144xf32>
    %expanded_602 = tensor.expand_shape %extracted_slice_601 [[0, 1, 2, 3]] : tensor<262144xf32> into tensor<1x1x2048x128xf32>
    %extracted_slice_603 = tensor.extract_slice %arg0[6749949952] [262144] [1] : tensor<6755192832xf32> to tensor<262144xf32>
    %expanded_604 = tensor.expand_shape %extracted_slice_603 [[0, 1, 2, 3]] : tensor<262144xf32> into tensor<1x1x2048x128xf32>
    %extracted_slice_605 = tensor.extract_slice %arg0[6750212096] [262144] [1] : tensor<6755192832xf32> to tensor<262144xf32>
    %expanded_606 = tensor.expand_shape %extracted_slice_605 [[0, 1, 2, 3]] : tensor<262144xf32> into tensor<1x1x2048x128xf32>
    %extracted_slice_607 = tensor.extract_slice %arg0[6750474240] [262144] [1] : tensor<6755192832xf32> to tensor<262144xf32>
    %expanded_608 = tensor.expand_shape %extracted_slice_607 [[0, 1, 2, 3]] : tensor<262144xf32> into tensor<1x1x2048x128xf32>
    %extracted_slice_609 = tensor.extract_slice %arg0[6750736384] [262144] [1] : tensor<6755192832xf32> to tensor<262144xf32>
    %expanded_610 = tensor.expand_shape %extracted_slice_609 [[0, 1, 2, 3]] : tensor<262144xf32> into tensor<1x1x2048x128xf32>
    %extracted_slice_611 = tensor.extract_slice %arg0[6750998528] [262144] [1] : tensor<6755192832xf32> to tensor<262144xf32>
    %expanded_612 = tensor.expand_shape %extracted_slice_611 [[0, 1, 2, 3]] : tensor<262144xf32> into tensor<1x1x2048x128xf32>
    %extracted_slice_613 = tensor.extract_slice %arg0[6751260672] [262144] [1] : tensor<6755192832xf32> to tensor<262144xf32>
    %expanded_614 = tensor.expand_shape %extracted_slice_613 [[0, 1, 2, 3]] : tensor<262144xf32> into tensor<1x1x2048x128xf32>
    %extracted_slice_615 = tensor.extract_slice %arg0[6751522816] [262144] [1] : tensor<6755192832xf32> to tensor<262144xf32>
    %expanded_616 = tensor.expand_shape %extracted_slice_615 [[0, 1, 2, 3]] : tensor<262144xf32> into tensor<1x1x2048x128xf32>
    %extracted_slice_617 = tensor.extract_slice %arg0[6751784960] [262144] [1] : tensor<6755192832xf32> to tensor<262144xf32>
    %expanded_618 = tensor.expand_shape %extracted_slice_617 [[0, 1, 2, 3]] : tensor<262144xf32> into tensor<1x1x2048x128xf32>
    %extracted_slice_619 = tensor.extract_slice %arg0[6752047104] [262144] [1] : tensor<6755192832xf32> to tensor<262144xf32>
    %expanded_620 = tensor.expand_shape %extracted_slice_619 [[0, 1, 2, 3]] : tensor<262144xf32> into tensor<1x1x2048x128xf32>
    %extracted_slice_621 = tensor.extract_slice %arg0[6752309248] [262144] [1] : tensor<6755192832xf32> to tensor<262144xf32>
    %expanded_622 = tensor.expand_shape %extracted_slice_621 [[0, 1, 2, 3]] : tensor<262144xf32> into tensor<1x1x2048x128xf32>
    %extracted_slice_623 = tensor.extract_slice %arg0[6752571392] [262144] [1] : tensor<6755192832xf32> to tensor<262144xf32>
    %expanded_624 = tensor.expand_shape %extracted_slice_623 [[0, 1, 2, 3]] : tensor<262144xf32> into tensor<1x1x2048x128xf32>
    %extracted_slice_625 = tensor.extract_slice %arg0[6752833536] [262144] [1] : tensor<6755192832xf32> to tensor<262144xf32>
    %expanded_626 = tensor.expand_shape %extracted_slice_625 [[0, 1, 2, 3]] : tensor<262144xf32> into tensor<1x1x2048x128xf32>
    %extracted_slice_627 = tensor.extract_slice %arg0[6753095680] [262144] [1] : tensor<6755192832xf32> to tensor<262144xf32>
    %expanded_628 = tensor.expand_shape %extracted_slice_627 [[0, 1, 2, 3]] : tensor<262144xf32> into tensor<1x1x2048x128xf32>
    %extracted_slice_629 = tensor.extract_slice %arg0[6753357824] [262144] [1] : tensor<6755192832xf32> to tensor<262144xf32>
    %expanded_630 = tensor.expand_shape %extracted_slice_629 [[0, 1, 2, 3]] : tensor<262144xf32> into tensor<1x1x2048x128xf32>
    %extracted_slice_631 = tensor.extract_slice %arg0[6753619968] [262144] [1] : tensor<6755192832xf32> to tensor<262144xf32>
    %expanded_632 = tensor.expand_shape %extracted_slice_631 [[0, 1, 2, 3]] : tensor<262144xf32> into tensor<1x1x2048x128xf32>
    %extracted_slice_633 = tensor.extract_slice %arg0[6753882112] [262144] [1] : tensor<6755192832xf32> to tensor<262144xf32>
    %expanded_634 = tensor.expand_shape %extracted_slice_633 [[0, 1, 2, 3]] : tensor<262144xf32> into tensor<1x1x2048x128xf32>
    %extracted_slice_635 = tensor.extract_slice %arg0[6754144256] [262144] [1] : tensor<6755192832xf32> to tensor<262144xf32>
    %expanded_636 = tensor.expand_shape %extracted_slice_635 [[0, 1, 2, 3]] : tensor<262144xf32> into tensor<1x1x2048x128xf32>
    %extracted_slice_637 = tensor.extract_slice %arg0[6754406400] [262144] [1] : tensor<6755192832xf32> to tensor<262144xf32>
    %expanded_638 = tensor.expand_shape %extracted_slice_637 [[0, 1, 2, 3]] : tensor<262144xf32> into tensor<1x1x2048x128xf32>
    %extracted_slice_639 = tensor.extract_slice %arg0[6754668544] [262144] [1] : tensor<6755192832xf32> to tensor<262144xf32>
    %expanded_640 = tensor.expand_shape %extracted_slice_639 [[0, 1, 2, 3]] : tensor<262144xf32> into tensor<1x1x2048x128xf32>
    %extracted_slice_641 = tensor.extract_slice %arg0[6754930688] [262144] [1] : tensor<6755192832xf32> to tensor<262144xf32>
    %expanded_642 = tensor.expand_shape %extracted_slice_641 [[0, 1, 2, 3]] : tensor<262144xf32> into tensor<1x1x2048x128xf32>
    %cst = arith.constant dense<[0, 1, 2, 3, 4, 5, 6, 7, 8, 9, 10, 11, 12, 13, 14, 15, 16, 17, 18, 19, 20, 21, 22, 23, 24, 25, 26, 27, 28, 29, 30, 31, 32, 33, 34, 35, 36, 37, 38, 39]> : tensor<40xi64>
    %0 = tosa.reshape %cst {new_shape = array<i64: 1, 40>} : (tensor<40xi64>) -> tensor<1x40xi64>
    %1 = tosa.reshape %0 {new_shape = array<i64: 1, 40>} : (tensor<1x40xi64>) -> tensor<1x40xi64>
    %2 = tensor.empty() : tensor<1x40x4096xf32>
    %3 = linalg.generic {indexing_maps = [#map, #map1], iterator_types = ["parallel", "parallel", "parallel"]} ins(%arg1 : tensor<1x40xi64>) outs(%2 : tensor<1x40x4096xf32>) {
    ^bb0(%in: i64, %out: f32):
      %2947 = arith.index_cast %in : i64 to index
      %2948 = linalg.index 2 : index
      %extracted = tensor.extract %expanded[%2947, %2948] : tensor<32000x4096xf32>
      linalg.yield %extracted : f32
    } -> tensor<1x40x4096xf32>
    %cst_643 = arith.constant dense<true> : tensor<1x40xi1>
    %cst_644 = arith.constant dense<-3.40282347E+38> : tensor<40x40xf32>
    %cst_645 = arith.constant dense<[0, 1, 2, 3, 4, 5, 6, 7, 8, 9, 10, 11, 12, 13, 14, 15, 16, 17, 18, 19, 20, 21, 22, 23, 24, 25, 26, 27, 28, 29, 30, 31, 32, 33, 34, 35, 36, 37, 38, 39]> : tensor<40xi64>
    %cst_646 = arith.constant dense<1> : tensor<1xi64>
    %4 = tosa.add %cst_645, %cst_646 : (tensor<40xi64>, tensor<1xi64>) -> tensor<40xi64>
    %5 = tosa.reshape %4 {new_shape = array<i64: 40, 1>} : (tensor<40xi64>) -> tensor<40x1xi64>
    %6 = tensor.empty() : tensor<40x40xi1>
    %7 = linalg.generic {indexing_maps = [#map2, #map3, #map], iterator_types = ["parallel", "parallel", "reduction"]} ins(%cst_645, %5 : tensor<40xi64>, tensor<40x1xi64>) outs(%6 : tensor<40x40xi1>) {
    ^bb0(%in: i64, %in_1919: i64, %out: i1):
      %2947 = arith.cmpi slt, %in, %in_1919 : i64
      linalg.yield %2947 : i1
    } -> tensor<40x40xi1>
    %cst_647 = arith.constant 0.000000e+00 : f32
    %8 = tensor.empty() : tensor<40x40xf32>
    %9 = linalg.generic {indexing_maps = [#map4, #map4, #map4], iterator_types = ["parallel", "parallel"]} ins(%cst_644, %7 : tensor<40x40xf32>, tensor<40x40xi1>) outs(%8 : tensor<40x40xf32>) {
    ^bb0(%in: f32, %in_1919: i1, %out: f32):
      %2947 = arith.select %in_1919, %cst_647, %in : f32
      linalg.yield %2947 : f32
    } -> tensor<40x40xf32>
    %extracted_slice_648 = tensor.extract_slice %cst_643[0, 0] [1, 40] [1, 1] : tensor<1x40xi1> to tensor<1x40xi1>
    %10 = tosa.reshape %extracted_slice_648 {new_shape = array<i64: 1, 1, 40>} : (tensor<1x40xi1>) -> tensor<1x1x40xi1>
    %11 = tosa.reshape %10 {new_shape = array<i64: 1, 1, 1, 40>} : (tensor<1x1x40xi1>) -> tensor<1x1x1x40xi1>
    %extracted_slice_649 = tensor.extract_slice %11[0, 0, 0, 0] [1, 1, 1, 40] [1, 1, 1, 1] : tensor<1x1x1x40xi1> to tensor<1x1x1x40xi1>
    %12 = tensor.empty() : tensor<1x1x40x40xi1>
    %extracted_slice_650 = tensor.extract_slice %extracted_slice_649[0, 0, 0, 0] [1, 1, 1, 40] [1, 1, 1, 1] : tensor<1x1x1x40xi1> to tensor<1x1x1x40xi1>
    %inserted_slice = tensor.insert_slice %extracted_slice_650 into %12[0, 0, 0, 0] [1, 1, 1, 40] [1, 1, 1, 1] : tensor<1x1x1x40xi1> into tensor<1x1x40x40xi1>
    %extracted_slice_651 = tensor.extract_slice %extracted_slice_649[0, 0, 0, 0] [1, 1, 1, 40] [1, 1, 1, 1] : tensor<1x1x1x40xi1> to tensor<1x1x1x40xi1>
    %inserted_slice_652 = tensor.insert_slice %extracted_slice_651 into %inserted_slice[0, 0, 1, 0] [1, 1, 1, 40] [1, 1, 1, 1] : tensor<1x1x1x40xi1> into tensor<1x1x40x40xi1>
    %extracted_slice_653 = tensor.extract_slice %extracted_slice_649[0, 0, 0, 0] [1, 1, 1, 40] [1, 1, 1, 1] : tensor<1x1x1x40xi1> to tensor<1x1x1x40xi1>
    %inserted_slice_654 = tensor.insert_slice %extracted_slice_653 into %inserted_slice_652[0, 0, 2, 0] [1, 1, 1, 40] [1, 1, 1, 1] : tensor<1x1x1x40xi1> into tensor<1x1x40x40xi1>
    %extracted_slice_655 = tensor.extract_slice %extracted_slice_649[0, 0, 0, 0] [1, 1, 1, 40] [1, 1, 1, 1] : tensor<1x1x1x40xi1> to tensor<1x1x1x40xi1>
    %inserted_slice_656 = tensor.insert_slice %extracted_slice_655 into %inserted_slice_654[0, 0, 3, 0] [1, 1, 1, 40] [1, 1, 1, 1] : tensor<1x1x1x40xi1> into tensor<1x1x40x40xi1>
    %extracted_slice_657 = tensor.extract_slice %extracted_slice_649[0, 0, 0, 0] [1, 1, 1, 40] [1, 1, 1, 1] : tensor<1x1x1x40xi1> to tensor<1x1x1x40xi1>
    %inserted_slice_658 = tensor.insert_slice %extracted_slice_657 into %inserted_slice_656[0, 0, 4, 0] [1, 1, 1, 40] [1, 1, 1, 1] : tensor<1x1x1x40xi1> into tensor<1x1x40x40xi1>
    %extracted_slice_659 = tensor.extract_slice %extracted_slice_649[0, 0, 0, 0] [1, 1, 1, 40] [1, 1, 1, 1] : tensor<1x1x1x40xi1> to tensor<1x1x1x40xi1>
    %inserted_slice_660 = tensor.insert_slice %extracted_slice_659 into %inserted_slice_658[0, 0, 5, 0] [1, 1, 1, 40] [1, 1, 1, 1] : tensor<1x1x1x40xi1> into tensor<1x1x40x40xi1>
    %extracted_slice_661 = tensor.extract_slice %extracted_slice_649[0, 0, 0, 0] [1, 1, 1, 40] [1, 1, 1, 1] : tensor<1x1x1x40xi1> to tensor<1x1x1x40xi1>
    %inserted_slice_662 = tensor.insert_slice %extracted_slice_661 into %inserted_slice_660[0, 0, 6, 0] [1, 1, 1, 40] [1, 1, 1, 1] : tensor<1x1x1x40xi1> into tensor<1x1x40x40xi1>
    %extracted_slice_663 = tensor.extract_slice %extracted_slice_649[0, 0, 0, 0] [1, 1, 1, 40] [1, 1, 1, 1] : tensor<1x1x1x40xi1> to tensor<1x1x1x40xi1>
    %inserted_slice_664 = tensor.insert_slice %extracted_slice_663 into %inserted_slice_662[0, 0, 7, 0] [1, 1, 1, 40] [1, 1, 1, 1] : tensor<1x1x1x40xi1> into tensor<1x1x40x40xi1>
    %extracted_slice_665 = tensor.extract_slice %extracted_slice_649[0, 0, 0, 0] [1, 1, 1, 40] [1, 1, 1, 1] : tensor<1x1x1x40xi1> to tensor<1x1x1x40xi1>
    %inserted_slice_666 = tensor.insert_slice %extracted_slice_665 into %inserted_slice_664[0, 0, 8, 0] [1, 1, 1, 40] [1, 1, 1, 1] : tensor<1x1x1x40xi1> into tensor<1x1x40x40xi1>
    %extracted_slice_667 = tensor.extract_slice %extracted_slice_649[0, 0, 0, 0] [1, 1, 1, 40] [1, 1, 1, 1] : tensor<1x1x1x40xi1> to tensor<1x1x1x40xi1>
    %inserted_slice_668 = tensor.insert_slice %extracted_slice_667 into %inserted_slice_666[0, 0, 9, 0] [1, 1, 1, 40] [1, 1, 1, 1] : tensor<1x1x1x40xi1> into tensor<1x1x40x40xi1>
    %extracted_slice_669 = tensor.extract_slice %extracted_slice_649[0, 0, 0, 0] [1, 1, 1, 40] [1, 1, 1, 1] : tensor<1x1x1x40xi1> to tensor<1x1x1x40xi1>
    %inserted_slice_670 = tensor.insert_slice %extracted_slice_669 into %inserted_slice_668[0, 0, 10, 0] [1, 1, 1, 40] [1, 1, 1, 1] : tensor<1x1x1x40xi1> into tensor<1x1x40x40xi1>
    %extracted_slice_671 = tensor.extract_slice %extracted_slice_649[0, 0, 0, 0] [1, 1, 1, 40] [1, 1, 1, 1] : tensor<1x1x1x40xi1> to tensor<1x1x1x40xi1>
    %inserted_slice_672 = tensor.insert_slice %extracted_slice_671 into %inserted_slice_670[0, 0, 11, 0] [1, 1, 1, 40] [1, 1, 1, 1] : tensor<1x1x1x40xi1> into tensor<1x1x40x40xi1>
    %extracted_slice_673 = tensor.extract_slice %extracted_slice_649[0, 0, 0, 0] [1, 1, 1, 40] [1, 1, 1, 1] : tensor<1x1x1x40xi1> to tensor<1x1x1x40xi1>
    %inserted_slice_674 = tensor.insert_slice %extracted_slice_673 into %inserted_slice_672[0, 0, 12, 0] [1, 1, 1, 40] [1, 1, 1, 1] : tensor<1x1x1x40xi1> into tensor<1x1x40x40xi1>
    %extracted_slice_675 = tensor.extract_slice %extracted_slice_649[0, 0, 0, 0] [1, 1, 1, 40] [1, 1, 1, 1] : tensor<1x1x1x40xi1> to tensor<1x1x1x40xi1>
    %inserted_slice_676 = tensor.insert_slice %extracted_slice_675 into %inserted_slice_674[0, 0, 13, 0] [1, 1, 1, 40] [1, 1, 1, 1] : tensor<1x1x1x40xi1> into tensor<1x1x40x40xi1>
    %extracted_slice_677 = tensor.extract_slice %extracted_slice_649[0, 0, 0, 0] [1, 1, 1, 40] [1, 1, 1, 1] : tensor<1x1x1x40xi1> to tensor<1x1x1x40xi1>
    %inserted_slice_678 = tensor.insert_slice %extracted_slice_677 into %inserted_slice_676[0, 0, 14, 0] [1, 1, 1, 40] [1, 1, 1, 1] : tensor<1x1x1x40xi1> into tensor<1x1x40x40xi1>
    %extracted_slice_679 = tensor.extract_slice %extracted_slice_649[0, 0, 0, 0] [1, 1, 1, 40] [1, 1, 1, 1] : tensor<1x1x1x40xi1> to tensor<1x1x1x40xi1>
    %inserted_slice_680 = tensor.insert_slice %extracted_slice_679 into %inserted_slice_678[0, 0, 15, 0] [1, 1, 1, 40] [1, 1, 1, 1] : tensor<1x1x1x40xi1> into tensor<1x1x40x40xi1>
    %extracted_slice_681 = tensor.extract_slice %extracted_slice_649[0, 0, 0, 0] [1, 1, 1, 40] [1, 1, 1, 1] : tensor<1x1x1x40xi1> to tensor<1x1x1x40xi1>
    %inserted_slice_682 = tensor.insert_slice %extracted_slice_681 into %inserted_slice_680[0, 0, 16, 0] [1, 1, 1, 40] [1, 1, 1, 1] : tensor<1x1x1x40xi1> into tensor<1x1x40x40xi1>
    %extracted_slice_683 = tensor.extract_slice %extracted_slice_649[0, 0, 0, 0] [1, 1, 1, 40] [1, 1, 1, 1] : tensor<1x1x1x40xi1> to tensor<1x1x1x40xi1>
    %inserted_slice_684 = tensor.insert_slice %extracted_slice_683 into %inserted_slice_682[0, 0, 17, 0] [1, 1, 1, 40] [1, 1, 1, 1] : tensor<1x1x1x40xi1> into tensor<1x1x40x40xi1>
    %extracted_slice_685 = tensor.extract_slice %extracted_slice_649[0, 0, 0, 0] [1, 1, 1, 40] [1, 1, 1, 1] : tensor<1x1x1x40xi1> to tensor<1x1x1x40xi1>
    %inserted_slice_686 = tensor.insert_slice %extracted_slice_685 into %inserted_slice_684[0, 0, 18, 0] [1, 1, 1, 40] [1, 1, 1, 1] : tensor<1x1x1x40xi1> into tensor<1x1x40x40xi1>
    %extracted_slice_687 = tensor.extract_slice %extracted_slice_649[0, 0, 0, 0] [1, 1, 1, 40] [1, 1, 1, 1] : tensor<1x1x1x40xi1> to tensor<1x1x1x40xi1>
    %inserted_slice_688 = tensor.insert_slice %extracted_slice_687 into %inserted_slice_686[0, 0, 19, 0] [1, 1, 1, 40] [1, 1, 1, 1] : tensor<1x1x1x40xi1> into tensor<1x1x40x40xi1>
    %extracted_slice_689 = tensor.extract_slice %extracted_slice_649[0, 0, 0, 0] [1, 1, 1, 40] [1, 1, 1, 1] : tensor<1x1x1x40xi1> to tensor<1x1x1x40xi1>
    %inserted_slice_690 = tensor.insert_slice %extracted_slice_689 into %inserted_slice_688[0, 0, 20, 0] [1, 1, 1, 40] [1, 1, 1, 1] : tensor<1x1x1x40xi1> into tensor<1x1x40x40xi1>
    %extracted_slice_691 = tensor.extract_slice %extracted_slice_649[0, 0, 0, 0] [1, 1, 1, 40] [1, 1, 1, 1] : tensor<1x1x1x40xi1> to tensor<1x1x1x40xi1>
    %inserted_slice_692 = tensor.insert_slice %extracted_slice_691 into %inserted_slice_690[0, 0, 21, 0] [1, 1, 1, 40] [1, 1, 1, 1] : tensor<1x1x1x40xi1> into tensor<1x1x40x40xi1>
    %extracted_slice_693 = tensor.extract_slice %extracted_slice_649[0, 0, 0, 0] [1, 1, 1, 40] [1, 1, 1, 1] : tensor<1x1x1x40xi1> to tensor<1x1x1x40xi1>
    %inserted_slice_694 = tensor.insert_slice %extracted_slice_693 into %inserted_slice_692[0, 0, 22, 0] [1, 1, 1, 40] [1, 1, 1, 1] : tensor<1x1x1x40xi1> into tensor<1x1x40x40xi1>
    %extracted_slice_695 = tensor.extract_slice %extracted_slice_649[0, 0, 0, 0] [1, 1, 1, 40] [1, 1, 1, 1] : tensor<1x1x1x40xi1> to tensor<1x1x1x40xi1>
    %inserted_slice_696 = tensor.insert_slice %extracted_slice_695 into %inserted_slice_694[0, 0, 23, 0] [1, 1, 1, 40] [1, 1, 1, 1] : tensor<1x1x1x40xi1> into tensor<1x1x40x40xi1>
    %extracted_slice_697 = tensor.extract_slice %extracted_slice_649[0, 0, 0, 0] [1, 1, 1, 40] [1, 1, 1, 1] : tensor<1x1x1x40xi1> to tensor<1x1x1x40xi1>
    %inserted_slice_698 = tensor.insert_slice %extracted_slice_697 into %inserted_slice_696[0, 0, 24, 0] [1, 1, 1, 40] [1, 1, 1, 1] : tensor<1x1x1x40xi1> into tensor<1x1x40x40xi1>
    %extracted_slice_699 = tensor.extract_slice %extracted_slice_649[0, 0, 0, 0] [1, 1, 1, 40] [1, 1, 1, 1] : tensor<1x1x1x40xi1> to tensor<1x1x1x40xi1>
    %inserted_slice_700 = tensor.insert_slice %extracted_slice_699 into %inserted_slice_698[0, 0, 25, 0] [1, 1, 1, 40] [1, 1, 1, 1] : tensor<1x1x1x40xi1> into tensor<1x1x40x40xi1>
    %extracted_slice_701 = tensor.extract_slice %extracted_slice_649[0, 0, 0, 0] [1, 1, 1, 40] [1, 1, 1, 1] : tensor<1x1x1x40xi1> to tensor<1x1x1x40xi1>
    %inserted_slice_702 = tensor.insert_slice %extracted_slice_701 into %inserted_slice_700[0, 0, 26, 0] [1, 1, 1, 40] [1, 1, 1, 1] : tensor<1x1x1x40xi1> into tensor<1x1x40x40xi1>
    %extracted_slice_703 = tensor.extract_slice %extracted_slice_649[0, 0, 0, 0] [1, 1, 1, 40] [1, 1, 1, 1] : tensor<1x1x1x40xi1> to tensor<1x1x1x40xi1>
    %inserted_slice_704 = tensor.insert_slice %extracted_slice_703 into %inserted_slice_702[0, 0, 27, 0] [1, 1, 1, 40] [1, 1, 1, 1] : tensor<1x1x1x40xi1> into tensor<1x1x40x40xi1>
    %extracted_slice_705 = tensor.extract_slice %extracted_slice_649[0, 0, 0, 0] [1, 1, 1, 40] [1, 1, 1, 1] : tensor<1x1x1x40xi1> to tensor<1x1x1x40xi1>
    %inserted_slice_706 = tensor.insert_slice %extracted_slice_705 into %inserted_slice_704[0, 0, 28, 0] [1, 1, 1, 40] [1, 1, 1, 1] : tensor<1x1x1x40xi1> into tensor<1x1x40x40xi1>
    %extracted_slice_707 = tensor.extract_slice %extracted_slice_649[0, 0, 0, 0] [1, 1, 1, 40] [1, 1, 1, 1] : tensor<1x1x1x40xi1> to tensor<1x1x1x40xi1>
    %inserted_slice_708 = tensor.insert_slice %extracted_slice_707 into %inserted_slice_706[0, 0, 29, 0] [1, 1, 1, 40] [1, 1, 1, 1] : tensor<1x1x1x40xi1> into tensor<1x1x40x40xi1>
    %extracted_slice_709 = tensor.extract_slice %extracted_slice_649[0, 0, 0, 0] [1, 1, 1, 40] [1, 1, 1, 1] : tensor<1x1x1x40xi1> to tensor<1x1x1x40xi1>
    %inserted_slice_710 = tensor.insert_slice %extracted_slice_709 into %inserted_slice_708[0, 0, 30, 0] [1, 1, 1, 40] [1, 1, 1, 1] : tensor<1x1x1x40xi1> into tensor<1x1x40x40xi1>
    %extracted_slice_711 = tensor.extract_slice %extracted_slice_649[0, 0, 0, 0] [1, 1, 1, 40] [1, 1, 1, 1] : tensor<1x1x1x40xi1> to tensor<1x1x1x40xi1>
    %inserted_slice_712 = tensor.insert_slice %extracted_slice_711 into %inserted_slice_710[0, 0, 31, 0] [1, 1, 1, 40] [1, 1, 1, 1] : tensor<1x1x1x40xi1> into tensor<1x1x40x40xi1>
    %extracted_slice_713 = tensor.extract_slice %extracted_slice_649[0, 0, 0, 0] [1, 1, 1, 40] [1, 1, 1, 1] : tensor<1x1x1x40xi1> to tensor<1x1x1x40xi1>
    %inserted_slice_714 = tensor.insert_slice %extracted_slice_713 into %inserted_slice_712[0, 0, 32, 0] [1, 1, 1, 40] [1, 1, 1, 1] : tensor<1x1x1x40xi1> into tensor<1x1x40x40xi1>
    %extracted_slice_715 = tensor.extract_slice %extracted_slice_649[0, 0, 0, 0] [1, 1, 1, 40] [1, 1, 1, 1] : tensor<1x1x1x40xi1> to tensor<1x1x1x40xi1>
    %inserted_slice_716 = tensor.insert_slice %extracted_slice_715 into %inserted_slice_714[0, 0, 33, 0] [1, 1, 1, 40] [1, 1, 1, 1] : tensor<1x1x1x40xi1> into tensor<1x1x40x40xi1>
    %extracted_slice_717 = tensor.extract_slice %extracted_slice_649[0, 0, 0, 0] [1, 1, 1, 40] [1, 1, 1, 1] : tensor<1x1x1x40xi1> to tensor<1x1x1x40xi1>
    %inserted_slice_718 = tensor.insert_slice %extracted_slice_717 into %inserted_slice_716[0, 0, 34, 0] [1, 1, 1, 40] [1, 1, 1, 1] : tensor<1x1x1x40xi1> into tensor<1x1x40x40xi1>
    %extracted_slice_719 = tensor.extract_slice %extracted_slice_649[0, 0, 0, 0] [1, 1, 1, 40] [1, 1, 1, 1] : tensor<1x1x1x40xi1> to tensor<1x1x1x40xi1>
    %inserted_slice_720 = tensor.insert_slice %extracted_slice_719 into %inserted_slice_718[0, 0, 35, 0] [1, 1, 1, 40] [1, 1, 1, 1] : tensor<1x1x1x40xi1> into tensor<1x1x40x40xi1>
    %extracted_slice_721 = tensor.extract_slice %extracted_slice_649[0, 0, 0, 0] [1, 1, 1, 40] [1, 1, 1, 1] : tensor<1x1x1x40xi1> to tensor<1x1x1x40xi1>
    %inserted_slice_722 = tensor.insert_slice %extracted_slice_721 into %inserted_slice_720[0, 0, 36, 0] [1, 1, 1, 40] [1, 1, 1, 1] : tensor<1x1x1x40xi1> into tensor<1x1x40x40xi1>
    %extracted_slice_723 = tensor.extract_slice %extracted_slice_649[0, 0, 0, 0] [1, 1, 1, 40] [1, 1, 1, 1] : tensor<1x1x1x40xi1> to tensor<1x1x1x40xi1>
    %inserted_slice_724 = tensor.insert_slice %extracted_slice_723 into %inserted_slice_722[0, 0, 37, 0] [1, 1, 1, 40] [1, 1, 1, 1] : tensor<1x1x1x40xi1> into tensor<1x1x40x40xi1>
    %extracted_slice_725 = tensor.extract_slice %extracted_slice_649[0, 0, 0, 0] [1, 1, 1, 40] [1, 1, 1, 1] : tensor<1x1x1x40xi1> to tensor<1x1x1x40xi1>
    %inserted_slice_726 = tensor.insert_slice %extracted_slice_725 into %inserted_slice_724[0, 0, 38, 0] [1, 1, 1, 40] [1, 1, 1, 1] : tensor<1x1x1x40xi1> into tensor<1x1x40x40xi1>
    %extracted_slice_727 = tensor.extract_slice %extracted_slice_649[0, 0, 0, 0] [1, 1, 1, 40] [1, 1, 1, 1] : tensor<1x1x1x40xi1> to tensor<1x1x1x40xi1>
    %inserted_slice_728 = tensor.insert_slice %extracted_slice_727 into %inserted_slice_726[0, 0, 39, 0] [1, 1, 1, 40] [1, 1, 1, 1] : tensor<1x1x1x40xi1> into tensor<1x1x40x40xi1>
    %13 = tensor.empty() : tensor<1x1x40x40xf32>
    %14 = linalg.generic {indexing_maps = [#map5, #map5], iterator_types = ["parallel", "parallel", "parallel", "parallel"]} ins(%inserted_slice_728 : tensor<1x1x40x40xi1>) outs(%13 : tensor<1x1x40x40xf32>) {
    ^bb0(%in: i1, %out: f32):
      %2947 = arith.extui %in : i1 to i32
      %2948 = arith.sitofp %2947 : i32 to f32
      linalg.yield %2948 : f32
    } -> tensor<1x1x40x40xf32>
    %cst_729 = arith.constant 1.000000e+00 : f32
    %15 = tensor.empty() : tensor<1x1x40x40xf32>
    %16 = linalg.generic {indexing_maps = [#map5, #map5], iterator_types = ["parallel", "parallel", "parallel", "parallel"]} ins(%14 : tensor<1x1x40x40xf32>) outs(%15 : tensor<1x1x40x40xf32>) {
    ^bb0(%in: f32, %out: f32):
      %2947 = arith.subf %cst_729, %in : f32
      linalg.yield %2947 : f32
    } -> tensor<1x1x40x40xf32>
    %17 = tensor.empty() : tensor<1x1x40x40xi1>
    %18 = linalg.generic {indexing_maps = [#map5, #map5], iterator_types = ["parallel", "parallel", "parallel", "parallel"]} ins(%16 : tensor<1x1x40x40xf32>) outs(%17 : tensor<1x1x40x40xi1>) {
    ^bb0(%in: f32, %out: i1):
      %2947 = arith.fptosi %in : f32 to i32
      %2948 = arith.trunci %2947 : i32 to i1
      linalg.yield %2948 : i1
    } -> tensor<1x1x40x40xi1>
    %cst_730 = arith.constant -3.40282347E+38 : f32
    %19 = tensor.empty() : tensor<1x1x40x40xf32>
    %20 = linalg.generic {indexing_maps = [#map5, #map5, #map5], iterator_types = ["parallel", "parallel", "parallel", "parallel"]} ins(%16, %18 : tensor<1x1x40x40xf32>, tensor<1x1x40x40xi1>) outs(%19 : tensor<1x1x40x40xf32>) {
    ^bb0(%in: f32, %in_1919: i1, %out: f32):
      %2947 = arith.select %in_1919, %cst_730, %in : f32
      linalg.yield %2947 : f32
    } -> tensor<1x1x40x40xf32>
    %21 = tosa.reshape %9 {new_shape = array<i64: 1, 40, 40>} : (tensor<40x40xf32>) -> tensor<1x40x40xf32>
    %22 = tosa.reshape %21 {new_shape = array<i64: 1, 1, 40, 40>} : (tensor<1x40x40xf32>) -> tensor<1x1x40x40xf32>
    %extracted_slice_731 = tensor.extract_slice %22[0, 0, 0, 0] [1, 1, 40, 40] [1, 1, 1, 1] : tensor<1x1x40x40xf32> to tensor<1x1x40x40xf32>
    %extracted_slice_732 = tensor.extract_slice %extracted_slice_731[0, 0, 0, 0] [1, 1, 40, 40] [1, 1, 1, 1] : tensor<1x1x40x40xf32> to tensor<1x1x40x40xf32>
    %23 = tosa.add %20, %extracted_slice_732 : (tensor<1x1x40x40xf32>, tensor<1x1x40x40xf32>) -> tensor<1x1x40x40xf32>
    %24 = tensor.empty() : tensor<1x40x4096xf32>
    %c2_i32 = arith.constant 2 : i32
    %25 = linalg.generic {indexing_maps = [#map1, #map1], iterator_types = ["parallel", "parallel", "parallel"]} ins(%3 : tensor<1x40x4096xf32>) outs(%24 : tensor<1x40x4096xf32>) {
    ^bb0(%in: f32, %out: f32):
      %2947 = math.fpowi %in, %c2_i32 : f32, i32
      linalg.yield %2947 : f32
    } -> tensor<1x40x4096xf32>
    %cst_733 = arith.constant dense<0.000000e+00> : tensor<1x40x1xf32>
    %26 = linalg.generic {indexing_maps = [#map6, #map7], iterator_types = ["parallel", "parallel", "reduction", "parallel"]} ins(%25 : tensor<1x40x4096xf32>) outs(%cst_733 : tensor<1x40x1xf32>) {
    ^bb0(%in: f32, %out: f32):
      %cst_1919 = arith.constant 4.096000e+03 : f32
      %2947 = arith.divf %in, %cst_1919 : f32
      %2948 = arith.addf %2947, %out : f32
      linalg.yield %2948 : f32
    } -> tensor<1x40x1xf32>
    %cst_734 = arith.constant dense<9.99999997E-7> : tensor<1xf32>
    %27 = tosa.add %26, %cst_734 : (tensor<1x40x1xf32>, tensor<1xf32>) -> tensor<1x40x1xf32>
    %28 = tensor.empty() : tensor<1x40x1xf32>
    %29 = linalg.generic {indexing_maps = [#map1, #map1], iterator_types = ["parallel", "parallel", "parallel"]} ins(%27 : tensor<1x40x1xf32>) outs(%28 : tensor<1x40x1xf32>) {
    ^bb0(%in: f32, %out: f32):
      %2947 = math.rsqrt %in : f32
      linalg.yield %2947 : f32
    } -> tensor<1x40x1xf32>
    %30 = tosa.mul %3, %29 {shift = 0 : i8} : (tensor<1x40x4096xf32>, tensor<1x40x1xf32>) -> tensor<1x40x4096xf32>
    %31 = tosa.mul %extracted_slice, %30 {shift = 0 : i8} : (tensor<4096xf32>, tensor<1x40x4096xf32>) -> tensor<1x40x4096xf32>
    %32 = tosa.reshape %31 {new_shape = array<i64: 40, 4096>} : (tensor<1x40x4096xf32>) -> tensor<40x4096xf32>
    %cst_735 = arith.constant dense<0.000000e+00> : tensor<40x4096xf32>
    %33 = linalg.matmul_transpose_b {cast = #linalg.type_fn<cast_signed>} ins(%32, %expanded_66 : tensor<40x4096xf32>, tensor<4096x4096xf32>) outs(%cst_735 : tensor<40x4096xf32>) -> tensor<40x4096xf32>
    %34 = tosa.reshape %33 {new_shape = array<i64: 1, 40, 4096>} : (tensor<40x4096xf32>) -> tensor<1x40x4096xf32>
    %35 = tosa.reshape %31 {new_shape = array<i64: 40, 4096>} : (tensor<1x40x4096xf32>) -> tensor<40x4096xf32>
    %cst_736 = arith.constant dense<0.000000e+00> : tensor<40x4096xf32>
    %36 = linalg.matmul_transpose_b {cast = #linalg.type_fn<cast_signed>} ins(%35, %expanded_68 : tensor<40x4096xf32>, tensor<4096x4096xf32>) outs(%cst_736 : tensor<40x4096xf32>) -> tensor<40x4096xf32>
    %37 = tosa.reshape %36 {new_shape = array<i64: 1, 40, 4096>} : (tensor<40x4096xf32>) -> tensor<1x40x4096xf32>
    %38 = tosa.reshape %31 {new_shape = array<i64: 40, 4096>} : (tensor<1x40x4096xf32>) -> tensor<40x4096xf32>
    %cst_737 = arith.constant dense<0.000000e+00> : tensor<40x4096xf32>
    %39 = linalg.matmul_transpose_b {cast = #linalg.type_fn<cast_signed>} ins(%38, %expanded_70 : tensor<40x4096xf32>, tensor<4096x4096xf32>) outs(%cst_737 : tensor<40x4096xf32>) -> tensor<40x4096xf32>
    %40 = tosa.reshape %39 {new_shape = array<i64: 1, 40, 4096>} : (tensor<40x4096xf32>) -> tensor<1x40x4096xf32>
    %41 = tosa.reshape %34 {new_shape = array<i64: 1, 40, 32, 128>} : (tensor<1x40x4096xf32>) -> tensor<1x40x32x128xf32>
    %42 = tensor.empty() : tensor<1x32x40x128xf32>
    %transposed = linalg.transpose ins(%41 : tensor<1x40x32x128xf32>) outs(%42 : tensor<1x32x40x128xf32>) permutation = [0, 2, 1, 3] 
    %43 = tosa.reshape %37 {new_shape = array<i64: 1, 40, 32, 128>} : (tensor<1x40x4096xf32>) -> tensor<1x40x32x128xf32>
    %44 = tensor.empty() : tensor<1x32x40x128xf32>
    %transposed_738 = linalg.transpose ins(%43 : tensor<1x40x32x128xf32>) outs(%44 : tensor<1x32x40x128xf32>) permutation = [0, 2, 1, 3] 
    %45 = tosa.reshape %40 {new_shape = array<i64: 1, 40, 32, 128>} : (tensor<1x40x4096xf32>) -> tensor<1x40x32x128xf32>
    %46 = tensor.empty() : tensor<1x32x40x128xf32>
    %transposed_739 = linalg.transpose ins(%45 : tensor<1x40x32x128xf32>) outs(%46 : tensor<1x32x40x128xf32>) permutation = [0, 2, 1, 3] 
    %extracted_slice_740 = tensor.extract_slice %expanded_516[0, 0, 0, 0] [1, 1, 2048, 128] [1, 1, 1, 1] : tensor<1x1x2048x128xf32> to tensor<1x1x2048x128xf32>
    %extracted_slice_741 = tensor.extract_slice %extracted_slice_740[0, 0, 0, 0] [1, 1, 2048, 128] [1, 1, 1, 1] : tensor<1x1x2048x128xf32> to tensor<1x1x2048x128xf32>
    %extracted_slice_742 = tensor.extract_slice %extracted_slice_741[0, 0, 0, 0] [1, 1, 40, 128] [1, 1, 1, 1] : tensor<1x1x2048x128xf32> to tensor<1x1x40x128xf32>
    %extracted_slice_743 = tensor.extract_slice %expanded_518[0, 0, 0, 0] [1, 1, 2048, 128] [1, 1, 1, 1] : tensor<1x1x2048x128xf32> to tensor<1x1x2048x128xf32>
    %extracted_slice_744 = tensor.extract_slice %extracted_slice_743[0, 0, 0, 0] [1, 1, 2048, 128] [1, 1, 1, 1] : tensor<1x1x2048x128xf32> to tensor<1x1x2048x128xf32>
    %extracted_slice_745 = tensor.extract_slice %extracted_slice_744[0, 0, 0, 0] [1, 1, 40, 128] [1, 1, 1, 1] : tensor<1x1x2048x128xf32> to tensor<1x1x40x128xf32>
    %47 = tensor.empty() : tensor<1x40x128xf32>
    %48 = linalg.generic {indexing_maps = [#map8, #map1], iterator_types = ["parallel", "parallel", "parallel"]} ins(%extracted_slice_742 : tensor<1x1x40x128xf32>) outs(%47 : tensor<1x40x128xf32>) {
    ^bb0(%in: f32, %out: f32):
      linalg.yield %in : f32
    } -> tensor<1x40x128xf32>
    %49 = tensor.empty() : tensor<40x128xf32>
    %50 = linalg.generic {indexing_maps = [#map9, #map4], iterator_types = ["parallel", "parallel"]} ins(%48 : tensor<1x40x128xf32>) outs(%49 : tensor<40x128xf32>) {
    ^bb0(%in: f32, %out: f32):
      linalg.yield %in : f32
    } -> tensor<40x128xf32>
    %51 = tensor.empty() : tensor<1x40x128xf32>
    %52 = linalg.generic {indexing_maps = [#map8, #map1], iterator_types = ["parallel", "parallel", "parallel"]} ins(%extracted_slice_745 : tensor<1x1x40x128xf32>) outs(%51 : tensor<1x40x128xf32>) {
    ^bb0(%in: f32, %out: f32):
      linalg.yield %in : f32
    } -> tensor<1x40x128xf32>
    %53 = tensor.empty() : tensor<40x128xf32>
    %54 = linalg.generic {indexing_maps = [#map9, #map4], iterator_types = ["parallel", "parallel"]} ins(%52 : tensor<1x40x128xf32>) outs(%53 : tensor<40x128xf32>) {
    ^bb0(%in: f32, %out: f32):
      linalg.yield %in : f32
    } -> tensor<40x128xf32>
    %55 = tensor.empty() : tensor<1x40x128xf32>
    %56 = linalg.generic {indexing_maps = [#map, #map1], iterator_types = ["parallel", "parallel", "parallel"]} ins(%1 : tensor<1x40xi64>) outs(%55 : tensor<1x40x128xf32>) {
    ^bb0(%in: i64, %out: f32):
      %2947 = arith.index_cast %in : i64 to index
      %2948 = linalg.index 2 : index
      %extracted = tensor.extract %50[%2947, %2948] : tensor<40x128xf32>
      linalg.yield %extracted : f32
    } -> tensor<1x40x128xf32>
    %57 = tosa.reshape %56 {new_shape = array<i64: 1, 1, 40, 128>} : (tensor<1x40x128xf32>) -> tensor<1x1x40x128xf32>
    %58 = tensor.empty() : tensor<1x40x128xf32>
    %59 = linalg.generic {indexing_maps = [#map, #map1], iterator_types = ["parallel", "parallel", "parallel"]} ins(%1 : tensor<1x40xi64>) outs(%58 : tensor<1x40x128xf32>) {
    ^bb0(%in: i64, %out: f32):
      %2947 = arith.index_cast %in : i64 to index
      %2948 = linalg.index 2 : index
      %extracted = tensor.extract %54[%2947, %2948] : tensor<40x128xf32>
      linalg.yield %extracted : f32
    } -> tensor<1x40x128xf32>
    %60 = tosa.reshape %59 {new_shape = array<i64: 1, 1, 40, 128>} : (tensor<1x40x128xf32>) -> tensor<1x1x40x128xf32>
    %61 = tosa.mul %transposed, %57 {shift = 0 : i8} : (tensor<1x32x40x128xf32>, tensor<1x1x40x128xf32>) -> tensor<1x32x40x128xf32>
    %extracted_slice_746 = tensor.extract_slice %transposed[0, 0, 0, 0] [1, 32, 40, 64] [1, 1, 1, 1] : tensor<1x32x40x128xf32> to tensor<1x32x40x64xf32>
    %extracted_slice_747 = tensor.extract_slice %transposed[0, 0, 0, 64] [1, 32, 40, 64] [1, 1, 1, 1] : tensor<1x32x40x128xf32> to tensor<1x32x40x64xf32>
    %62 = tensor.empty() : tensor<1x32x40x64xf32>
    %63 = linalg.negf ins(%extracted_slice_747 : tensor<1x32x40x64xf32>) outs(%62 : tensor<1x32x40x64xf32>) -> tensor<1x32x40x64xf32>
    %64 = tensor.empty() : tensor<1x32x40x128xf32>
    %inserted_slice_748 = tensor.insert_slice %63 into %64[0, 0, 0, 0] [1, 32, 40, 64] [1, 1, 1, 1] : tensor<1x32x40x64xf32> into tensor<1x32x40x128xf32>
    %inserted_slice_749 = tensor.insert_slice %extracted_slice_746 into %inserted_slice_748[0, 0, 0, 64] [1, 32, 40, 64] [1, 1, 1, 1] : tensor<1x32x40x64xf32> into tensor<1x32x40x128xf32>
    %65 = tosa.mul %inserted_slice_749, %60 {shift = 0 : i8} : (tensor<1x32x40x128xf32>, tensor<1x1x40x128xf32>) -> tensor<1x32x40x128xf32>
    %66 = tosa.add %61, %65 : (tensor<1x32x40x128xf32>, tensor<1x32x40x128xf32>) -> tensor<1x32x40x128xf32>
    %67 = tosa.mul %transposed_738, %57 {shift = 0 : i8} : (tensor<1x32x40x128xf32>, tensor<1x1x40x128xf32>) -> tensor<1x32x40x128xf32>
    %extracted_slice_750 = tensor.extract_slice %transposed_738[0, 0, 0, 0] [1, 32, 40, 64] [1, 1, 1, 1] : tensor<1x32x40x128xf32> to tensor<1x32x40x64xf32>
    %extracted_slice_751 = tensor.extract_slice %transposed_738[0, 0, 0, 64] [1, 32, 40, 64] [1, 1, 1, 1] : tensor<1x32x40x128xf32> to tensor<1x32x40x64xf32>
    %68 = tensor.empty() : tensor<1x32x40x64xf32>
    %69 = linalg.negf ins(%extracted_slice_751 : tensor<1x32x40x64xf32>) outs(%68 : tensor<1x32x40x64xf32>) -> tensor<1x32x40x64xf32>
    %70 = tensor.empty() : tensor<1x32x40x128xf32>
    %inserted_slice_752 = tensor.insert_slice %69 into %70[0, 0, 0, 0] [1, 32, 40, 64] [1, 1, 1, 1] : tensor<1x32x40x64xf32> into tensor<1x32x40x128xf32>
    %inserted_slice_753 = tensor.insert_slice %extracted_slice_750 into %inserted_slice_752[0, 0, 0, 64] [1, 32, 40, 64] [1, 1, 1, 1] : tensor<1x32x40x64xf32> into tensor<1x32x40x128xf32>
    %71 = tosa.mul %inserted_slice_753, %60 {shift = 0 : i8} : (tensor<1x32x40x128xf32>, tensor<1x1x40x128xf32>) -> tensor<1x32x40x128xf32>
    %72 = tosa.add %67, %71 : (tensor<1x32x40x128xf32>, tensor<1x32x40x128xf32>) -> tensor<1x32x40x128xf32>
    %73 = tensor.empty() : tensor<1x32x128x40xf32>
    %transposed_754 = linalg.transpose ins(%72 : tensor<1x32x40x128xf32>) outs(%73 : tensor<1x32x128x40xf32>) permutation = [0, 1, 3, 2] 
    %74 = tosa.reshape %66 {new_shape = array<i64: 32, 40, 128>} : (tensor<1x32x40x128xf32>) -> tensor<32x40x128xf32>
    %75 = tosa.reshape %transposed_754 {new_shape = array<i64: 32, 128, 40>} : (tensor<1x32x128x40xf32>) -> tensor<32x128x40xf32>
    %cst_755 = arith.constant dense<0.000000e+00> : tensor<32x40x40xf32>
    %76 = linalg.batch_matmul ins(%74, %75 : tensor<32x40x128xf32>, tensor<32x128x40xf32>) outs(%cst_755 : tensor<32x40x40xf32>) -> tensor<32x40x40xf32>
    %77 = tosa.reshape %76 {new_shape = array<i64: 1, 32, 40, 40>} : (tensor<32x40x40xf32>) -> tensor<1x32x40x40xf32>
    %cst_756 = arith.constant dense<11.3137083> : tensor<1xf32>
    %78 = tosa.reciprocal %cst_756 : (tensor<1xf32>) -> tensor<1xf32>
    %79 = tosa.mul %77, %78 {shift = 0 : i8} : (tensor<1x32x40x40xf32>, tensor<1xf32>) -> tensor<1x32x40x40xf32>
    %80 = tosa.add %79, %23 : (tensor<1x32x40x40xf32>, tensor<1x1x40x40xf32>) -> tensor<1x32x40x40xf32>
    %cst_757 = arith.constant dense<0.000000e+00> : tensor<1x32x40x1xf32>
    %81 = linalg.generic {indexing_maps = [#map5, #map10], iterator_types = ["parallel", "parallel", "parallel", "reduction"]} ins(%80 : tensor<1x32x40x40xf32>) outs(%cst_757 : tensor<1x32x40x1xf32>) {
    ^bb0(%in: f32, %out: f32):
      %2947 = math.exp %in : f32
      %2948 = arith.addf %2947, %out : f32
      linalg.yield %2948 : f32
    } -> tensor<1x32x40x1xf32>
    %82 = tensor.empty() : tensor<1x32x40x40xf32>
    %83 = linalg.generic {indexing_maps = [#map5, #map10, #map5], iterator_types = ["parallel", "parallel", "parallel", "parallel"]} ins(%80, %81 : tensor<1x32x40x40xf32>, tensor<1x32x40x1xf32>) outs(%82 : tensor<1x32x40x40xf32>) {
    ^bb0(%in: f32, %in_1919: f32, %out: f32):
      %2947 = math.exp %in : f32
      %2948 = arith.divf %2947, %in_1919 : f32
      linalg.yield %2948 : f32
    } -> tensor<1x32x40x40xf32>
    %84 = tosa.reshape %83 {new_shape = array<i64: 32, 40, 40>} : (tensor<1x32x40x40xf32>) -> tensor<32x40x40xf32>
    %85 = tosa.reshape %transposed_739 {new_shape = array<i64: 32, 40, 128>} : (tensor<1x32x40x128xf32>) -> tensor<32x40x128xf32>
    %cst_758 = arith.constant dense<0.000000e+00> : tensor<32x40x128xf32>
    %86 = linalg.batch_matmul ins(%84, %85 : tensor<32x40x40xf32>, tensor<32x40x128xf32>) outs(%cst_758 : tensor<32x40x128xf32>) -> tensor<32x40x128xf32>
    %87 = tosa.reshape %86 {new_shape = array<i64: 1, 32, 40, 128>} : (tensor<32x40x128xf32>) -> tensor<1x32x40x128xf32>
    %88 = tensor.empty() : tensor<1x40x32x128xf32>
    %transposed_759 = linalg.transpose ins(%87 : tensor<1x32x40x128xf32>) outs(%88 : tensor<1x40x32x128xf32>) permutation = [0, 2, 1, 3] 
    %extracted_slice_760 = tensor.extract_slice %transposed_759[0, 0, 0, 0] [1, 40, 32, 128] [1, 1, 1, 1] : tensor<1x40x32x128xf32> to tensor<1x40x32x128xf32>
    %89 = tosa.reshape %extracted_slice_760 {new_shape = array<i64: 1, 40, 4096>} : (tensor<1x40x32x128xf32>) -> tensor<1x40x4096xf32>
    %90 = tosa.reshape %89 {new_shape = array<i64: 40, 4096>} : (tensor<1x40x4096xf32>) -> tensor<40x4096xf32>
    %cst_761 = arith.constant dense<0.000000e+00> : tensor<40x4096xf32>
    %91 = linalg.matmul_transpose_b {cast = #linalg.type_fn<cast_signed>} ins(%90, %expanded_72 : tensor<40x4096xf32>, tensor<4096x4096xf32>) outs(%cst_761 : tensor<40x4096xf32>) -> tensor<40x4096xf32>
    %92 = tosa.reshape %91 {new_shape = array<i64: 1, 40, 4096>} : (tensor<40x4096xf32>) -> tensor<1x40x4096xf32>
    %93 = tosa.add %3, %92 : (tensor<1x40x4096xf32>, tensor<1x40x4096xf32>) -> tensor<1x40x4096xf32>
    %94 = tensor.empty() : tensor<1x40x4096xf32>
    %c2_i32_762 = arith.constant 2 : i32
    %95 = linalg.generic {indexing_maps = [#map1, #map1], iterator_types = ["parallel", "parallel", "parallel"]} ins(%93 : tensor<1x40x4096xf32>) outs(%94 : tensor<1x40x4096xf32>) {
    ^bb0(%in: f32, %out: f32):
      %2947 = math.fpowi %in, %c2_i32_762 : f32, i32
      linalg.yield %2947 : f32
    } -> tensor<1x40x4096xf32>
    %cst_763 = arith.constant dense<0.000000e+00> : tensor<1x40x1xf32>
    %96 = linalg.generic {indexing_maps = [#map6, #map7], iterator_types = ["parallel", "parallel", "reduction", "parallel"]} ins(%95 : tensor<1x40x4096xf32>) outs(%cst_763 : tensor<1x40x1xf32>) {
    ^bb0(%in: f32, %out: f32):
      %cst_1919 = arith.constant 4.096000e+03 : f32
      %2947 = arith.divf %in, %cst_1919 : f32
      %2948 = arith.addf %2947, %out : f32
      linalg.yield %2948 : f32
    } -> tensor<1x40x1xf32>
    %cst_764 = arith.constant dense<9.99999997E-7> : tensor<1xf32>
    %97 = tosa.add %96, %cst_764 : (tensor<1x40x1xf32>, tensor<1xf32>) -> tensor<1x40x1xf32>
    %98 = tensor.empty() : tensor<1x40x1xf32>
    %99 = linalg.generic {indexing_maps = [#map1, #map1], iterator_types = ["parallel", "parallel", "parallel"]} ins(%97 : tensor<1x40x1xf32>) outs(%98 : tensor<1x40x1xf32>) {
    ^bb0(%in: f32, %out: f32):
      %2947 = math.rsqrt %in : f32
      linalg.yield %2947 : f32
    } -> tensor<1x40x1xf32>
    %100 = tosa.mul %93, %99 {shift = 0 : i8} : (tensor<1x40x4096xf32>, tensor<1x40x1xf32>) -> tensor<1x40x4096xf32>
    %101 = tosa.mul %extracted_slice_0, %100 {shift = 0 : i8} : (tensor<4096xf32>, tensor<1x40x4096xf32>) -> tensor<1x40x4096xf32>
    %102 = tosa.reshape %101 {new_shape = array<i64: 40, 4096>} : (tensor<1x40x4096xf32>) -> tensor<40x4096xf32>
    %cst_765 = arith.constant dense<0.000000e+00> : tensor<40x11008xf32>
    %103 = linalg.matmul_transpose_b {cast = #linalg.type_fn<cast_signed>} ins(%102, %expanded_74 : tensor<40x4096xf32>, tensor<11008x4096xf32>) outs(%cst_765 : tensor<40x11008xf32>) -> tensor<40x11008xf32>
    %104 = tosa.reshape %103 {new_shape = array<i64: 1, 40, 11008>} : (tensor<40x11008xf32>) -> tensor<1x40x11008xf32>
    %105 = tensor.empty() : tensor<1x40x11008xf32>
    %106 = linalg.generic {indexing_maps = [#map1, #map1], iterator_types = ["parallel", "parallel", "parallel"]} ins(%104 : tensor<1x40x11008xf32>) outs(%105 : tensor<1x40x11008xf32>) {
    ^bb0(%in: f32, %out: f32):
      %2947 = arith.negf %in : f32
      %2948 = math.exp %2947 : f32
      %cst_1919 = arith.constant 1.000000e+00 : f32
      %2949 = arith.addf %cst_1919, %2948 : f32
      %2950 = arith.divf %in, %2949 : f32
      linalg.yield %2950 : f32
    } -> tensor<1x40x11008xf32>
    %107 = tosa.reshape %101 {new_shape = array<i64: 40, 4096>} : (tensor<1x40x4096xf32>) -> tensor<40x4096xf32>
    %cst_766 = arith.constant dense<0.000000e+00> : tensor<40x11008xf32>
    %108 = linalg.matmul_transpose_b {cast = #linalg.type_fn<cast_signed>} ins(%107, %expanded_76 : tensor<40x4096xf32>, tensor<11008x4096xf32>) outs(%cst_766 : tensor<40x11008xf32>) -> tensor<40x11008xf32>
    %109 = tosa.reshape %108 {new_shape = array<i64: 1, 40, 11008>} : (tensor<40x11008xf32>) -> tensor<1x40x11008xf32>
    %110 = tosa.mul %106, %109 {shift = 0 : i8} : (tensor<1x40x11008xf32>, tensor<1x40x11008xf32>) -> tensor<1x40x11008xf32>
    %111 = tosa.reshape %110 {new_shape = array<i64: 40, 11008>} : (tensor<1x40x11008xf32>) -> tensor<40x11008xf32>
    %cst_767 = arith.constant dense<0.000000e+00> : tensor<40x4096xf32>
    %112 = linalg.matmul_transpose_b {cast = #linalg.type_fn<cast_signed>} ins(%111, %expanded_78 : tensor<40x11008xf32>, tensor<4096x11008xf32>) outs(%cst_767 : tensor<40x4096xf32>) -> tensor<40x4096xf32>
    %113 = tosa.reshape %112 {new_shape = array<i64: 1, 40, 4096>} : (tensor<40x4096xf32>) -> tensor<1x40x4096xf32>
    %114 = tosa.add %93, %113 : (tensor<1x40x4096xf32>, tensor<1x40x4096xf32>) -> tensor<1x40x4096xf32>
    %115 = tensor.empty() : tensor<1x40x4096xf32>
    %c2_i32_768 = arith.constant 2 : i32
    %116 = linalg.generic {indexing_maps = [#map1, #map1], iterator_types = ["parallel", "parallel", "parallel"]} ins(%114 : tensor<1x40x4096xf32>) outs(%115 : tensor<1x40x4096xf32>) {
    ^bb0(%in: f32, %out: f32):
      %2947 = math.fpowi %in, %c2_i32_768 : f32, i32
      linalg.yield %2947 : f32
    } -> tensor<1x40x4096xf32>
    %cst_769 = arith.constant dense<0.000000e+00> : tensor<1x40x1xf32>
    %117 = linalg.generic {indexing_maps = [#map6, #map7], iterator_types = ["parallel", "parallel", "reduction", "parallel"]} ins(%116 : tensor<1x40x4096xf32>) outs(%cst_769 : tensor<1x40x1xf32>) {
    ^bb0(%in: f32, %out: f32):
      %cst_1919 = arith.constant 4.096000e+03 : f32
      %2947 = arith.divf %in, %cst_1919 : f32
      %2948 = arith.addf %2947, %out : f32
      linalg.yield %2948 : f32
    } -> tensor<1x40x1xf32>
    %cst_770 = arith.constant dense<9.99999997E-7> : tensor<1xf32>
    %118 = tosa.add %117, %cst_770 : (tensor<1x40x1xf32>, tensor<1xf32>) -> tensor<1x40x1xf32>
    %119 = tensor.empty() : tensor<1x40x1xf32>
    %120 = linalg.generic {indexing_maps = [#map1, #map1], iterator_types = ["parallel", "parallel", "parallel"]} ins(%118 : tensor<1x40x1xf32>) outs(%119 : tensor<1x40x1xf32>) {
    ^bb0(%in: f32, %out: f32):
      %2947 = math.rsqrt %in : f32
      linalg.yield %2947 : f32
    } -> tensor<1x40x1xf32>
    %121 = tosa.mul %114, %120 {shift = 0 : i8} : (tensor<1x40x4096xf32>, tensor<1x40x1xf32>) -> tensor<1x40x4096xf32>
    %122 = tosa.mul %extracted_slice_1, %121 {shift = 0 : i8} : (tensor<4096xf32>, tensor<1x40x4096xf32>) -> tensor<1x40x4096xf32>
    %123 = tosa.reshape %122 {new_shape = array<i64: 40, 4096>} : (tensor<1x40x4096xf32>) -> tensor<40x4096xf32>
    %cst_771 = arith.constant dense<0.000000e+00> : tensor<40x4096xf32>
    %124 = linalg.matmul_transpose_b {cast = #linalg.type_fn<cast_signed>} ins(%123, %expanded_80 : tensor<40x4096xf32>, tensor<4096x4096xf32>) outs(%cst_771 : tensor<40x4096xf32>) -> tensor<40x4096xf32>
    %125 = tosa.reshape %124 {new_shape = array<i64: 1, 40, 4096>} : (tensor<40x4096xf32>) -> tensor<1x40x4096xf32>
    %126 = tosa.reshape %122 {new_shape = array<i64: 40, 4096>} : (tensor<1x40x4096xf32>) -> tensor<40x4096xf32>
    %cst_772 = arith.constant dense<0.000000e+00> : tensor<40x4096xf32>
    %127 = linalg.matmul_transpose_b {cast = #linalg.type_fn<cast_signed>} ins(%126, %expanded_82 : tensor<40x4096xf32>, tensor<4096x4096xf32>) outs(%cst_772 : tensor<40x4096xf32>) -> tensor<40x4096xf32>
    %128 = tosa.reshape %127 {new_shape = array<i64: 1, 40, 4096>} : (tensor<40x4096xf32>) -> tensor<1x40x4096xf32>
    %129 = tosa.reshape %122 {new_shape = array<i64: 40, 4096>} : (tensor<1x40x4096xf32>) -> tensor<40x4096xf32>
    %cst_773 = arith.constant dense<0.000000e+00> : tensor<40x4096xf32>
    %130 = linalg.matmul_transpose_b {cast = #linalg.type_fn<cast_signed>} ins(%129, %expanded_84 : tensor<40x4096xf32>, tensor<4096x4096xf32>) outs(%cst_773 : tensor<40x4096xf32>) -> tensor<40x4096xf32>
    %131 = tosa.reshape %130 {new_shape = array<i64: 1, 40, 4096>} : (tensor<40x4096xf32>) -> tensor<1x40x4096xf32>
    %132 = tosa.reshape %125 {new_shape = array<i64: 1, 40, 32, 128>} : (tensor<1x40x4096xf32>) -> tensor<1x40x32x128xf32>
    %133 = tensor.empty() : tensor<1x32x40x128xf32>
    %transposed_774 = linalg.transpose ins(%132 : tensor<1x40x32x128xf32>) outs(%133 : tensor<1x32x40x128xf32>) permutation = [0, 2, 1, 3] 
    %134 = tosa.reshape %128 {new_shape = array<i64: 1, 40, 32, 128>} : (tensor<1x40x4096xf32>) -> tensor<1x40x32x128xf32>
    %135 = tensor.empty() : tensor<1x32x40x128xf32>
    %transposed_775 = linalg.transpose ins(%134 : tensor<1x40x32x128xf32>) outs(%135 : tensor<1x32x40x128xf32>) permutation = [0, 2, 1, 3] 
    %136 = tosa.reshape %131 {new_shape = array<i64: 1, 40, 32, 128>} : (tensor<1x40x4096xf32>) -> tensor<1x40x32x128xf32>
    %137 = tensor.empty() : tensor<1x32x40x128xf32>
    %transposed_776 = linalg.transpose ins(%136 : tensor<1x40x32x128xf32>) outs(%137 : tensor<1x32x40x128xf32>) permutation = [0, 2, 1, 3] 
    %extracted_slice_777 = tensor.extract_slice %expanded_520[0, 0, 0, 0] [1, 1, 2048, 128] [1, 1, 1, 1] : tensor<1x1x2048x128xf32> to tensor<1x1x2048x128xf32>
    %extracted_slice_778 = tensor.extract_slice %extracted_slice_777[0, 0, 0, 0] [1, 1, 2048, 128] [1, 1, 1, 1] : tensor<1x1x2048x128xf32> to tensor<1x1x2048x128xf32>
    %extracted_slice_779 = tensor.extract_slice %extracted_slice_778[0, 0, 0, 0] [1, 1, 40, 128] [1, 1, 1, 1] : tensor<1x1x2048x128xf32> to tensor<1x1x40x128xf32>
    %extracted_slice_780 = tensor.extract_slice %expanded_522[0, 0, 0, 0] [1, 1, 2048, 128] [1, 1, 1, 1] : tensor<1x1x2048x128xf32> to tensor<1x1x2048x128xf32>
    %extracted_slice_781 = tensor.extract_slice %extracted_slice_780[0, 0, 0, 0] [1, 1, 2048, 128] [1, 1, 1, 1] : tensor<1x1x2048x128xf32> to tensor<1x1x2048x128xf32>
    %extracted_slice_782 = tensor.extract_slice %extracted_slice_781[0, 0, 0, 0] [1, 1, 40, 128] [1, 1, 1, 1] : tensor<1x1x2048x128xf32> to tensor<1x1x40x128xf32>
    %138 = tensor.empty() : tensor<1x40x128xf32>
    %139 = linalg.generic {indexing_maps = [#map8, #map1], iterator_types = ["parallel", "parallel", "parallel"]} ins(%extracted_slice_779 : tensor<1x1x40x128xf32>) outs(%138 : tensor<1x40x128xf32>) {
    ^bb0(%in: f32, %out: f32):
      linalg.yield %in : f32
    } -> tensor<1x40x128xf32>
    %140 = tensor.empty() : tensor<40x128xf32>
    %141 = linalg.generic {indexing_maps = [#map9, #map4], iterator_types = ["parallel", "parallel"]} ins(%139 : tensor<1x40x128xf32>) outs(%140 : tensor<40x128xf32>) {
    ^bb0(%in: f32, %out: f32):
      linalg.yield %in : f32
    } -> tensor<40x128xf32>
    %142 = tensor.empty() : tensor<1x40x128xf32>
    %143 = linalg.generic {indexing_maps = [#map8, #map1], iterator_types = ["parallel", "parallel", "parallel"]} ins(%extracted_slice_782 : tensor<1x1x40x128xf32>) outs(%142 : tensor<1x40x128xf32>) {
    ^bb0(%in: f32, %out: f32):
      linalg.yield %in : f32
    } -> tensor<1x40x128xf32>
    %144 = tensor.empty() : tensor<40x128xf32>
    %145 = linalg.generic {indexing_maps = [#map9, #map4], iterator_types = ["parallel", "parallel"]} ins(%143 : tensor<1x40x128xf32>) outs(%144 : tensor<40x128xf32>) {
    ^bb0(%in: f32, %out: f32):
      linalg.yield %in : f32
    } -> tensor<40x128xf32>
    %146 = tensor.empty() : tensor<1x40x128xf32>
    %147 = linalg.generic {indexing_maps = [#map, #map1], iterator_types = ["parallel", "parallel", "parallel"]} ins(%1 : tensor<1x40xi64>) outs(%146 : tensor<1x40x128xf32>) {
    ^bb0(%in: i64, %out: f32):
      %2947 = arith.index_cast %in : i64 to index
      %2948 = linalg.index 2 : index
      %extracted = tensor.extract %141[%2947, %2948] : tensor<40x128xf32>
      linalg.yield %extracted : f32
    } -> tensor<1x40x128xf32>
    %148 = tosa.reshape %147 {new_shape = array<i64: 1, 1, 40, 128>} : (tensor<1x40x128xf32>) -> tensor<1x1x40x128xf32>
    %149 = tensor.empty() : tensor<1x40x128xf32>
    %150 = linalg.generic {indexing_maps = [#map, #map1], iterator_types = ["parallel", "parallel", "parallel"]} ins(%1 : tensor<1x40xi64>) outs(%149 : tensor<1x40x128xf32>) {
    ^bb0(%in: i64, %out: f32):
      %2947 = arith.index_cast %in : i64 to index
      %2948 = linalg.index 2 : index
      %extracted = tensor.extract %145[%2947, %2948] : tensor<40x128xf32>
      linalg.yield %extracted : f32
    } -> tensor<1x40x128xf32>
    %151 = tosa.reshape %150 {new_shape = array<i64: 1, 1, 40, 128>} : (tensor<1x40x128xf32>) -> tensor<1x1x40x128xf32>
    %152 = tosa.mul %transposed_774, %148 {shift = 0 : i8} : (tensor<1x32x40x128xf32>, tensor<1x1x40x128xf32>) -> tensor<1x32x40x128xf32>
    %extracted_slice_783 = tensor.extract_slice %transposed_774[0, 0, 0, 0] [1, 32, 40, 64] [1, 1, 1, 1] : tensor<1x32x40x128xf32> to tensor<1x32x40x64xf32>
    %extracted_slice_784 = tensor.extract_slice %transposed_774[0, 0, 0, 64] [1, 32, 40, 64] [1, 1, 1, 1] : tensor<1x32x40x128xf32> to tensor<1x32x40x64xf32>
    %153 = tensor.empty() : tensor<1x32x40x64xf32>
    %154 = linalg.negf ins(%extracted_slice_784 : tensor<1x32x40x64xf32>) outs(%153 : tensor<1x32x40x64xf32>) -> tensor<1x32x40x64xf32>
    %155 = tensor.empty() : tensor<1x32x40x128xf32>
    %inserted_slice_785 = tensor.insert_slice %154 into %155[0, 0, 0, 0] [1, 32, 40, 64] [1, 1, 1, 1] : tensor<1x32x40x64xf32> into tensor<1x32x40x128xf32>
    %inserted_slice_786 = tensor.insert_slice %extracted_slice_783 into %inserted_slice_785[0, 0, 0, 64] [1, 32, 40, 64] [1, 1, 1, 1] : tensor<1x32x40x64xf32> into tensor<1x32x40x128xf32>
    %156 = tosa.mul %inserted_slice_786, %151 {shift = 0 : i8} : (tensor<1x32x40x128xf32>, tensor<1x1x40x128xf32>) -> tensor<1x32x40x128xf32>
    %157 = tosa.add %152, %156 : (tensor<1x32x40x128xf32>, tensor<1x32x40x128xf32>) -> tensor<1x32x40x128xf32>
    %158 = tosa.mul %transposed_775, %148 {shift = 0 : i8} : (tensor<1x32x40x128xf32>, tensor<1x1x40x128xf32>) -> tensor<1x32x40x128xf32>
    %extracted_slice_787 = tensor.extract_slice %transposed_775[0, 0, 0, 0] [1, 32, 40, 64] [1, 1, 1, 1] : tensor<1x32x40x128xf32> to tensor<1x32x40x64xf32>
    %extracted_slice_788 = tensor.extract_slice %transposed_775[0, 0, 0, 64] [1, 32, 40, 64] [1, 1, 1, 1] : tensor<1x32x40x128xf32> to tensor<1x32x40x64xf32>
    %159 = tensor.empty() : tensor<1x32x40x64xf32>
    %160 = linalg.negf ins(%extracted_slice_788 : tensor<1x32x40x64xf32>) outs(%159 : tensor<1x32x40x64xf32>) -> tensor<1x32x40x64xf32>
    %161 = tensor.empty() : tensor<1x32x40x128xf32>
    %inserted_slice_789 = tensor.insert_slice %160 into %161[0, 0, 0, 0] [1, 32, 40, 64] [1, 1, 1, 1] : tensor<1x32x40x64xf32> into tensor<1x32x40x128xf32>
    %inserted_slice_790 = tensor.insert_slice %extracted_slice_787 into %inserted_slice_789[0, 0, 0, 64] [1, 32, 40, 64] [1, 1, 1, 1] : tensor<1x32x40x64xf32> into tensor<1x32x40x128xf32>
    %162 = tosa.mul %inserted_slice_790, %151 {shift = 0 : i8} : (tensor<1x32x40x128xf32>, tensor<1x1x40x128xf32>) -> tensor<1x32x40x128xf32>
    %163 = tosa.add %158, %162 : (tensor<1x32x40x128xf32>, tensor<1x32x40x128xf32>) -> tensor<1x32x40x128xf32>
    %164 = tensor.empty() : tensor<1x32x128x40xf32>
    %transposed_791 = linalg.transpose ins(%163 : tensor<1x32x40x128xf32>) outs(%164 : tensor<1x32x128x40xf32>) permutation = [0, 1, 3, 2] 
    %165 = tosa.reshape %157 {new_shape = array<i64: 32, 40, 128>} : (tensor<1x32x40x128xf32>) -> tensor<32x40x128xf32>
    %166 = tosa.reshape %transposed_791 {new_shape = array<i64: 32, 128, 40>} : (tensor<1x32x128x40xf32>) -> tensor<32x128x40xf32>
    %cst_792 = arith.constant dense<0.000000e+00> : tensor<32x40x40xf32>
    %167 = linalg.batch_matmul ins(%165, %166 : tensor<32x40x128xf32>, tensor<32x128x40xf32>) outs(%cst_792 : tensor<32x40x40xf32>) -> tensor<32x40x40xf32>
    %168 = tosa.reshape %167 {new_shape = array<i64: 1, 32, 40, 40>} : (tensor<32x40x40xf32>) -> tensor<1x32x40x40xf32>
    %cst_793 = arith.constant dense<11.3137083> : tensor<1xf32>
    %169 = tosa.reciprocal %cst_793 : (tensor<1xf32>) -> tensor<1xf32>
    %170 = tosa.mul %168, %169 {shift = 0 : i8} : (tensor<1x32x40x40xf32>, tensor<1xf32>) -> tensor<1x32x40x40xf32>
    %171 = tosa.add %170, %23 : (tensor<1x32x40x40xf32>, tensor<1x1x40x40xf32>) -> tensor<1x32x40x40xf32>
    %cst_794 = arith.constant dense<0.000000e+00> : tensor<1x32x40x1xf32>
    %172 = linalg.generic {indexing_maps = [#map5, #map10], iterator_types = ["parallel", "parallel", "parallel", "reduction"]} ins(%171 : tensor<1x32x40x40xf32>) outs(%cst_794 : tensor<1x32x40x1xf32>) {
    ^bb0(%in: f32, %out: f32):
      %2947 = math.exp %in : f32
      %2948 = arith.addf %2947, %out : f32
      linalg.yield %2948 : f32
    } -> tensor<1x32x40x1xf32>
    %173 = tensor.empty() : tensor<1x32x40x40xf32>
    %174 = linalg.generic {indexing_maps = [#map5, #map10, #map5], iterator_types = ["parallel", "parallel", "parallel", "parallel"]} ins(%171, %172 : tensor<1x32x40x40xf32>, tensor<1x32x40x1xf32>) outs(%173 : tensor<1x32x40x40xf32>) {
    ^bb0(%in: f32, %in_1919: f32, %out: f32):
      %2947 = math.exp %in : f32
      %2948 = arith.divf %2947, %in_1919 : f32
      linalg.yield %2948 : f32
    } -> tensor<1x32x40x40xf32>
    %175 = tosa.reshape %174 {new_shape = array<i64: 32, 40, 40>} : (tensor<1x32x40x40xf32>) -> tensor<32x40x40xf32>
    %176 = tosa.reshape %transposed_776 {new_shape = array<i64: 32, 40, 128>} : (tensor<1x32x40x128xf32>) -> tensor<32x40x128xf32>
    %cst_795 = arith.constant dense<0.000000e+00> : tensor<32x40x128xf32>
    %177 = linalg.batch_matmul ins(%175, %176 : tensor<32x40x40xf32>, tensor<32x40x128xf32>) outs(%cst_795 : tensor<32x40x128xf32>) -> tensor<32x40x128xf32>
    %178 = tosa.reshape %177 {new_shape = array<i64: 1, 32, 40, 128>} : (tensor<32x40x128xf32>) -> tensor<1x32x40x128xf32>
    %179 = tensor.empty() : tensor<1x40x32x128xf32>
    %transposed_796 = linalg.transpose ins(%178 : tensor<1x32x40x128xf32>) outs(%179 : tensor<1x40x32x128xf32>) permutation = [0, 2, 1, 3] 
    %extracted_slice_797 = tensor.extract_slice %transposed_796[0, 0, 0, 0] [1, 40, 32, 128] [1, 1, 1, 1] : tensor<1x40x32x128xf32> to tensor<1x40x32x128xf32>
    %180 = tosa.reshape %extracted_slice_797 {new_shape = array<i64: 1, 40, 4096>} : (tensor<1x40x32x128xf32>) -> tensor<1x40x4096xf32>
    %181 = tosa.reshape %180 {new_shape = array<i64: 40, 4096>} : (tensor<1x40x4096xf32>) -> tensor<40x4096xf32>
    %cst_798 = arith.constant dense<0.000000e+00> : tensor<40x4096xf32>
    %182 = linalg.matmul_transpose_b {cast = #linalg.type_fn<cast_signed>} ins(%181, %expanded_86 : tensor<40x4096xf32>, tensor<4096x4096xf32>) outs(%cst_798 : tensor<40x4096xf32>) -> tensor<40x4096xf32>
    %183 = tosa.reshape %182 {new_shape = array<i64: 1, 40, 4096>} : (tensor<40x4096xf32>) -> tensor<1x40x4096xf32>
    %184 = tosa.add %114, %183 : (tensor<1x40x4096xf32>, tensor<1x40x4096xf32>) -> tensor<1x40x4096xf32>
    %185 = tensor.empty() : tensor<1x40x4096xf32>
    %c2_i32_799 = arith.constant 2 : i32
    %186 = linalg.generic {indexing_maps = [#map1, #map1], iterator_types = ["parallel", "parallel", "parallel"]} ins(%184 : tensor<1x40x4096xf32>) outs(%185 : tensor<1x40x4096xf32>) {
    ^bb0(%in: f32, %out: f32):
      %2947 = math.fpowi %in, %c2_i32_799 : f32, i32
      linalg.yield %2947 : f32
    } -> tensor<1x40x4096xf32>
    %cst_800 = arith.constant dense<0.000000e+00> : tensor<1x40x1xf32>
    %187 = linalg.generic {indexing_maps = [#map6, #map7], iterator_types = ["parallel", "parallel", "reduction", "parallel"]} ins(%186 : tensor<1x40x4096xf32>) outs(%cst_800 : tensor<1x40x1xf32>) {
    ^bb0(%in: f32, %out: f32):
      %cst_1919 = arith.constant 4.096000e+03 : f32
      %2947 = arith.divf %in, %cst_1919 : f32
      %2948 = arith.addf %2947, %out : f32
      linalg.yield %2948 : f32
    } -> tensor<1x40x1xf32>
    %cst_801 = arith.constant dense<9.99999997E-7> : tensor<1xf32>
    %188 = tosa.add %187, %cst_801 : (tensor<1x40x1xf32>, tensor<1xf32>) -> tensor<1x40x1xf32>
    %189 = tensor.empty() : tensor<1x40x1xf32>
    %190 = linalg.generic {indexing_maps = [#map1, #map1], iterator_types = ["parallel", "parallel", "parallel"]} ins(%188 : tensor<1x40x1xf32>) outs(%189 : tensor<1x40x1xf32>) {
    ^bb0(%in: f32, %out: f32):
      %2947 = math.rsqrt %in : f32
      linalg.yield %2947 : f32
    } -> tensor<1x40x1xf32>
    %191 = tosa.mul %184, %190 {shift = 0 : i8} : (tensor<1x40x4096xf32>, tensor<1x40x1xf32>) -> tensor<1x40x4096xf32>
    %192 = tosa.mul %extracted_slice_2, %191 {shift = 0 : i8} : (tensor<4096xf32>, tensor<1x40x4096xf32>) -> tensor<1x40x4096xf32>
    %193 = tosa.reshape %192 {new_shape = array<i64: 40, 4096>} : (tensor<1x40x4096xf32>) -> tensor<40x4096xf32>
    %cst_802 = arith.constant dense<0.000000e+00> : tensor<40x11008xf32>
    %194 = linalg.matmul_transpose_b {cast = #linalg.type_fn<cast_signed>} ins(%193, %expanded_88 : tensor<40x4096xf32>, tensor<11008x4096xf32>) outs(%cst_802 : tensor<40x11008xf32>) -> tensor<40x11008xf32>
    %195 = tosa.reshape %194 {new_shape = array<i64: 1, 40, 11008>} : (tensor<40x11008xf32>) -> tensor<1x40x11008xf32>
    %196 = tensor.empty() : tensor<1x40x11008xf32>
    %197 = linalg.generic {indexing_maps = [#map1, #map1], iterator_types = ["parallel", "parallel", "parallel"]} ins(%195 : tensor<1x40x11008xf32>) outs(%196 : tensor<1x40x11008xf32>) {
    ^bb0(%in: f32, %out: f32):
      %2947 = arith.negf %in : f32
      %2948 = math.exp %2947 : f32
      %cst_1919 = arith.constant 1.000000e+00 : f32
      %2949 = arith.addf %cst_1919, %2948 : f32
      %2950 = arith.divf %in, %2949 : f32
      linalg.yield %2950 : f32
    } -> tensor<1x40x11008xf32>
    %198 = tosa.reshape %192 {new_shape = array<i64: 40, 4096>} : (tensor<1x40x4096xf32>) -> tensor<40x4096xf32>
    %cst_803 = arith.constant dense<0.000000e+00> : tensor<40x11008xf32>
    %199 = linalg.matmul_transpose_b {cast = #linalg.type_fn<cast_signed>} ins(%198, %expanded_90 : tensor<40x4096xf32>, tensor<11008x4096xf32>) outs(%cst_803 : tensor<40x11008xf32>) -> tensor<40x11008xf32>
    %200 = tosa.reshape %199 {new_shape = array<i64: 1, 40, 11008>} : (tensor<40x11008xf32>) -> tensor<1x40x11008xf32>
    %201 = tosa.mul %197, %200 {shift = 0 : i8} : (tensor<1x40x11008xf32>, tensor<1x40x11008xf32>) -> tensor<1x40x11008xf32>
    %202 = tosa.reshape %201 {new_shape = array<i64: 40, 11008>} : (tensor<1x40x11008xf32>) -> tensor<40x11008xf32>
    %cst_804 = arith.constant dense<0.000000e+00> : tensor<40x4096xf32>
    %203 = linalg.matmul_transpose_b {cast = #linalg.type_fn<cast_signed>} ins(%202, %expanded_92 : tensor<40x11008xf32>, tensor<4096x11008xf32>) outs(%cst_804 : tensor<40x4096xf32>) -> tensor<40x4096xf32>
    %204 = tosa.reshape %203 {new_shape = array<i64: 1, 40, 4096>} : (tensor<40x4096xf32>) -> tensor<1x40x4096xf32>
    %205 = tosa.add %184, %204 : (tensor<1x40x4096xf32>, tensor<1x40x4096xf32>) -> tensor<1x40x4096xf32>
    %206 = tensor.empty() : tensor<1x40x4096xf32>
    %c2_i32_805 = arith.constant 2 : i32
    %207 = linalg.generic {indexing_maps = [#map1, #map1], iterator_types = ["parallel", "parallel", "parallel"]} ins(%205 : tensor<1x40x4096xf32>) outs(%206 : tensor<1x40x4096xf32>) {
    ^bb0(%in: f32, %out: f32):
      %2947 = math.fpowi %in, %c2_i32_805 : f32, i32
      linalg.yield %2947 : f32
    } -> tensor<1x40x4096xf32>
    %cst_806 = arith.constant dense<0.000000e+00> : tensor<1x40x1xf32>
    %208 = linalg.generic {indexing_maps = [#map6, #map7], iterator_types = ["parallel", "parallel", "reduction", "parallel"]} ins(%207 : tensor<1x40x4096xf32>) outs(%cst_806 : tensor<1x40x1xf32>) {
    ^bb0(%in: f32, %out: f32):
      %cst_1919 = arith.constant 4.096000e+03 : f32
      %2947 = arith.divf %in, %cst_1919 : f32
      %2948 = arith.addf %2947, %out : f32
      linalg.yield %2948 : f32
    } -> tensor<1x40x1xf32>
    %cst_807 = arith.constant dense<9.99999997E-7> : tensor<1xf32>
    %209 = tosa.add %208, %cst_807 : (tensor<1x40x1xf32>, tensor<1xf32>) -> tensor<1x40x1xf32>
    %210 = tensor.empty() : tensor<1x40x1xf32>
    %211 = linalg.generic {indexing_maps = [#map1, #map1], iterator_types = ["parallel", "parallel", "parallel"]} ins(%209 : tensor<1x40x1xf32>) outs(%210 : tensor<1x40x1xf32>) {
    ^bb0(%in: f32, %out: f32):
      %2947 = math.rsqrt %in : f32
      linalg.yield %2947 : f32
    } -> tensor<1x40x1xf32>
    %212 = tosa.mul %205, %211 {shift = 0 : i8} : (tensor<1x40x4096xf32>, tensor<1x40x1xf32>) -> tensor<1x40x4096xf32>
    %213 = tosa.mul %extracted_slice_3, %212 {shift = 0 : i8} : (tensor<4096xf32>, tensor<1x40x4096xf32>) -> tensor<1x40x4096xf32>
    %214 = tosa.reshape %213 {new_shape = array<i64: 40, 4096>} : (tensor<1x40x4096xf32>) -> tensor<40x4096xf32>
    %cst_808 = arith.constant dense<0.000000e+00> : tensor<40x4096xf32>
    %215 = linalg.matmul_transpose_b {cast = #linalg.type_fn<cast_signed>} ins(%214, %expanded_94 : tensor<40x4096xf32>, tensor<4096x4096xf32>) outs(%cst_808 : tensor<40x4096xf32>) -> tensor<40x4096xf32>
    %216 = tosa.reshape %215 {new_shape = array<i64: 1, 40, 4096>} : (tensor<40x4096xf32>) -> tensor<1x40x4096xf32>
    %217 = tosa.reshape %213 {new_shape = array<i64: 40, 4096>} : (tensor<1x40x4096xf32>) -> tensor<40x4096xf32>
    %cst_809 = arith.constant dense<0.000000e+00> : tensor<40x4096xf32>
    %218 = linalg.matmul_transpose_b {cast = #linalg.type_fn<cast_signed>} ins(%217, %expanded_96 : tensor<40x4096xf32>, tensor<4096x4096xf32>) outs(%cst_809 : tensor<40x4096xf32>) -> tensor<40x4096xf32>
    %219 = tosa.reshape %218 {new_shape = array<i64: 1, 40, 4096>} : (tensor<40x4096xf32>) -> tensor<1x40x4096xf32>
    %220 = tosa.reshape %213 {new_shape = array<i64: 40, 4096>} : (tensor<1x40x4096xf32>) -> tensor<40x4096xf32>
    %cst_810 = arith.constant dense<0.000000e+00> : tensor<40x4096xf32>
    %221 = linalg.matmul_transpose_b {cast = #linalg.type_fn<cast_signed>} ins(%220, %expanded_98 : tensor<40x4096xf32>, tensor<4096x4096xf32>) outs(%cst_810 : tensor<40x4096xf32>) -> tensor<40x4096xf32>
    %222 = tosa.reshape %221 {new_shape = array<i64: 1, 40, 4096>} : (tensor<40x4096xf32>) -> tensor<1x40x4096xf32>
    %223 = tosa.reshape %216 {new_shape = array<i64: 1, 40, 32, 128>} : (tensor<1x40x4096xf32>) -> tensor<1x40x32x128xf32>
    %224 = tensor.empty() : tensor<1x32x40x128xf32>
    %transposed_811 = linalg.transpose ins(%223 : tensor<1x40x32x128xf32>) outs(%224 : tensor<1x32x40x128xf32>) permutation = [0, 2, 1, 3] 
    %225 = tosa.reshape %219 {new_shape = array<i64: 1, 40, 32, 128>} : (tensor<1x40x4096xf32>) -> tensor<1x40x32x128xf32>
    %226 = tensor.empty() : tensor<1x32x40x128xf32>
    %transposed_812 = linalg.transpose ins(%225 : tensor<1x40x32x128xf32>) outs(%226 : tensor<1x32x40x128xf32>) permutation = [0, 2, 1, 3] 
    %227 = tosa.reshape %222 {new_shape = array<i64: 1, 40, 32, 128>} : (tensor<1x40x4096xf32>) -> tensor<1x40x32x128xf32>
    %228 = tensor.empty() : tensor<1x32x40x128xf32>
    %transposed_813 = linalg.transpose ins(%227 : tensor<1x40x32x128xf32>) outs(%228 : tensor<1x32x40x128xf32>) permutation = [0, 2, 1, 3] 
    %extracted_slice_814 = tensor.extract_slice %expanded_524[0, 0, 0, 0] [1, 1, 2048, 128] [1, 1, 1, 1] : tensor<1x1x2048x128xf32> to tensor<1x1x2048x128xf32>
    %extracted_slice_815 = tensor.extract_slice %extracted_slice_814[0, 0, 0, 0] [1, 1, 2048, 128] [1, 1, 1, 1] : tensor<1x1x2048x128xf32> to tensor<1x1x2048x128xf32>
    %extracted_slice_816 = tensor.extract_slice %extracted_slice_815[0, 0, 0, 0] [1, 1, 40, 128] [1, 1, 1, 1] : tensor<1x1x2048x128xf32> to tensor<1x1x40x128xf32>
    %extracted_slice_817 = tensor.extract_slice %expanded_526[0, 0, 0, 0] [1, 1, 2048, 128] [1, 1, 1, 1] : tensor<1x1x2048x128xf32> to tensor<1x1x2048x128xf32>
    %extracted_slice_818 = tensor.extract_slice %extracted_slice_817[0, 0, 0, 0] [1, 1, 2048, 128] [1, 1, 1, 1] : tensor<1x1x2048x128xf32> to tensor<1x1x2048x128xf32>
    %extracted_slice_819 = tensor.extract_slice %extracted_slice_818[0, 0, 0, 0] [1, 1, 40, 128] [1, 1, 1, 1] : tensor<1x1x2048x128xf32> to tensor<1x1x40x128xf32>
    %229 = tensor.empty() : tensor<1x40x128xf32>
    %230 = linalg.generic {indexing_maps = [#map8, #map1], iterator_types = ["parallel", "parallel", "parallel"]} ins(%extracted_slice_816 : tensor<1x1x40x128xf32>) outs(%229 : tensor<1x40x128xf32>) {
    ^bb0(%in: f32, %out: f32):
      linalg.yield %in : f32
    } -> tensor<1x40x128xf32>
    %231 = tensor.empty() : tensor<40x128xf32>
    %232 = linalg.generic {indexing_maps = [#map9, #map4], iterator_types = ["parallel", "parallel"]} ins(%230 : tensor<1x40x128xf32>) outs(%231 : tensor<40x128xf32>) {
    ^bb0(%in: f32, %out: f32):
      linalg.yield %in : f32
    } -> tensor<40x128xf32>
    %233 = tensor.empty() : tensor<1x40x128xf32>
    %234 = linalg.generic {indexing_maps = [#map8, #map1], iterator_types = ["parallel", "parallel", "parallel"]} ins(%extracted_slice_819 : tensor<1x1x40x128xf32>) outs(%233 : tensor<1x40x128xf32>) {
    ^bb0(%in: f32, %out: f32):
      linalg.yield %in : f32
    } -> tensor<1x40x128xf32>
    %235 = tensor.empty() : tensor<40x128xf32>
    %236 = linalg.generic {indexing_maps = [#map9, #map4], iterator_types = ["parallel", "parallel"]} ins(%234 : tensor<1x40x128xf32>) outs(%235 : tensor<40x128xf32>) {
    ^bb0(%in: f32, %out: f32):
      linalg.yield %in : f32
    } -> tensor<40x128xf32>
    %237 = tensor.empty() : tensor<1x40x128xf32>
    %238 = linalg.generic {indexing_maps = [#map, #map1], iterator_types = ["parallel", "parallel", "parallel"]} ins(%1 : tensor<1x40xi64>) outs(%237 : tensor<1x40x128xf32>) {
    ^bb0(%in: i64, %out: f32):
      %2947 = arith.index_cast %in : i64 to index
      %2948 = linalg.index 2 : index
      %extracted = tensor.extract %232[%2947, %2948] : tensor<40x128xf32>
      linalg.yield %extracted : f32
    } -> tensor<1x40x128xf32>
    %239 = tosa.reshape %238 {new_shape = array<i64: 1, 1, 40, 128>} : (tensor<1x40x128xf32>) -> tensor<1x1x40x128xf32>
    %240 = tensor.empty() : tensor<1x40x128xf32>
    %241 = linalg.generic {indexing_maps = [#map, #map1], iterator_types = ["parallel", "parallel", "parallel"]} ins(%1 : tensor<1x40xi64>) outs(%240 : tensor<1x40x128xf32>) {
    ^bb0(%in: i64, %out: f32):
      %2947 = arith.index_cast %in : i64 to index
      %2948 = linalg.index 2 : index
      %extracted = tensor.extract %236[%2947, %2948] : tensor<40x128xf32>
      linalg.yield %extracted : f32
    } -> tensor<1x40x128xf32>
    %242 = tosa.reshape %241 {new_shape = array<i64: 1, 1, 40, 128>} : (tensor<1x40x128xf32>) -> tensor<1x1x40x128xf32>
    %243 = tosa.mul %transposed_811, %239 {shift = 0 : i8} : (tensor<1x32x40x128xf32>, tensor<1x1x40x128xf32>) -> tensor<1x32x40x128xf32>
    %extracted_slice_820 = tensor.extract_slice %transposed_811[0, 0, 0, 0] [1, 32, 40, 64] [1, 1, 1, 1] : tensor<1x32x40x128xf32> to tensor<1x32x40x64xf32>
    %extracted_slice_821 = tensor.extract_slice %transposed_811[0, 0, 0, 64] [1, 32, 40, 64] [1, 1, 1, 1] : tensor<1x32x40x128xf32> to tensor<1x32x40x64xf32>
    %244 = tensor.empty() : tensor<1x32x40x64xf32>
    %245 = linalg.negf ins(%extracted_slice_821 : tensor<1x32x40x64xf32>) outs(%244 : tensor<1x32x40x64xf32>) -> tensor<1x32x40x64xf32>
    %246 = tensor.empty() : tensor<1x32x40x128xf32>
    %inserted_slice_822 = tensor.insert_slice %245 into %246[0, 0, 0, 0] [1, 32, 40, 64] [1, 1, 1, 1] : tensor<1x32x40x64xf32> into tensor<1x32x40x128xf32>
    %inserted_slice_823 = tensor.insert_slice %extracted_slice_820 into %inserted_slice_822[0, 0, 0, 64] [1, 32, 40, 64] [1, 1, 1, 1] : tensor<1x32x40x64xf32> into tensor<1x32x40x128xf32>
    %247 = tosa.mul %inserted_slice_823, %242 {shift = 0 : i8} : (tensor<1x32x40x128xf32>, tensor<1x1x40x128xf32>) -> tensor<1x32x40x128xf32>
    %248 = tosa.add %243, %247 : (tensor<1x32x40x128xf32>, tensor<1x32x40x128xf32>) -> tensor<1x32x40x128xf32>
    %249 = tosa.mul %transposed_812, %239 {shift = 0 : i8} : (tensor<1x32x40x128xf32>, tensor<1x1x40x128xf32>) -> tensor<1x32x40x128xf32>
    %extracted_slice_824 = tensor.extract_slice %transposed_812[0, 0, 0, 0] [1, 32, 40, 64] [1, 1, 1, 1] : tensor<1x32x40x128xf32> to tensor<1x32x40x64xf32>
    %extracted_slice_825 = tensor.extract_slice %transposed_812[0, 0, 0, 64] [1, 32, 40, 64] [1, 1, 1, 1] : tensor<1x32x40x128xf32> to tensor<1x32x40x64xf32>
    %250 = tensor.empty() : tensor<1x32x40x64xf32>
    %251 = linalg.negf ins(%extracted_slice_825 : tensor<1x32x40x64xf32>) outs(%250 : tensor<1x32x40x64xf32>) -> tensor<1x32x40x64xf32>
    %252 = tensor.empty() : tensor<1x32x40x128xf32>
    %inserted_slice_826 = tensor.insert_slice %251 into %252[0, 0, 0, 0] [1, 32, 40, 64] [1, 1, 1, 1] : tensor<1x32x40x64xf32> into tensor<1x32x40x128xf32>
    %inserted_slice_827 = tensor.insert_slice %extracted_slice_824 into %inserted_slice_826[0, 0, 0, 64] [1, 32, 40, 64] [1, 1, 1, 1] : tensor<1x32x40x64xf32> into tensor<1x32x40x128xf32>
    %253 = tosa.mul %inserted_slice_827, %242 {shift = 0 : i8} : (tensor<1x32x40x128xf32>, tensor<1x1x40x128xf32>) -> tensor<1x32x40x128xf32>
    %254 = tosa.add %249, %253 : (tensor<1x32x40x128xf32>, tensor<1x32x40x128xf32>) -> tensor<1x32x40x128xf32>
    %255 = tensor.empty() : tensor<1x32x128x40xf32>
    %transposed_828 = linalg.transpose ins(%254 : tensor<1x32x40x128xf32>) outs(%255 : tensor<1x32x128x40xf32>) permutation = [0, 1, 3, 2] 
    %256 = tosa.reshape %248 {new_shape = array<i64: 32, 40, 128>} : (tensor<1x32x40x128xf32>) -> tensor<32x40x128xf32>
    %257 = tosa.reshape %transposed_828 {new_shape = array<i64: 32, 128, 40>} : (tensor<1x32x128x40xf32>) -> tensor<32x128x40xf32>
    %cst_829 = arith.constant dense<0.000000e+00> : tensor<32x40x40xf32>
    %258 = linalg.batch_matmul ins(%256, %257 : tensor<32x40x128xf32>, tensor<32x128x40xf32>) outs(%cst_829 : tensor<32x40x40xf32>) -> tensor<32x40x40xf32>
    %259 = tosa.reshape %258 {new_shape = array<i64: 1, 32, 40, 40>} : (tensor<32x40x40xf32>) -> tensor<1x32x40x40xf32>
    %cst_830 = arith.constant dense<11.3137083> : tensor<1xf32>
    %260 = tosa.reciprocal %cst_830 : (tensor<1xf32>) -> tensor<1xf32>
    %261 = tosa.mul %259, %260 {shift = 0 : i8} : (tensor<1x32x40x40xf32>, tensor<1xf32>) -> tensor<1x32x40x40xf32>
    %262 = tosa.add %261, %23 : (tensor<1x32x40x40xf32>, tensor<1x1x40x40xf32>) -> tensor<1x32x40x40xf32>
    %cst_831 = arith.constant dense<0.000000e+00> : tensor<1x32x40x1xf32>
    %263 = linalg.generic {indexing_maps = [#map5, #map10], iterator_types = ["parallel", "parallel", "parallel", "reduction"]} ins(%262 : tensor<1x32x40x40xf32>) outs(%cst_831 : tensor<1x32x40x1xf32>) {
    ^bb0(%in: f32, %out: f32):
      %2947 = math.exp %in : f32
      %2948 = arith.addf %2947, %out : f32
      linalg.yield %2948 : f32
    } -> tensor<1x32x40x1xf32>
    %264 = tensor.empty() : tensor<1x32x40x40xf32>
    %265 = linalg.generic {indexing_maps = [#map5, #map10, #map5], iterator_types = ["parallel", "parallel", "parallel", "parallel"]} ins(%262, %263 : tensor<1x32x40x40xf32>, tensor<1x32x40x1xf32>) outs(%264 : tensor<1x32x40x40xf32>) {
    ^bb0(%in: f32, %in_1919: f32, %out: f32):
      %2947 = math.exp %in : f32
      %2948 = arith.divf %2947, %in_1919 : f32
      linalg.yield %2948 : f32
    } -> tensor<1x32x40x40xf32>
    %266 = tosa.reshape %265 {new_shape = array<i64: 32, 40, 40>} : (tensor<1x32x40x40xf32>) -> tensor<32x40x40xf32>
    %267 = tosa.reshape %transposed_813 {new_shape = array<i64: 32, 40, 128>} : (tensor<1x32x40x128xf32>) -> tensor<32x40x128xf32>
    %cst_832 = arith.constant dense<0.000000e+00> : tensor<32x40x128xf32>
    %268 = linalg.batch_matmul ins(%266, %267 : tensor<32x40x40xf32>, tensor<32x40x128xf32>) outs(%cst_832 : tensor<32x40x128xf32>) -> tensor<32x40x128xf32>
    %269 = tosa.reshape %268 {new_shape = array<i64: 1, 32, 40, 128>} : (tensor<32x40x128xf32>) -> tensor<1x32x40x128xf32>
    %270 = tensor.empty() : tensor<1x40x32x128xf32>
    %transposed_833 = linalg.transpose ins(%269 : tensor<1x32x40x128xf32>) outs(%270 : tensor<1x40x32x128xf32>) permutation = [0, 2, 1, 3] 
    %extracted_slice_834 = tensor.extract_slice %transposed_833[0, 0, 0, 0] [1, 40, 32, 128] [1, 1, 1, 1] : tensor<1x40x32x128xf32> to tensor<1x40x32x128xf32>
    %271 = tosa.reshape %extracted_slice_834 {new_shape = array<i64: 1, 40, 4096>} : (tensor<1x40x32x128xf32>) -> tensor<1x40x4096xf32>
    %272 = tosa.reshape %271 {new_shape = array<i64: 40, 4096>} : (tensor<1x40x4096xf32>) -> tensor<40x4096xf32>
    %cst_835 = arith.constant dense<0.000000e+00> : tensor<40x4096xf32>
    %273 = linalg.matmul_transpose_b {cast = #linalg.type_fn<cast_signed>} ins(%272, %expanded_100 : tensor<40x4096xf32>, tensor<4096x4096xf32>) outs(%cst_835 : tensor<40x4096xf32>) -> tensor<40x4096xf32>
    %274 = tosa.reshape %273 {new_shape = array<i64: 1, 40, 4096>} : (tensor<40x4096xf32>) -> tensor<1x40x4096xf32>
    %275 = tosa.add %205, %274 : (tensor<1x40x4096xf32>, tensor<1x40x4096xf32>) -> tensor<1x40x4096xf32>
    %276 = tensor.empty() : tensor<1x40x4096xf32>
    %c2_i32_836 = arith.constant 2 : i32
    %277 = linalg.generic {indexing_maps = [#map1, #map1], iterator_types = ["parallel", "parallel", "parallel"]} ins(%275 : tensor<1x40x4096xf32>) outs(%276 : tensor<1x40x4096xf32>) {
    ^bb0(%in: f32, %out: f32):
      %2947 = math.fpowi %in, %c2_i32_836 : f32, i32
      linalg.yield %2947 : f32
    } -> tensor<1x40x4096xf32>
    %cst_837 = arith.constant dense<0.000000e+00> : tensor<1x40x1xf32>
    %278 = linalg.generic {indexing_maps = [#map6, #map7], iterator_types = ["parallel", "parallel", "reduction", "parallel"]} ins(%277 : tensor<1x40x4096xf32>) outs(%cst_837 : tensor<1x40x1xf32>) {
    ^bb0(%in: f32, %out: f32):
      %cst_1919 = arith.constant 4.096000e+03 : f32
…
    %2696 = tosa.reshape %2695 {new_shape = array<i64: 1, 1, 40, 128>} : (tensor<1x40x128xf32>) -> tensor<1x1x40x128xf32>
    %2697 = tensor.empty() : tensor<1x40x128xf32>
    %2698 = linalg.generic {indexing_maps = [#map, #map1], iterator_types = ["parallel", "parallel", "parallel"]} ins(%1 : tensor<1x40xi64>) outs(%2697 : tensor<1x40x128xf32>) {
    ^bb0(%in: i64, %out: f32):
      %2947 = arith.index_cast %in : i64 to index
      %2948 = linalg.index 2 : index
      %extracted = tensor.extract %2693[%2947, %2948] : tensor<40x128xf32>
      linalg.yield %extracted : f32
    } -> tensor<1x40x128xf32>
    %2699 = tosa.reshape %2698 {new_shape = array<i64: 1, 1, 40, 128>} : (tensor<1x40x128xf32>) -> tensor<1x1x40x128xf32>
    %2700 = tosa.mul %transposed_1810, %2696 {shift = 0 : i8} : (tensor<1x32x40x128xf32>, tensor<1x1x40x128xf32>) -> tensor<1x32x40x128xf32>
    %extracted_slice_1819 = tensor.extract_slice %transposed_1810[0, 0, 0, 0] [1, 32, 40, 64] [1, 1, 1, 1] : tensor<1x32x40x128xf32> to tensor<1x32x40x64xf32>
    %extracted_slice_1820 = tensor.extract_slice %transposed_1810[0, 0, 0, 64] [1, 32, 40, 64] [1, 1, 1, 1] : tensor<1x32x40x128xf32> to tensor<1x32x40x64xf32>
    %2701 = tensor.empty() : tensor<1x32x40x64xf32>
    %2702 = linalg.negf ins(%extracted_slice_1820 : tensor<1x32x40x64xf32>) outs(%2701 : tensor<1x32x40x64xf32>) -> tensor<1x32x40x64xf32>
    %2703 = tensor.empty() : tensor<1x32x40x128xf32>
    %inserted_slice_1821 = tensor.insert_slice %2702 into %2703[0, 0, 0, 0] [1, 32, 40, 64] [1, 1, 1, 1] : tensor<1x32x40x64xf32> into tensor<1x32x40x128xf32>
    %inserted_slice_1822 = tensor.insert_slice %extracted_slice_1819 into %inserted_slice_1821[0, 0, 0, 64] [1, 32, 40, 64] [1, 1, 1, 1] : tensor<1x32x40x64xf32> into tensor<1x32x40x128xf32>
    %2704 = tosa.mul %inserted_slice_1822, %2699 {shift = 0 : i8} : (tensor<1x32x40x128xf32>, tensor<1x1x40x128xf32>) -> tensor<1x32x40x128xf32>
    %2705 = tosa.add %2700, %2704 : (tensor<1x32x40x128xf32>, tensor<1x32x40x128xf32>) -> tensor<1x32x40x128xf32>
    %2706 = tosa.mul %transposed_1811, %2696 {shift = 0 : i8} : (tensor<1x32x40x128xf32>, tensor<1x1x40x128xf32>) -> tensor<1x32x40x128xf32>
    %extracted_slice_1823 = tensor.extract_slice %transposed_1811[0, 0, 0, 0] [1, 32, 40, 64] [1, 1, 1, 1] : tensor<1x32x40x128xf32> to tensor<1x32x40x64xf32>
    %extracted_slice_1824 = tensor.extract_slice %transposed_1811[0, 0, 0, 64] [1, 32, 40, 64] [1, 1, 1, 1] : tensor<1x32x40x128xf32> to tensor<1x32x40x64xf32>
    %2707 = tensor.empty() : tensor<1x32x40x64xf32>
    %2708 = linalg.negf ins(%extracted_slice_1824 : tensor<1x32x40x64xf32>) outs(%2707 : tensor<1x32x40x64xf32>) -> tensor<1x32x40x64xf32>
    %2709 = tensor.empty() : tensor<1x32x40x128xf32>
    %inserted_slice_1825 = tensor.insert_slice %2708 into %2709[0, 0, 0, 0] [1, 32, 40, 64] [1, 1, 1, 1] : tensor<1x32x40x64xf32> into tensor<1x32x40x128xf32>
    %inserted_slice_1826 = tensor.insert_slice %extracted_slice_1823 into %inserted_slice_1825[0, 0, 0, 64] [1, 32, 40, 64] [1, 1, 1, 1] : tensor<1x32x40x64xf32> into tensor<1x32x40x128xf32>
    %2710 = tosa.mul %inserted_slice_1826, %2699 {shift = 0 : i8} : (tensor<1x32x40x128xf32>, tensor<1x1x40x128xf32>) -> tensor<1x32x40x128xf32>
    %2711 = tosa.add %2706, %2710 : (tensor<1x32x40x128xf32>, tensor<1x32x40x128xf32>) -> tensor<1x32x40x128xf32>
    %2712 = tensor.empty() : tensor<1x32x128x40xf32>
    %transposed_1827 = linalg.transpose ins(%2711 : tensor<1x32x40x128xf32>) outs(%2712 : tensor<1x32x128x40xf32>) permutation = [0, 1, 3, 2] 
    %2713 = tosa.reshape %2705 {new_shape = array<i64: 32, 40, 128>} : (tensor<1x32x40x128xf32>) -> tensor<32x40x128xf32>
    %2714 = tosa.reshape %transposed_1827 {new_shape = array<i64: 32, 128, 40>} : (tensor<1x32x128x40xf32>) -> tensor<32x128x40xf32>
    %cst_1828 = arith.constant dense<0.000000e+00> : tensor<32x40x40xf32>
    %2715 = linalg.batch_matmul ins(%2713, %2714 : tensor<32x40x128xf32>, tensor<32x128x40xf32>) outs(%cst_1828 : tensor<32x40x40xf32>) -> tensor<32x40x40xf32>
    %2716 = tosa.reshape %2715 {new_shape = array<i64: 1, 32, 40, 40>} : (tensor<32x40x40xf32>) -> tensor<1x32x40x40xf32>
    %cst_1829 = arith.constant dense<11.3137083> : tensor<1xf32>
    %2717 = tosa.reciprocal %cst_1829 : (tensor<1xf32>) -> tensor<1xf32>
    %2718 = tosa.mul %2716, %2717 {shift = 0 : i8} : (tensor<1x32x40x40xf32>, tensor<1xf32>) -> tensor<1x32x40x40xf32>
    %2719 = tosa.add %2718, %23 : (tensor<1x32x40x40xf32>, tensor<1x1x40x40xf32>) -> tensor<1x32x40x40xf32>
    %cst_1830 = arith.constant dense<0.000000e+00> : tensor<1x32x40x1xf32>
    %2720 = linalg.generic {indexing_maps = [#map5, #map10], iterator_types = ["parallel", "parallel", "parallel", "reduction"]} ins(%2719 : tensor<1x32x40x40xf32>) outs(%cst_1830 : tensor<1x32x40x1xf32>) {
    ^bb0(%in: f32, %out: f32):
      %2947 = math.exp %in : f32
      %2948 = arith.addf %2947, %out : f32
      linalg.yield %2948 : f32
    } -> tensor<1x32x40x1xf32>
    %2721 = tensor.empty() : tensor<1x32x40x40xf32>
    %2722 = linalg.generic {indexing_maps = [#map5, #map10, #map5], iterator_types = ["parallel", "parallel", "parallel", "parallel"]} ins(%2719, %2720 : tensor<1x32x40x40xf32>, tensor<1x32x40x1xf32>) outs(%2721 : tensor<1x32x40x40xf32>) {
    ^bb0(%in: f32, %in_1919: f32, %out: f32):
      %2947 = math.exp %in : f32
      %2948 = arith.divf %2947, %in_1919 : f32
      linalg.yield %2948 : f32
    } -> tensor<1x32x40x40xf32>
    %2723 = tosa.reshape %2722 {new_shape = array<i64: 32, 40, 40>} : (tensor<1x32x40x40xf32>) -> tensor<32x40x40xf32>
    %2724 = tosa.reshape %transposed_1812 {new_shape = array<i64: 32, 40, 128>} : (tensor<1x32x40x128xf32>) -> tensor<32x40x128xf32>
    %cst_1831 = arith.constant dense<0.000000e+00> : tensor<32x40x128xf32>
    %2725 = linalg.batch_matmul ins(%2723, %2724 : tensor<32x40x40xf32>, tensor<32x40x128xf32>) outs(%cst_1831 : tensor<32x40x128xf32>) -> tensor<32x40x128xf32>
    %2726 = tosa.reshape %2725 {new_shape = array<i64: 1, 32, 40, 128>} : (tensor<32x40x128xf32>) -> tensor<1x32x40x128xf32>
    %2727 = tensor.empty() : tensor<1x40x32x128xf32>
    %transposed_1832 = linalg.transpose ins(%2726 : tensor<1x32x40x128xf32>) outs(%2727 : tensor<1x40x32x128xf32>) permutation = [0, 2, 1, 3] 
    %extracted_slice_1833 = tensor.extract_slice %transposed_1832[0, 0, 0, 0] [1, 40, 32, 128] [1, 1, 1, 1] : tensor<1x40x32x128xf32> to tensor<1x40x32x128xf32>
    %2728 = tosa.reshape %extracted_slice_1833 {new_shape = array<i64: 1, 40, 4096>} : (tensor<1x40x32x128xf32>) -> tensor<1x40x4096xf32>
    %2729 = tosa.reshape %2728 {new_shape = array<i64: 40, 4096>} : (tensor<1x40x4096xf32>) -> tensor<40x4096xf32>
    %cst_1834 = arith.constant dense<0.000000e+00> : tensor<40x4096xf32>
    %2730 = linalg.matmul_transpose_b {cast = #linalg.type_fn<cast_signed>} ins(%2729, %expanded_478 : tensor<40x4096xf32>, tensor<4096x4096xf32>) outs(%cst_1834 : tensor<40x4096xf32>) -> tensor<40x4096xf32>
    %2731 = tosa.reshape %2730 {new_shape = array<i64: 1, 40, 4096>} : (tensor<40x4096xf32>) -> tensor<1x40x4096xf32>
    %2732 = tosa.add %2662, %2731 : (tensor<1x40x4096xf32>, tensor<1x40x4096xf32>) -> tensor<1x40x4096xf32>
    %2733 = tensor.empty() : tensor<1x40x4096xf32>
    %c2_i32_1835 = arith.constant 2 : i32
    %2734 = linalg.generic {indexing_maps = [#map1, #map1], iterator_types = ["parallel", "parallel", "parallel"]} ins(%2732 : tensor<1x40x4096xf32>) outs(%2733 : tensor<1x40x4096xf32>) {
    ^bb0(%in: f32, %out: f32):
      %2947 = math.fpowi %in, %c2_i32_1835 : f32, i32
      linalg.yield %2947 : f32
    } -> tensor<1x40x4096xf32>
    %cst_1836 = arith.constant dense<0.000000e+00> : tensor<1x40x1xf32>
    %2735 = linalg.generic {indexing_maps = [#map6, #map7], iterator_types = ["parallel", "parallel", "reduction", "parallel"]} ins(%2734 : tensor<1x40x4096xf32>) outs(%cst_1836 : tensor<1x40x1xf32>) {
    ^bb0(%in: f32, %out: f32):
      %cst_1919 = arith.constant 4.096000e+03 : f32
      %2947 = arith.divf %in, %cst_1919 : f32
      %2948 = arith.addf %2947, %out : f32
      linalg.yield %2948 : f32
    } -> tensor<1x40x1xf32>
    %cst_1837 = arith.constant dense<9.99999997E-7> : tensor<1xf32>
    %2736 = tosa.add %2735, %cst_1837 : (tensor<1x40x1xf32>, tensor<1xf32>) -> tensor<1x40x1xf32>
    %2737 = tensor.empty() : tensor<1x40x1xf32>
    %2738 = linalg.generic {indexing_maps = [#map1, #map1], iterator_types = ["parallel", "parallel", "parallel"]} ins(%2736 : tensor<1x40x1xf32>) outs(%2737 : tensor<1x40x1xf32>) {
    ^bb0(%in: f32, %out: f32):
      %2947 = math.rsqrt %in : f32
      linalg.yield %2947 : f32
    } -> tensor<1x40x1xf32>
    %2739 = tosa.mul %2732, %2738 {shift = 0 : i8} : (tensor<1x40x4096xf32>, tensor<1x40x1xf32>) -> tensor<1x40x4096xf32>
    %2740 = tosa.mul %extracted_slice_58, %2739 {shift = 0 : i8} : (tensor<4096xf32>, tensor<1x40x4096xf32>) -> tensor<1x40x4096xf32>
    %2741 = tosa.reshape %2740 {new_shape = array<i64: 40, 4096>} : (tensor<1x40x4096xf32>) -> tensor<40x4096xf32>
    %cst_1838 = arith.constant dense<0.000000e+00> : tensor<40x11008xf32>
    %2742 = linalg.matmul_transpose_b {cast = #linalg.type_fn<cast_signed>} ins(%2741, %expanded_480 : tensor<40x4096xf32>, tensor<11008x4096xf32>) outs(%cst_1838 : tensor<40x11008xf32>) -> tensor<40x11008xf32>
    %2743 = tosa.reshape %2742 {new_shape = array<i64: 1, 40, 11008>} : (tensor<40x11008xf32>) -> tensor<1x40x11008xf32>
    %2744 = tensor.empty() : tensor<1x40x11008xf32>
    %2745 = linalg.generic {indexing_maps = [#map1, #map1], iterator_types = ["parallel", "parallel", "parallel"]} ins(%2743 : tensor<1x40x11008xf32>) outs(%2744 : tensor<1x40x11008xf32>) {
    ^bb0(%in: f32, %out: f32):
      %2947 = arith.negf %in : f32
      %2948 = math.exp %2947 : f32
      %cst_1919 = arith.constant 1.000000e+00 : f32
      %2949 = arith.addf %cst_1919, %2948 : f32
      %2950 = arith.divf %in, %2949 : f32
      linalg.yield %2950 : f32
    } -> tensor<1x40x11008xf32>
    %2746 = tosa.reshape %2740 {new_shape = array<i64: 40, 4096>} : (tensor<1x40x4096xf32>) -> tensor<40x4096xf32>
    %cst_1839 = arith.constant dense<0.000000e+00> : tensor<40x11008xf32>
    %2747 = linalg.matmul_transpose_b {cast = #linalg.type_fn<cast_signed>} ins(%2746, %expanded_482 : tensor<40x4096xf32>, tensor<11008x4096xf32>) outs(%cst_1839 : tensor<40x11008xf32>) -> tensor<40x11008xf32>
    %2748 = tosa.reshape %2747 {new_shape = array<i64: 1, 40, 11008>} : (tensor<40x11008xf32>) -> tensor<1x40x11008xf32>
    %2749 = tosa.mul %2745, %2748 {shift = 0 : i8} : (tensor<1x40x11008xf32>, tensor<1x40x11008xf32>) -> tensor<1x40x11008xf32>
    %2750 = tosa.reshape %2749 {new_shape = array<i64: 40, 11008>} : (tensor<1x40x11008xf32>) -> tensor<40x11008xf32>
    %cst_1840 = arith.constant dense<0.000000e+00> : tensor<40x4096xf32>
    %2751 = linalg.matmul_transpose_b {cast = #linalg.type_fn<cast_signed>} ins(%2750, %expanded_484 : tensor<40x11008xf32>, tensor<4096x11008xf32>) outs(%cst_1840 : tensor<40x4096xf32>) -> tensor<40x4096xf32>
    %2752 = tosa.reshape %2751 {new_shape = array<i64: 1, 40, 4096>} : (tensor<40x4096xf32>) -> tensor<1x40x4096xf32>
    %2753 = tosa.add %2732, %2752 : (tensor<1x40x4096xf32>, tensor<1x40x4096xf32>) -> tensor<1x40x4096xf32>
    %2754 = tensor.empty() : tensor<1x40x4096xf32>
    %c2_i32_1841 = arith.constant 2 : i32
    %2755 = linalg.generic {indexing_maps = [#map1, #map1], iterator_types = ["parallel", "parallel", "parallel"]} ins(%2753 : tensor<1x40x4096xf32>) outs(%2754 : tensor<1x40x4096xf32>) {
    ^bb0(%in: f32, %out: f32):
      %2947 = math.fpowi %in, %c2_i32_1841 : f32, i32
      linalg.yield %2947 : f32
    } -> tensor<1x40x4096xf32>
    %cst_1842 = arith.constant dense<0.000000e+00> : tensor<1x40x1xf32>
    %2756 = linalg.generic {indexing_maps = [#map6, #map7], iterator_types = ["parallel", "parallel", "reduction", "parallel"]} ins(%2755 : tensor<1x40x4096xf32>) outs(%cst_1842 : tensor<1x40x1xf32>) {
    ^bb0(%in: f32, %out: f32):
      %cst_1919 = arith.constant 4.096000e+03 : f32
      %2947 = arith.divf %in, %cst_1919 : f32
      %2948 = arith.addf %2947, %out : f32
      linalg.yield %2948 : f32
    } -> tensor<1x40x1xf32>
    %cst_1843 = arith.constant dense<9.99999997E-7> : tensor<1xf32>
    %2757 = tosa.add %2756, %cst_1843 : (tensor<1x40x1xf32>, tensor<1xf32>) -> tensor<1x40x1xf32>
    %2758 = tensor.empty() : tensor<1x40x1xf32>
    %2759 = linalg.generic {indexing_maps = [#map1, #map1], iterator_types = ["parallel", "parallel", "parallel"]} ins(%2757 : tensor<1x40x1xf32>) outs(%2758 : tensor<1x40x1xf32>) {
    ^bb0(%in: f32, %out: f32):
      %2947 = math.rsqrt %in : f32
      linalg.yield %2947 : f32
    } -> tensor<1x40x1xf32>
    %2760 = tosa.mul %2753, %2759 {shift = 0 : i8} : (tensor<1x40x4096xf32>, tensor<1x40x1xf32>) -> tensor<1x40x4096xf32>
    %2761 = tosa.mul %extracted_slice_59, %2760 {shift = 0 : i8} : (tensor<4096xf32>, tensor<1x40x4096xf32>) -> tensor<1x40x4096xf32>
    %2762 = tosa.reshape %2761 {new_shape = array<i64: 40, 4096>} : (tensor<1x40x4096xf32>) -> tensor<40x4096xf32>
    %cst_1844 = arith.constant dense<0.000000e+00> : tensor<40x4096xf32>
    %2763 = linalg.matmul_transpose_b {cast = #linalg.type_fn<cast_signed>} ins(%2762, %expanded_486 : tensor<40x4096xf32>, tensor<4096x4096xf32>) outs(%cst_1844 : tensor<40x4096xf32>) -> tensor<40x4096xf32>
    %2764 = tosa.reshape %2763 {new_shape = array<i64: 1, 40, 4096>} : (tensor<40x4096xf32>) -> tensor<1x40x4096xf32>
    %2765 = tosa.reshape %2761 {new_shape = array<i64: 40, 4096>} : (tensor<1x40x4096xf32>) -> tensor<40x4096xf32>
    %cst_1845 = arith.constant dense<0.000000e+00> : tensor<40x4096xf32>
    %2766 = linalg.matmul_transpose_b {cast = #linalg.type_fn<cast_signed>} ins(%2765, %expanded_488 : tensor<40x4096xf32>, tensor<4096x4096xf32>) outs(%cst_1845 : tensor<40x4096xf32>) -> tensor<40x4096xf32>
    %2767 = tosa.reshape %2766 {new_shape = array<i64: 1, 40, 4096>} : (tensor<40x4096xf32>) -> tensor<1x40x4096xf32>
    %2768 = tosa.reshape %2761 {new_shape = array<i64: 40, 4096>} : (tensor<1x40x4096xf32>) -> tensor<40x4096xf32>
    %cst_1846 = arith.constant dense<0.000000e+00> : tensor<40x4096xf32>
    %2769 = linalg.matmul_transpose_b {cast = #linalg.type_fn<cast_signed>} ins(%2768, %expanded_490 : tensor<40x4096xf32>, tensor<4096x4096xf32>) outs(%cst_1846 : tensor<40x4096xf32>) -> tensor<40x4096xf32>
    %2770 = tosa.reshape %2769 {new_shape = array<i64: 1, 40, 4096>} : (tensor<40x4096xf32>) -> tensor<1x40x4096xf32>
    %2771 = tosa.reshape %2764 {new_shape = array<i64: 1, 40, 32, 128>} : (tensor<1x40x4096xf32>) -> tensor<1x40x32x128xf32>
    %2772 = tensor.empty() : tensor<1x32x40x128xf32>
    %transposed_1847 = linalg.transpose ins(%2771 : tensor<1x40x32x128xf32>) outs(%2772 : tensor<1x32x40x128xf32>) permutation = [0, 2, 1, 3] 
    %2773 = tosa.reshape %2767 {new_shape = array<i64: 1, 40, 32, 128>} : (tensor<1x40x4096xf32>) -> tensor<1x40x32x128xf32>
    %2774 = tensor.empty() : tensor<1x32x40x128xf32>
    %transposed_1848 = linalg.transpose ins(%2773 : tensor<1x40x32x128xf32>) outs(%2774 : tensor<1x32x40x128xf32>) permutation = [0, 2, 1, 3] 
    %2775 = tosa.reshape %2770 {new_shape = array<i64: 1, 40, 32, 128>} : (tensor<1x40x4096xf32>) -> tensor<1x40x32x128xf32>
    %2776 = tensor.empty() : tensor<1x32x40x128xf32>
    %transposed_1849 = linalg.transpose ins(%2775 : tensor<1x40x32x128xf32>) outs(%2776 : tensor<1x32x40x128xf32>) permutation = [0, 2, 1, 3] 
    %extracted_slice_1850 = tensor.extract_slice %expanded_636[0, 0, 0, 0] [1, 1, 2048, 128] [1, 1, 1, 1] : tensor<1x1x2048x128xf32> to tensor<1x1x2048x128xf32>
    %extracted_slice_1851 = tensor.extract_slice %extracted_slice_1850[0, 0, 0, 0] [1, 1, 2048, 128] [1, 1, 1, 1] : tensor<1x1x2048x128xf32> to tensor<1x1x2048x128xf32>
    %extracted_slice_1852 = tensor.extract_slice %extracted_slice_1851[0, 0, 0, 0] [1, 1, 40, 128] [1, 1, 1, 1] : tensor<1x1x2048x128xf32> to tensor<1x1x40x128xf32>
    %extracted_slice_1853 = tensor.extract_slice %expanded_638[0, 0, 0, 0] [1, 1, 2048, 128] [1, 1, 1, 1] : tensor<1x1x2048x128xf32> to tensor<1x1x2048x128xf32>
    %extracted_slice_1854 = tensor.extract_slice %extracted_slice_1853[0, 0, 0, 0] [1, 1, 2048, 128] [1, 1, 1, 1] : tensor<1x1x2048x128xf32> to tensor<1x1x2048x128xf32>
    %extracted_slice_1855 = tensor.extract_slice %extracted_slice_1854[0, 0, 0, 0] [1, 1, 40, 128] [1, 1, 1, 1] : tensor<1x1x2048x128xf32> to tensor<1x1x40x128xf32>
    %2777 = tensor.empty() : tensor<1x40x128xf32>
    %2778 = linalg.generic {indexing_maps = [#map8, #map1], iterator_types = ["parallel", "parallel", "parallel"]} ins(%extracted_slice_1852 : tensor<1x1x40x128xf32>) outs(%2777 : tensor<1x40x128xf32>) {
    ^bb0(%in: f32, %out: f32):
      linalg.yield %in : f32
    } -> tensor<1x40x128xf32>
    %2779 = tensor.empty() : tensor<40x128xf32>
    %2780 = linalg.generic {indexing_maps = [#map9, #map4], iterator_types = ["parallel", "parallel"]} ins(%2778 : tensor<1x40x128xf32>) outs(%2779 : tensor<40x128xf32>) {
    ^bb0(%in: f32, %out: f32):
      linalg.yield %in : f32
    } -> tensor<40x128xf32>
    %2781 = tensor.empty() : tensor<1x40x128xf32>
    %2782 = linalg.generic {indexing_maps = [#map8, #map1], iterator_types = ["parallel", "parallel", "parallel"]} ins(%extracted_slice_1855 : tensor<1x1x40x128xf32>) outs(%2781 : tensor<1x40x128xf32>) {
    ^bb0(%in: f32, %out: f32):
      linalg.yield %in : f32
    } -> tensor<1x40x128xf32>
    %2783 = tensor.empty() : tensor<40x128xf32>
    %2784 = linalg.generic {indexing_maps = [#map9, #map4], iterator_types = ["parallel", "parallel"]} ins(%2782 : tensor<1x40x128xf32>) outs(%2783 : tensor<40x128xf32>) {
    ^bb0(%in: f32, %out: f32):
      linalg.yield %in : f32
    } -> tensor<40x128xf32>
    %2785 = tensor.empty() : tensor<1x40x128xf32>
    %2786 = linalg.generic {indexing_maps = [#map, #map1], iterator_types = ["parallel", "parallel", "parallel"]} ins(%1 : tensor<1x40xi64>) outs(%2785 : tensor<1x40x128xf32>) {
    ^bb0(%in: i64, %out: f32):
      %2947 = arith.index_cast %in : i64 to index
      %2948 = linalg.index 2 : index
      %extracted = tensor.extract %2780[%2947, %2948] : tensor<40x128xf32>
      linalg.yield %extracted : f32
    } -> tensor<1x40x128xf32>
    %2787 = tosa.reshape %2786 {new_shape = array<i64: 1, 1, 40, 128>} : (tensor<1x40x128xf32>) -> tensor<1x1x40x128xf32>
    %2788 = tensor.empty() : tensor<1x40x128xf32>
    %2789 = linalg.generic {indexing_maps = [#map, #map1], iterator_types = ["parallel", "parallel", "parallel"]} ins(%1 : tensor<1x40xi64>) outs(%2788 : tensor<1x40x128xf32>) {
    ^bb0(%in: i64, %out: f32):
      %2947 = arith.index_cast %in : i64 to index
      %2948 = linalg.index 2 : index
      %extracted = tensor.extract %2784[%2947, %2948] : tensor<40x128xf32>
      linalg.yield %extracted : f32
    } -> tensor<1x40x128xf32>
    %2790 = tosa.reshape %2789 {new_shape = array<i64: 1, 1, 40, 128>} : (tensor<1x40x128xf32>) -> tensor<1x1x40x128xf32>
    %2791 = tosa.mul %transposed_1847, %2787 {shift = 0 : i8} : (tensor<1x32x40x128xf32>, tensor<1x1x40x128xf32>) -> tensor<1x32x40x128xf32>
    %extracted_slice_1856 = tensor.extract_slice %transposed_1847[0, 0, 0, 0] [1, 32, 40, 64] [1, 1, 1, 1] : tensor<1x32x40x128xf32> to tensor<1x32x40x64xf32>
    %extracted_slice_1857 = tensor.extract_slice %transposed_1847[0, 0, 0, 64] [1, 32, 40, 64] [1, 1, 1, 1] : tensor<1x32x40x128xf32> to tensor<1x32x40x64xf32>
    %2792 = tensor.empty() : tensor<1x32x40x64xf32>
    %2793 = linalg.negf ins(%extracted_slice_1857 : tensor<1x32x40x64xf32>) outs(%2792 : tensor<1x32x40x64xf32>) -> tensor<1x32x40x64xf32>
    %2794 = tensor.empty() : tensor<1x32x40x128xf32>
    %inserted_slice_1858 = tensor.insert_slice %2793 into %2794[0, 0, 0, 0] [1, 32, 40, 64] [1, 1, 1, 1] : tensor<1x32x40x64xf32> into tensor<1x32x40x128xf32>
    %inserted_slice_1859 = tensor.insert_slice %extracted_slice_1856 into %inserted_slice_1858[0, 0, 0, 64] [1, 32, 40, 64] [1, 1, 1, 1] : tensor<1x32x40x64xf32> into tensor<1x32x40x128xf32>
    %2795 = tosa.mul %inserted_slice_1859, %2790 {shift = 0 : i8} : (tensor<1x32x40x128xf32>, tensor<1x1x40x128xf32>) -> tensor<1x32x40x128xf32>
    %2796 = tosa.add %2791, %2795 : (tensor<1x32x40x128xf32>, tensor<1x32x40x128xf32>) -> tensor<1x32x40x128xf32>
    %2797 = tosa.mul %transposed_1848, %2787 {shift = 0 : i8} : (tensor<1x32x40x128xf32>, tensor<1x1x40x128xf32>) -> tensor<1x32x40x128xf32>
    %extracted_slice_1860 = tensor.extract_slice %transposed_1848[0, 0, 0, 0] [1, 32, 40, 64] [1, 1, 1, 1] : tensor<1x32x40x128xf32> to tensor<1x32x40x64xf32>
    %extracted_slice_1861 = tensor.extract_slice %transposed_1848[0, 0, 0, 64] [1, 32, 40, 64] [1, 1, 1, 1] : tensor<1x32x40x128xf32> to tensor<1x32x40x64xf32>
    %2798 = tensor.empty() : tensor<1x32x40x64xf32>
    %2799 = linalg.negf ins(%extracted_slice_1861 : tensor<1x32x40x64xf32>) outs(%2798 : tensor<1x32x40x64xf32>) -> tensor<1x32x40x64xf32>
    %2800 = tensor.empty() : tensor<1x32x40x128xf32>
    %inserted_slice_1862 = tensor.insert_slice %2799 into %2800[0, 0, 0, 0] [1, 32, 40, 64] [1, 1, 1, 1] : tensor<1x32x40x64xf32> into tensor<1x32x40x128xf32>
    %inserted_slice_1863 = tensor.insert_slice %extracted_slice_1860 into %inserted_slice_1862[0, 0, 0, 64] [1, 32, 40, 64] [1, 1, 1, 1] : tensor<1x32x40x64xf32> into tensor<1x32x40x128xf32>
    %2801 = tosa.mul %inserted_slice_1863, %2790 {shift = 0 : i8} : (tensor<1x32x40x128xf32>, tensor<1x1x40x128xf32>) -> tensor<1x32x40x128xf32>
    %2802 = tosa.add %2797, %2801 : (tensor<1x32x40x128xf32>, tensor<1x32x40x128xf32>) -> tensor<1x32x40x128xf32>
    %2803 = tensor.empty() : tensor<1x32x128x40xf32>
    %transposed_1864 = linalg.transpose ins(%2802 : tensor<1x32x40x128xf32>) outs(%2803 : tensor<1x32x128x40xf32>) permutation = [0, 1, 3, 2] 
    %2804 = tosa.reshape %2796 {new_shape = array<i64: 32, 40, 128>} : (tensor<1x32x40x128xf32>) -> tensor<32x40x128xf32>
    %2805 = tosa.reshape %transposed_1864 {new_shape = array<i64: 32, 128, 40>} : (tensor<1x32x128x40xf32>) -> tensor<32x128x40xf32>
    %cst_1865 = arith.constant dense<0.000000e+00> : tensor<32x40x40xf32>
    %2806 = linalg.batch_matmul ins(%2804, %2805 : tensor<32x40x128xf32>, tensor<32x128x40xf32>) outs(%cst_1865 : tensor<32x40x40xf32>) -> tensor<32x40x40xf32>
    %2807 = tosa.reshape %2806 {new_shape = array<i64: 1, 32, 40, 40>} : (tensor<32x40x40xf32>) -> tensor<1x32x40x40xf32>
    %cst_1866 = arith.constant dense<11.3137083> : tensor<1xf32>
    %2808 = tosa.reciprocal %cst_1866 : (tensor<1xf32>) -> tensor<1xf32>
    %2809 = tosa.mul %2807, %2808 {shift = 0 : i8} : (tensor<1x32x40x40xf32>, tensor<1xf32>) -> tensor<1x32x40x40xf32>
    %2810 = tosa.add %2809, %23 : (tensor<1x32x40x40xf32>, tensor<1x1x40x40xf32>) -> tensor<1x32x40x40xf32>
    %cst_1867 = arith.constant dense<0.000000e+00> : tensor<1x32x40x1xf32>
    %2811 = linalg.generic {indexing_maps = [#map5, #map10], iterator_types = ["parallel", "parallel", "parallel", "reduction"]} ins(%2810 : tensor<1x32x40x40xf32>) outs(%cst_1867 : tensor<1x32x40x1xf32>) {
    ^bb0(%in: f32, %out: f32):
      %2947 = math.exp %in : f32
      %2948 = arith.addf %2947, %out : f32
      linalg.yield %2948 : f32
    } -> tensor<1x32x40x1xf32>
    %2812 = tensor.empty() : tensor<1x32x40x40xf32>
    %2813 = linalg.generic {indexing_maps = [#map5, #map10, #map5], iterator_types = ["parallel", "parallel", "parallel", "parallel"]} ins(%2810, %2811 : tensor<1x32x40x40xf32>, tensor<1x32x40x1xf32>) outs(%2812 : tensor<1x32x40x40xf32>) {
    ^bb0(%in: f32, %in_1919: f32, %out: f32):
      %2947 = math.exp %in : f32
      %2948 = arith.divf %2947, %in_1919 : f32
      linalg.yield %2948 : f32
    } -> tensor<1x32x40x40xf32>
    %2814 = tosa.reshape %2813 {new_shape = array<i64: 32, 40, 40>} : (tensor<1x32x40x40xf32>) -> tensor<32x40x40xf32>
    %2815 = tosa.reshape %transposed_1849 {new_shape = array<i64: 32, 40, 128>} : (tensor<1x32x40x128xf32>) -> tensor<32x40x128xf32>
    %cst_1868 = arith.constant dense<0.000000e+00> : tensor<32x40x128xf32>
    %2816 = linalg.batch_matmul ins(%2814, %2815 : tensor<32x40x40xf32>, tensor<32x40x128xf32>) outs(%cst_1868 : tensor<32x40x128xf32>) -> tensor<32x40x128xf32>
    %2817 = tosa.reshape %2816 {new_shape = array<i64: 1, 32, 40, 128>} : (tensor<32x40x128xf32>) -> tensor<1x32x40x128xf32>
    %2818 = tensor.empty() : tensor<1x40x32x128xf32>
    %transposed_1869 = linalg.transpose ins(%2817 : tensor<1x32x40x128xf32>) outs(%2818 : tensor<1x40x32x128xf32>) permutation = [0, 2, 1, 3] 
    %extracted_slice_1870 = tensor.extract_slice %transposed_1869[0, 0, 0, 0] [1, 40, 32, 128] [1, 1, 1, 1] : tensor<1x40x32x128xf32> to tensor<1x40x32x128xf32>
    %2819 = tosa.reshape %extracted_slice_1870 {new_shape = array<i64: 1, 40, 4096>} : (tensor<1x40x32x128xf32>) -> tensor<1x40x4096xf32>
    %2820 = tosa.reshape %2819 {new_shape = array<i64: 40, 4096>} : (tensor<1x40x4096xf32>) -> tensor<40x4096xf32>
    %cst_1871 = arith.constant dense<0.000000e+00> : tensor<40x4096xf32>
    %2821 = linalg.matmul_transpose_b {cast = #linalg.type_fn<cast_signed>} ins(%2820, %expanded_492 : tensor<40x4096xf32>, tensor<4096x4096xf32>) outs(%cst_1871 : tensor<40x4096xf32>) -> tensor<40x4096xf32>
    %2822 = tosa.reshape %2821 {new_shape = array<i64: 1, 40, 4096>} : (tensor<40x4096xf32>) -> tensor<1x40x4096xf32>
    %2823 = tosa.add %2753, %2822 : (tensor<1x40x4096xf32>, tensor<1x40x4096xf32>) -> tensor<1x40x4096xf32>
    %2824 = tensor.empty() : tensor<1x40x4096xf32>
    %c2_i32_1872 = arith.constant 2 : i32
    %2825 = linalg.generic {indexing_maps = [#map1, #map1], iterator_types = ["parallel", "parallel", "parallel"]} ins(%2823 : tensor<1x40x4096xf32>) outs(%2824 : tensor<1x40x4096xf32>) {
    ^bb0(%in: f32, %out: f32):
      %2947 = math.fpowi %in, %c2_i32_1872 : f32, i32
      linalg.yield %2947 : f32
    } -> tensor<1x40x4096xf32>
    %cst_1873 = arith.constant dense<0.000000e+00> : tensor<1x40x1xf32>
    %2826 = linalg.generic {indexing_maps = [#map6, #map7], iterator_types = ["parallel", "parallel", "reduction", "parallel"]} ins(%2825 : tensor<1x40x4096xf32>) outs(%cst_1873 : tensor<1x40x1xf32>) {
    ^bb0(%in: f32, %out: f32):
      %cst_1919 = arith.constant 4.096000e+03 : f32
      %2947 = arith.divf %in, %cst_1919 : f32
      %2948 = arith.addf %2947, %out : f32
      linalg.yield %2948 : f32
    } -> tensor<1x40x1xf32>
    %cst_1874 = arith.constant dense<9.99999997E-7> : tensor<1xf32>
    %2827 = tosa.add %2826, %cst_1874 : (tensor<1x40x1xf32>, tensor<1xf32>) -> tensor<1x40x1xf32>
    %2828 = tensor.empty() : tensor<1x40x1xf32>
    %2829 = linalg.generic {indexing_maps = [#map1, #map1], iterator_types = ["parallel", "parallel", "parallel"]} ins(%2827 : tensor<1x40x1xf32>) outs(%2828 : tensor<1x40x1xf32>) {
    ^bb0(%in: f32, %out: f32):
      %2947 = math.rsqrt %in : f32
      linalg.yield %2947 : f32
    } -> tensor<1x40x1xf32>
    %2830 = tosa.mul %2823, %2829 {shift = 0 : i8} : (tensor<1x40x4096xf32>, tensor<1x40x1xf32>) -> tensor<1x40x4096xf32>
    %2831 = tosa.mul %extracted_slice_60, %2830 {shift = 0 : i8} : (tensor<4096xf32>, tensor<1x40x4096xf32>) -> tensor<1x40x4096xf32>
    %2832 = tosa.reshape %2831 {new_shape = array<i64: 40, 4096>} : (tensor<1x40x4096xf32>) -> tensor<40x4096xf32>
    %cst_1875 = arith.constant dense<0.000000e+00> : tensor<40x11008xf32>
    %2833 = linalg.matmul_transpose_b {cast = #linalg.type_fn<cast_signed>} ins(%2832, %expanded_494 : tensor<40x4096xf32>, tensor<11008x4096xf32>) outs(%cst_1875 : tensor<40x11008xf32>) -> tensor<40x11008xf32>
    %2834 = tosa.reshape %2833 {new_shape = array<i64: 1, 40, 11008>} : (tensor<40x11008xf32>) -> tensor<1x40x11008xf32>
    %2835 = tensor.empty() : tensor<1x40x11008xf32>
    %2836 = linalg.generic {indexing_maps = [#map1, #map1], iterator_types = ["parallel", "parallel", "parallel"]} ins(%2834 : tensor<1x40x11008xf32>) outs(%2835 : tensor<1x40x11008xf32>) {
    ^bb0(%in: f32, %out: f32):
      %2947 = arith.negf %in : f32
      %2948 = math.exp %2947 : f32
      %cst_1919 = arith.constant 1.000000e+00 : f32
      %2949 = arith.addf %cst_1919, %2948 : f32
      %2950 = arith.divf %in, %2949 : f32
      linalg.yield %2950 : f32
    } -> tensor<1x40x11008xf32>
    %2837 = tosa.reshape %2831 {new_shape = array<i64: 40, 4096>} : (tensor<1x40x4096xf32>) -> tensor<40x4096xf32>
    %cst_1876 = arith.constant dense<0.000000e+00> : tensor<40x11008xf32>
    %2838 = linalg.matmul_transpose_b {cast = #linalg.type_fn<cast_signed>} ins(%2837, %expanded_496 : tensor<40x4096xf32>, tensor<11008x4096xf32>) outs(%cst_1876 : tensor<40x11008xf32>) -> tensor<40x11008xf32>
    %2839 = tosa.reshape %2838 {new_shape = array<i64: 1, 40, 11008>} : (tensor<40x11008xf32>) -> tensor<1x40x11008xf32>
    %2840 = tosa.mul %2836, %2839 {shift = 0 : i8} : (tensor<1x40x11008xf32>, tensor<1x40x11008xf32>) -> tensor<1x40x11008xf32>
    %2841 = tosa.reshape %2840 {new_shape = array<i64: 40, 11008>} : (tensor<1x40x11008xf32>) -> tensor<40x11008xf32>
    %cst_1877 = arith.constant dense<0.000000e+00> : tensor<40x4096xf32>
    %2842 = linalg.matmul_transpose_b {cast = #linalg.type_fn<cast_signed>} ins(%2841, %expanded_498 : tensor<40x11008xf32>, tensor<4096x11008xf32>) outs(%cst_1877 : tensor<40x4096xf32>) -> tensor<40x4096xf32>
    %2843 = tosa.reshape %2842 {new_shape = array<i64: 1, 40, 4096>} : (tensor<40x4096xf32>) -> tensor<1x40x4096xf32>
    %2844 = tosa.add %2823, %2843 : (tensor<1x40x4096xf32>, tensor<1x40x4096xf32>) -> tensor<1x40x4096xf32>
    %2845 = tensor.empty() : tensor<1x40x4096xf32>
    %c2_i32_1878 = arith.constant 2 : i32
    %2846 = linalg.generic {indexing_maps = [#map1, #map1], iterator_types = ["parallel", "parallel", "parallel"]} ins(%2844 : tensor<1x40x4096xf32>) outs(%2845 : tensor<1x40x4096xf32>) {
    ^bb0(%in: f32, %out: f32):
      %2947 = math.fpowi %in, %c2_i32_1878 : f32, i32
      linalg.yield %2947 : f32
    } -> tensor<1x40x4096xf32>
    %cst_1879 = arith.constant dense<0.000000e+00> : tensor<1x40x1xf32>
    %2847 = linalg.generic {indexing_maps = [#map6, #map7], iterator_types = ["parallel", "parallel", "reduction", "parallel"]} ins(%2846 : tensor<1x40x4096xf32>) outs(%cst_1879 : tensor<1x40x1xf32>) {
    ^bb0(%in: f32, %out: f32):
      %cst_1919 = arith.constant 4.096000e+03 : f32
      %2947 = arith.divf %in, %cst_1919 : f32
      %2948 = arith.addf %2947, %out : f32
      linalg.yield %2948 : f32
    } -> tensor<1x40x1xf32>
    %cst_1880 = arith.constant dense<9.99999997E-7> : tensor<1xf32>
    %2848 = tosa.add %2847, %cst_1880 : (tensor<1x40x1xf32>, tensor<1xf32>) -> tensor<1x40x1xf32>
    %2849 = tensor.empty() : tensor<1x40x1xf32>
    %2850 = linalg.generic {indexing_maps = [#map1, #map1], iterator_types = ["parallel", "parallel", "parallel"]} ins(%2848 : tensor<1x40x1xf32>) outs(%2849 : tensor<1x40x1xf32>) {
    ^bb0(%in: f32, %out: f32):
      %2947 = math.rsqrt %in : f32
      linalg.yield %2947 : f32
    } -> tensor<1x40x1xf32>
    %2851 = tosa.mul %2844, %2850 {shift = 0 : i8} : (tensor<1x40x4096xf32>, tensor<1x40x1xf32>) -> tensor<1x40x4096xf32>
    %2852 = tosa.mul %extracted_slice_61, %2851 {shift = 0 : i8} : (tensor<4096xf32>, tensor<1x40x4096xf32>) -> tensor<1x40x4096xf32>
    %2853 = tosa.reshape %2852 {new_shape = array<i64: 40, 4096>} : (tensor<1x40x4096xf32>) -> tensor<40x4096xf32>
    %cst_1881 = arith.constant dense<0.000000e+00> : tensor<40x4096xf32>
    %2854 = linalg.matmul_transpose_b {cast = #linalg.type_fn<cast_signed>} ins(%2853, %expanded_500 : tensor<40x4096xf32>, tensor<4096x4096xf32>) outs(%cst_1881 : tensor<40x4096xf32>) -> tensor<40x4096xf32>
    %2855 = tosa.reshape %2854 {new_shape = array<i64: 1, 40, 4096>} : (tensor<40x4096xf32>) -> tensor<1x40x4096xf32>
    %2856 = tosa.reshape %2852 {new_shape = array<i64: 40, 4096>} : (tensor<1x40x4096xf32>) -> tensor<40x4096xf32>
    %cst_1882 = arith.constant dense<0.000000e+00> : tensor<40x4096xf32>
    %2857 = linalg.matmul_transpose_b {cast = #linalg.type_fn<cast_signed>} ins(%2856, %expanded_502 : tensor<40x4096xf32>, tensor<4096x4096xf32>) outs(%cst_1882 : tensor<40x4096xf32>) -> tensor<40x4096xf32>
    %2858 = tosa.reshape %2857 {new_shape = array<i64: 1, 40, 4096>} : (tensor<40x4096xf32>) -> tensor<1x40x4096xf32>
    %2859 = tosa.reshape %2852 {new_shape = array<i64: 40, 4096>} : (tensor<1x40x4096xf32>) -> tensor<40x4096xf32>
    %cst_1883 = arith.constant dense<0.000000e+00> : tensor<40x4096xf32>
    %2860 = linalg.matmul_transpose_b {cast = #linalg.type_fn<cast_signed>} ins(%2859, %expanded_504 : tensor<40x4096xf32>, tensor<4096x4096xf32>) outs(%cst_1883 : tensor<40x4096xf32>) -> tensor<40x4096xf32>
    %2861 = tosa.reshape %2860 {new_shape = array<i64: 1, 40, 4096>} : (tensor<40x4096xf32>) -> tensor<1x40x4096xf32>
    %2862 = tosa.reshape %2855 {new_shape = array<i64: 1, 40, 32, 128>} : (tensor<1x40x4096xf32>) -> tensor<1x40x32x128xf32>
    %2863 = tensor.empty() : tensor<1x32x40x128xf32>
    %transposed_1884 = linalg.transpose ins(%2862 : tensor<1x40x32x128xf32>) outs(%2863 : tensor<1x32x40x128xf32>) permutation = [0, 2, 1, 3] 
    %2864 = tosa.reshape %2858 {new_shape = array<i64: 1, 40, 32, 128>} : (tensor<1x40x4096xf32>) -> tensor<1x40x32x128xf32>
    %2865 = tensor.empty() : tensor<1x32x40x128xf32>
    %transposed_1885 = linalg.transpose ins(%2864 : tensor<1x40x32x128xf32>) outs(%2865 : tensor<1x32x40x128xf32>) permutation = [0, 2, 1, 3] 
    %2866 = tosa.reshape %2861 {new_shape = array<i64: 1, 40, 32, 128>} : (tensor<1x40x4096xf32>) -> tensor<1x40x32x128xf32>
    %2867 = tensor.empty() : tensor<1x32x40x128xf32>
    %transposed_1886 = linalg.transpose ins(%2866 : tensor<1x40x32x128xf32>) outs(%2867 : tensor<1x32x40x128xf32>) permutation = [0, 2, 1, 3] 
    %extracted_slice_1887 = tensor.extract_slice %expanded_640[0, 0, 0, 0] [1, 1, 2048, 128] [1, 1, 1, 1] : tensor<1x1x2048x128xf32> to tensor<1x1x2048x128xf32>
    %extracted_slice_1888 = tensor.extract_slice %extracted_slice_1887[0, 0, 0, 0] [1, 1, 2048, 128] [1, 1, 1, 1] : tensor<1x1x2048x128xf32> to tensor<1x1x2048x128xf32>
    %extracted_slice_1889 = tensor.extract_slice %extracted_slice_1888[0, 0, 0, 0] [1, 1, 40, 128] [1, 1, 1, 1] : tensor<1x1x2048x128xf32> to tensor<1x1x40x128xf32>
    %extracted_slice_1890 = tensor.extract_slice %expanded_642[0, 0, 0, 0] [1, 1, 2048, 128] [1, 1, 1, 1] : tensor<1x1x2048x128xf32> to tensor<1x1x2048x128xf32>
    %extracted_slice_1891 = tensor.extract_slice %extracted_slice_1890[0, 0, 0, 0] [1, 1, 2048, 128] [1, 1, 1, 1] : tensor<1x1x2048x128xf32> to tensor<1x1x2048x128xf32>
    %extracted_slice_1892 = tensor.extract_slice %extracted_slice_1891[0, 0, 0, 0] [1, 1, 40, 128] [1, 1, 1, 1] : tensor<1x1x2048x128xf32> to tensor<1x1x40x128xf32>
    %2868 = tensor.empty() : tensor<1x40x128xf32>
    %2869 = linalg.generic {indexing_maps = [#map8, #map1], iterator_types = ["parallel", "parallel", "parallel"]} ins(%extracted_slice_1889 : tensor<1x1x40x128xf32>) outs(%2868 : tensor<1x40x128xf32>) {
    ^bb0(%in: f32, %out: f32):
      linalg.yield %in : f32
    } -> tensor<1x40x128xf32>
    %2870 = tensor.empty() : tensor<40x128xf32>
    %2871 = linalg.generic {indexing_maps = [#map9, #map4], iterator_types = ["parallel", "parallel"]} ins(%2869 : tensor<1x40x128xf32>) outs(%2870 : tensor<40x128xf32>) {
    ^bb0(%in: f32, %out: f32):
      linalg.yield %in : f32
    } -> tensor<40x128xf32>
    %2872 = tensor.empty() : tensor<1x40x128xf32>
    %2873 = linalg.generic {indexing_maps = [#map8, #map1], iterator_types = ["parallel", "parallel", "parallel"]} ins(%extracted_slice_1892 : tensor<1x1x40x128xf32>) outs(%2872 : tensor<1x40x128xf32>) {
    ^bb0(%in: f32, %out: f32):
      linalg.yield %in : f32
    } -> tensor<1x40x128xf32>
    %2874 = tensor.empty() : tensor<40x128xf32>
    %2875 = linalg.generic {indexing_maps = [#map9, #map4], iterator_types = ["parallel", "parallel"]} ins(%2873 : tensor<1x40x128xf32>) outs(%2874 : tensor<40x128xf32>) {
    ^bb0(%in: f32, %out: f32):
      linalg.yield %in : f32
    } -> tensor<40x128xf32>
    %2876 = tensor.empty() : tensor<1x40x128xf32>
    %2877 = linalg.generic {indexing_maps = [#map, #map1], iterator_types = ["parallel", "parallel", "parallel"]} ins(%1 : tensor<1x40xi64>) outs(%2876 : tensor<1x40x128xf32>) {
    ^bb0(%in: i64, %out: f32):
      %2947 = arith.index_cast %in : i64 to index
      %2948 = linalg.index 2 : index
      %extracted = tensor.extract %2871[%2947, %2948] : tensor<40x128xf32>
      linalg.yield %extracted : f32
    } -> tensor<1x40x128xf32>
    %2878 = tosa.reshape %2877 {new_shape = array<i64: 1, 1, 40, 128>} : (tensor<1x40x128xf32>) -> tensor<1x1x40x128xf32>
    %2879 = tensor.empty() : tensor<1x40x128xf32>
    %2880 = linalg.generic {indexing_maps = [#map, #map1], iterator_types = ["parallel", "parallel", "parallel"]} ins(%1 : tensor<1x40xi64>) outs(%2879 : tensor<1x40x128xf32>) {
    ^bb0(%in: i64, %out: f32):
      %2947 = arith.index_cast %in : i64 to index
      %2948 = linalg.index 2 : index
      %extracted = tensor.extract %2875[%2947, %2948] : tensor<40x128xf32>
      linalg.yield %extracted : f32
    } -> tensor<1x40x128xf32>
    %2881 = tosa.reshape %2880 {new_shape = array<i64: 1, 1, 40, 128>} : (tensor<1x40x128xf32>) -> tensor<1x1x40x128xf32>
    %2882 = tosa.mul %transposed_1884, %2878 {shift = 0 : i8} : (tensor<1x32x40x128xf32>, tensor<1x1x40x128xf32>) -> tensor<1x32x40x128xf32>
    %extracted_slice_1893 = tensor.extract_slice %transposed_1884[0, 0, 0, 0] [1, 32, 40, 64] [1, 1, 1, 1] : tensor<1x32x40x128xf32> to tensor<1x32x40x64xf32>
    %extracted_slice_1894 = tensor.extract_slice %transposed_1884[0, 0, 0, 64] [1, 32, 40, 64] [1, 1, 1, 1] : tensor<1x32x40x128xf32> to tensor<1x32x40x64xf32>
    %2883 = tensor.empty() : tensor<1x32x40x64xf32>
    %2884 = linalg.negf ins(%extracted_slice_1894 : tensor<1x32x40x64xf32>) outs(%2883 : tensor<1x32x40x64xf32>) -> tensor<1x32x40x64xf32>
    %2885 = tensor.empty() : tensor<1x32x40x128xf32>
    %inserted_slice_1895 = tensor.insert_slice %2884 into %2885[0, 0, 0, 0] [1, 32, 40, 64] [1, 1, 1, 1] : tensor<1x32x40x64xf32> into tensor<1x32x40x128xf32>
    %inserted_slice_1896 = tensor.insert_slice %extracted_slice_1893 into %inserted_slice_1895[0, 0, 0, 64] [1, 32, 40, 64] [1, 1, 1, 1] : tensor<1x32x40x64xf32> into tensor<1x32x40x128xf32>
    %2886 = tosa.mul %inserted_slice_1896, %2881 {shift = 0 : i8} : (tensor<1x32x40x128xf32>, tensor<1x1x40x128xf32>) -> tensor<1x32x40x128xf32>
    %2887 = tosa.add %2882, %2886 : (tensor<1x32x40x128xf32>, tensor<1x32x40x128xf32>) -> tensor<1x32x40x128xf32>
    %2888 = tosa.mul %transposed_1885, %2878 {shift = 0 : i8} : (tensor<1x32x40x128xf32>, tensor<1x1x40x128xf32>) -> tensor<1x32x40x128xf32>
    %extracted_slice_1897 = tensor.extract_slice %transposed_1885[0, 0, 0, 0] [1, 32, 40, 64] [1, 1, 1, 1] : tensor<1x32x40x128xf32> to tensor<1x32x40x64xf32>
    %extracted_slice_1898 = tensor.extract_slice %transposed_1885[0, 0, 0, 64] [1, 32, 40, 64] [1, 1, 1, 1] : tensor<1x32x40x128xf32> to tensor<1x32x40x64xf32>
    %2889 = tensor.empty() : tensor<1x32x40x64xf32>
    %2890 = linalg.negf ins(%extracted_slice_1898 : tensor<1x32x40x64xf32>) outs(%2889 : tensor<1x32x40x64xf32>) -> tensor<1x32x40x64xf32>
    %2891 = tensor.empty() : tensor<1x32x40x128xf32>
    %inserted_slice_1899 = tensor.insert_slice %2890 into %2891[0, 0, 0, 0] [1, 32, 40, 64] [1, 1, 1, 1] : tensor<1x32x40x64xf32> into tensor<1x32x40x128xf32>
    %inserted_slice_1900 = tensor.insert_slice %extracted_slice_1897 into %inserted_slice_1899[0, 0, 0, 64] [1, 32, 40, 64] [1, 1, 1, 1] : tensor<1x32x40x64xf32> into tensor<1x32x40x128xf32>
    %2892 = tosa.mul %inserted_slice_1900, %2881 {shift = 0 : i8} : (tensor<1x32x40x128xf32>, tensor<1x1x40x128xf32>) -> tensor<1x32x40x128xf32>
    %2893 = tosa.add %2888, %2892 : (tensor<1x32x40x128xf32>, tensor<1x32x40x128xf32>) -> tensor<1x32x40x128xf32>
    %2894 = tensor.empty() : tensor<1x32x128x40xf32>
    %transposed_1901 = linalg.transpose ins(%2893 : tensor<1x32x40x128xf32>) outs(%2894 : tensor<1x32x128x40xf32>) permutation = [0, 1, 3, 2] 
    %2895 = tosa.reshape %2887 {new_shape = array<i64: 32, 40, 128>} : (tensor<1x32x40x128xf32>) -> tensor<32x40x128xf32>
    %2896 = tosa.reshape %transposed_1901 {new_shape = array<i64: 32, 128, 40>} : (tensor<1x32x128x40xf32>) -> tensor<32x128x40xf32>
    %cst_1902 = arith.constant dense<0.000000e+00> : tensor<32x40x40xf32>
    %2897 = linalg.batch_matmul ins(%2895, %2896 : tensor<32x40x128xf32>, tensor<32x128x40xf32>) outs(%cst_1902 : tensor<32x40x40xf32>) -> tensor<32x40x40xf32>
    %2898 = tosa.reshape %2897 {new_shape = array<i64: 1, 32, 40, 40>} : (tensor<32x40x40xf32>) -> tensor<1x32x40x40xf32>
    %cst_1903 = arith.constant dense<11.3137083> : tensor<1xf32>
    %2899 = tosa.reciprocal %cst_1903 : (tensor<1xf32>) -> tensor<1xf32>
    %2900 = tosa.mul %2898, %2899 {shift = 0 : i8} : (tensor<1x32x40x40xf32>, tensor<1xf32>) -> tensor<1x32x40x40xf32>
    %2901 = tosa.add %2900, %23 : (tensor<1x32x40x40xf32>, tensor<1x1x40x40xf32>) -> tensor<1x32x40x40xf32>
    %cst_1904 = arith.constant dense<0.000000e+00> : tensor<1x32x40x1xf32>
    %2902 = linalg.generic {indexing_maps = [#map5, #map10], iterator_types = ["parallel", "parallel", "parallel", "reduction"]} ins(%2901 : tensor<1x32x40x40xf32>) outs(%cst_1904 : tensor<1x32x40x1xf32>) {
    ^bb0(%in: f32, %out: f32):
      %2947 = math.exp %in : f32
      %2948 = arith.addf %2947, %out : f32
      linalg.yield %2948 : f32
    } -> tensor<1x32x40x1xf32>
    %2903 = tensor.empty() : tensor<1x32x40x40xf32>
    %2904 = linalg.generic {indexing_maps = [#map5, #map10, #map5], iterator_types = ["parallel", "parallel", "parallel", "parallel"]} ins(%2901, %2902 : tensor<1x32x40x40xf32>, tensor<1x32x40x1xf32>) outs(%2903 : tensor<1x32x40x40xf32>) {
    ^bb0(%in: f32, %in_1919: f32, %out: f32):
      %2947 = math.exp %in : f32
      %2948 = arith.divf %2947, %in_1919 : f32
      linalg.yield %2948 : f32
    } -> tensor<1x32x40x40xf32>
    %2905 = tosa.reshape %2904 {new_shape = array<i64: 32, 40, 40>} : (tensor<1x32x40x40xf32>) -> tensor<32x40x40xf32>
    %2906 = tosa.reshape %transposed_1886 {new_shape = array<i64: 32, 40, 128>} : (tensor<1x32x40x128xf32>) -> tensor<32x40x128xf32>
    %cst_1905 = arith.constant dense<0.000000e+00> : tensor<32x40x128xf32>
    %2907 = linalg.batch_matmul ins(%2905, %2906 : tensor<32x40x40xf32>, tensor<32x40x128xf32>) outs(%cst_1905 : tensor<32x40x128xf32>) -> tensor<32x40x128xf32>
    %2908 = tosa.reshape %2907 {new_shape = array<i64: 1, 32, 40, 128>} : (tensor<32x40x128xf32>) -> tensor<1x32x40x128xf32>
    %2909 = tensor.empty() : tensor<1x40x32x128xf32>
    %transposed_1906 = linalg.transpose ins(%2908 : tensor<1x32x40x128xf32>) outs(%2909 : tensor<1x40x32x128xf32>) permutation = [0, 2, 1, 3] 
    %extracted_slice_1907 = tensor.extract_slice %transposed_1906[0, 0, 0, 0] [1, 40, 32, 128] [1, 1, 1, 1] : tensor<1x40x32x128xf32> to tensor<1x40x32x128xf32>
    %2910 = tosa.reshape %extracted_slice_1907 {new_shape = array<i64: 1, 40, 4096>} : (tensor<1x40x32x128xf32>) -> tensor<1x40x4096xf32>
    %2911 = tosa.reshape %2910 {new_shape = array<i64: 40, 4096>} : (tensor<1x40x4096xf32>) -> tensor<40x4096xf32>
    %cst_1908 = arith.constant dense<0.000000e+00> : tensor<40x4096xf32>
    %2912 = linalg.matmul_transpose_b {cast = #linalg.type_fn<cast_signed>} ins(%2911, %expanded_506 : tensor<40x4096xf32>, tensor<4096x4096xf32>) outs(%cst_1908 : tensor<40x4096xf32>) -> tensor<40x4096xf32>
    %2913 = tosa.reshape %2912 {new_shape = array<i64: 1, 40, 4096>} : (tensor<40x4096xf32>) -> tensor<1x40x4096xf32>
    %2914 = tosa.add %2844, %2913 : (tensor<1x40x4096xf32>, tensor<1x40x4096xf32>) -> tensor<1x40x4096xf32>
    %2915 = tensor.empty() : tensor<1x40x4096xf32>
    %c2_i32_1909 = arith.constant 2 : i32
    %2916 = linalg.generic {indexing_maps = [#map1, #map1], iterator_types = ["parallel", "parallel", "parallel"]} ins(%2914 : tensor<1x40x4096xf32>) outs(%2915 : tensor<1x40x4096xf32>) {
    ^bb0(%in: f32, %out: f32):
      %2947 = math.fpowi %in, %c2_i32_1909 : f32, i32
      linalg.yield %2947 : f32
    } -> tensor<1x40x4096xf32>
    %cst_1910 = arith.constant dense<0.000000e+00> : tensor<1x40x1xf32>
    %2917 = linalg.generic {indexing_maps = [#map6, #map7], iterator_types = ["parallel", "parallel", "reduction", "parallel"]} ins(%2916 : tensor<1x40x4096xf32>) outs(%cst_1910 : tensor<1x40x1xf32>) {
    ^bb0(%in: f32, %out: f32):
      %cst_1919 = arith.constant 4.096000e+03 : f32
      %2947 = arith.divf %in, %cst_1919 : f32
      %2948 = arith.addf %2947, %out : f32
      linalg.yield %2948 : f32
    } -> tensor<1x40x1xf32>
    %cst_1911 = arith.constant dense<9.99999997E-7> : tensor<1xf32>
    %2918 = tosa.add %2917, %cst_1911 : (tensor<1x40x1xf32>, tensor<1xf32>) -> tensor<1x40x1xf32>
    %2919 = tensor.empty() : tensor<1x40x1xf32>
    %2920 = linalg.generic {indexing_maps = [#map1, #map1], iterator_types = ["parallel", "parallel", "parallel"]} ins(%2918 : tensor<1x40x1xf32>) outs(%2919 : tensor<1x40x1xf32>) {
    ^bb0(%in: f32, %out: f32):
      %2947 = math.rsqrt %in : f32
      linalg.yield %2947 : f32
    } -> tensor<1x40x1xf32>
    %2921 = tosa.mul %2914, %2920 {shift = 0 : i8} : (tensor<1x40x4096xf32>, tensor<1x40x1xf32>) -> tensor<1x40x4096xf32>
    %2922 = tosa.mul %extracted_slice_62, %2921 {shift = 0 : i8} : (tensor<4096xf32>, tensor<1x40x4096xf32>) -> tensor<1x40x4096xf32>
    %2923 = tosa.reshape %2922 {new_shape = array<i64: 40, 4096>} : (tensor<1x40x4096xf32>) -> tensor<40x4096xf32>
    %cst_1912 = arith.constant dense<0.000000e+00> : tensor<40x11008xf32>
    %2924 = linalg.matmul_transpose_b {cast = #linalg.type_fn<cast_signed>} ins(%2923, %expanded_508 : tensor<40x4096xf32>, tensor<11008x4096xf32>) outs(%cst_1912 : tensor<40x11008xf32>) -> tensor<40x11008xf32>
    %2925 = tosa.reshape %2924 {new_shape = array<i64: 1, 40, 11008>} : (tensor<40x11008xf32>) -> tensor<1x40x11008xf32>
    %2926 = tensor.empty() : tensor<1x40x11008xf32>
    %2927 = linalg.generic {indexing_maps = [#map1, #map1], iterator_types = ["parallel", "parallel", "parallel"]} ins(%2925 : tensor<1x40x11008xf32>) outs(%2926 : tensor<1x40x11008xf32>) {
    ^bb0(%in: f32, %out: f32):
      %2947 = arith.negf %in : f32
      %2948 = math.exp %2947 : f32
      %cst_1919 = arith.constant 1.000000e+00 : f32
      %2949 = arith.addf %cst_1919, %2948 : f32
      %2950 = arith.divf %in, %2949 : f32
      linalg.yield %2950 : f32
    } -> tensor<1x40x11008xf32>
    %2928 = tosa.reshape %2922 {new_shape = array<i64: 40, 4096>} : (tensor<1x40x4096xf32>) -> tensor<40x4096xf32>
    %cst_1913 = arith.constant dense<0.000000e+00> : tensor<40x11008xf32>
    %2929 = linalg.matmul_transpose_b {cast = #linalg.type_fn<cast_signed>} ins(%2928, %expanded_510 : tensor<40x4096xf32>, tensor<11008x4096xf32>) outs(%cst_1913 : tensor<40x11008xf32>) -> tensor<40x11008xf32>
    %2930 = tosa.reshape %2929 {new_shape = array<i64: 1, 40, 11008>} : (tensor<40x11008xf32>) -> tensor<1x40x11008xf32>
    %2931 = tosa.mul %2927, %2930 {shift = 0 : i8} : (tensor<1x40x11008xf32>, tensor<1x40x11008xf32>) -> tensor<1x40x11008xf32>
    %2932 = tosa.reshape %2931 {new_shape = array<i64: 40, 11008>} : (tensor<1x40x11008xf32>) -> tensor<40x11008xf32>
    %cst_1914 = arith.constant dense<0.000000e+00> : tensor<40x4096xf32>
    %2933 = linalg.matmul_transpose_b {cast = #linalg.type_fn<cast_signed>} ins(%2932, %expanded_512 : tensor<40x11008xf32>, tensor<4096x11008xf32>) outs(%cst_1914 : tensor<40x4096xf32>) -> tensor<40x4096xf32>
    %2934 = tosa.reshape %2933 {new_shape = array<i64: 1, 40, 4096>} : (tensor<40x4096xf32>) -> tensor<1x40x4096xf32>
    %2935 = tosa.add %2914, %2934 : (tensor<1x40x4096xf32>, tensor<1x40x4096xf32>) -> tensor<1x40x4096xf32>
    %2936 = tensor.empty() : tensor<1x40x4096xf32>
    %c2_i32_1915 = arith.constant 2 : i32
    %2937 = linalg.generic {indexing_maps = [#map1, #map1], iterator_types = ["parallel", "parallel", "parallel"]} ins(%2935 : tensor<1x40x4096xf32>) outs(%2936 : tensor<1x40x4096xf32>) {
    ^bb0(%in: f32, %out: f32):
      %2947 = math.fpowi %in, %c2_i32_1915 : f32, i32
      linalg.yield %2947 : f32
    } -> tensor<1x40x4096xf32>
    %cst_1916 = arith.constant dense<0.000000e+00> : tensor<1x40x1xf32>
    %2938 = linalg.generic {indexing_maps = [#map6, #map7], iterator_types = ["parallel", "parallel", "reduction", "parallel"]} ins(%2937 : tensor<1x40x4096xf32>) outs(%cst_1916 : tensor<1x40x1xf32>) {
    ^bb0(%in: f32, %out: f32):
      %cst_1919 = arith.constant 4.096000e+03 : f32
      %2947 = arith.divf %in, %cst_1919 : f32
      %2948 = arith.addf %2947, %out : f32
      linalg.yield %2948 : f32
    } -> tensor<1x40x1xf32>
    %cst_1917 = arith.constant dense<9.99999997E-7> : tensor<1xf32>
    %2939 = tosa.add %2938, %cst_1917 : (tensor<1x40x1xf32>, tensor<1xf32>) -> tensor<1x40x1xf32>
    %2940 = tensor.empty() : tensor<1x40x1xf32>
    %2941 = linalg.generic {indexing_maps = [#map1, #map1], iterator_types = ["parallel", "parallel", "parallel"]} ins(%2939 : tensor<1x40x1xf32>) outs(%2940 : tensor<1x40x1xf32>) {
    ^bb0(%in: f32, %out: f32):
      %2947 = math.rsqrt %in : f32
      linalg.yield %2947 : f32
    } -> tensor<1x40x1xf32>
    %2942 = tosa.mul %2935, %2941 {shift = 0 : i8} : (tensor<1x40x4096xf32>, tensor<1x40x1xf32>) -> tensor<1x40x4096xf32>
    %2943 = tosa.mul %extracted_slice_63, %2942 {shift = 0 : i8} : (tensor<4096xf32>, tensor<1x40x4096xf32>) -> tensor<1x40x4096xf32>
    %2944 = tosa.reshape %2943 {new_shape = array<i64: 40, 4096>} : (tensor<1x40x4096xf32>) -> tensor<40x4096xf32>
    %cst_1918 = arith.constant dense<0.000000e+00> : tensor<40x32000xf32>
    %2945 = linalg.matmul_transpose_b {cast = #linalg.type_fn<cast_signed>} ins(%2944, %expanded_514 : tensor<40x4096xf32>, tensor<32000x4096xf32>) outs(%cst_1918 : tensor<40x32000xf32>) -> tensor<40x32000xf32>
    %2946 = tosa.reshape %2945 {new_shape = array<i64: 1, 40, 32000>} : (tensor<40x32000xf32>) -> tensor<1x40x32000xf32>
    return %2946, %2943 : tensor<1x40x32000xf32>, tensor<1x40x4096xf32>
  }
}

