#map = affine_map<(d0, d1, d2) -> (d1)>
#map1 = affine_map<(d0, d1, d2) -> (d0, d2)>
#map2 = affine_map<(d0, d1, d2) -> (d0, d1)>
#map3 = affine_map<(d0, d1) -> (d0, d1)>
#map4 = affine_map<(d0, d1, d2, d3) -> (d0, d1, d2, d3)>
#map5 = affine_map<(d0, d1, d2) -> (d0, d1, d2)>
#map6 = affine_map<(d0, d1, d2, d3) -> (d0, d1, d2)>
#map7 = affine_map<(d0, d1, d2, d3) -> (d0, d1, d3)>
#map8 = affine_map<(d0, d1, d2) -> (d0, 0, d1, d2)>
#map9 = affine_map<(d0, d1) -> (0, d0, d1)>
module {
  func.func @prefill_forward(%arg0: tensor<4096xf32>, %arg1: tensor<4096xf32>, %arg2: tensor<4096xf32>, %arg3: tensor<4096xf32>, %arg4: tensor<4096xf32>, %arg5: tensor<4096xf32>, %arg6: tensor<4096xf32>, %arg7: tensor<4096xf32>, %arg8: tensor<4096xf32>, %arg9: tensor<4096xf32>, %arg10: tensor<4096xf32>, %arg11: tensor<4096xf32>, %arg12: tensor<4096xf32>, %arg13: tensor<4096xf32>, %arg14: tensor<4096xf32>, %arg15: tensor<4096xf32>, %arg16: tensor<4096xf32>, %arg17: tensor<4096xf32>, %arg18: tensor<4096xf32>, %arg19: tensor<4096xf32>, %arg20: tensor<4096xf32>, %arg21: tensor<4096xf32>, %arg22: tensor<4096xf32>, %arg23: tensor<4096xf32>, %arg24: tensor<4096xf32>, %arg25: tensor<4096xf32>, %arg26: tensor<4096xf32>, %arg27: tensor<4096xf32>, %arg28: tensor<4096xf32>, %arg29: tensor<4096xf32>, %arg30: tensor<4096xf32>, %arg31: tensor<4096xf32>, %arg32: tensor<4096xf32>, %arg33: tensor<4096xf32>, %arg34: tensor<4096xf32>, %arg35: tensor<4096xf32>, %arg36: tensor<4096xf32>, %arg37: tensor<4096xf32>, %arg38: tensor<4096xf32>, %arg39: tensor<4096xf32>, %arg40: tensor<4096xf32>, %arg41: tensor<4096xf32>, %arg42: tensor<4096xf32>, %arg43: tensor<4096xf32>, %arg44: tensor<4096xf32>, %arg45: tensor<4096xf32>, %arg46: tensor<4096xf32>, %arg47: tensor<4096xf32>, %arg48: tensor<4096xf32>, %arg49: tensor<4096xf32>, %arg50: tensor<4096xf32>, %arg51: tensor<4096xf32>, %arg52: tensor<4096xf32>, %arg53: tensor<4096xf32>, %arg54: tensor<4096xf32>, %arg55: tensor<4096xf32>, %arg56: tensor<4096xf32>, %arg57: tensor<4096xf32>, %arg58: tensor<4096xf32>, %arg59: tensor<4096xf32>, %arg60: tensor<4096xf32>, %arg61: tensor<4096xf32>, %arg62: tensor<4096xf32>, %arg63: tensor<4096xf32>, %arg64: tensor<4096xf32>, %arg65: tensor<32000x4096xf32>, %arg66: tensor<4096x4096xf32>, %arg67: tensor<4096x4096xf32>, %arg68: tensor<4096x4096xf32>, %arg69: tensor<4096x4096xf32>, %arg70: tensor<11008x4096xf32>, %arg71: tensor<11008x4096xf32>, %arg72: tensor<4096x11008xf32>, %arg73: tensor<4096x4096xf32>, %arg74: tensor<4096x4096xf32>, %arg75: tensor<4096x4096xf32>, %arg76: tensor<4096x4096xf32>, %arg77: tensor<11008x4096xf32>, %arg78: tensor<11008x4096xf32>, %arg79: tensor<4096x11008xf32>, %arg80: tensor<4096x4096xf32>, %arg81: tensor<4096x4096xf32>, %arg82: tensor<4096x4096xf32>, %arg83: tensor<4096x4096xf32>, %arg84: tensor<11008x4096xf32>, %arg85: tensor<11008x4096xf32>, %arg86: tensor<4096x11008xf32>, %arg87: tensor<4096x4096xf32>, %arg88: tensor<4096x4096xf32>, %arg89: tensor<4096x4096xf32>, %arg90: tensor<4096x4096xf32>, %arg91: tensor<11008x4096xf32>, %arg92: tensor<11008x4096xf32>, %arg93: tensor<4096x11008xf32>, %arg94: tensor<4096x4096xf32>, %arg95: tensor<4096x4096xf32>, %arg96: tensor<4096x4096xf32>, %arg97: tensor<4096x4096xf32>, %arg98: tensor<11008x4096xf32>, %arg99: tensor<11008x4096xf32>, %arg100: tensor<4096x11008xf32>, %arg101: tensor<4096x4096xf32>, %arg102: tensor<4096x4096xf32>, %arg103: tensor<4096x4096xf32>, %arg104: tensor<4096x4096xf32>, %arg105: tensor<11008x4096xf32>, %arg106: tensor<11008x4096xf32>, %arg107: tensor<4096x11008xf32>, %arg108: tensor<4096x4096xf32>, %arg109: tensor<4096x4096xf32>, %arg110: tensor<4096x4096xf32>, %arg111: tensor<4096x4096xf32>, %arg112: tensor<11008x4096xf32>, %arg113: tensor<11008x4096xf32>, %arg114: tensor<4096x11008xf32>, %arg115: tensor<4096x4096xf32>, %arg116: tensor<4096x4096xf32>, %arg117: tensor<4096x4096xf32>, %arg118: tensor<4096x4096xf32>, %arg119: tensor<11008x4096xf32>, %arg120: tensor<11008x4096xf32>, %arg121: tensor<4096x11008xf32>, %arg122: tensor<4096x4096xf32>, %arg123: tensor<4096x4096xf32>, %arg124: tensor<4096x4096xf32>, %arg125: tensor<4096x4096xf32>, %arg126: tensor<11008x4096xf32>, %arg127: tensor<11008x4096xf32>, %arg128: tensor<4096x11008xf32>, %arg129: tensor<4096x4096xf32>, %arg130: tensor<4096x4096xf32>, %arg131: tensor<4096x4096xf32>, %arg132: tensor<4096x4096xf32>, %arg133: tensor<11008x4096xf32>, %arg134: tensor<11008x4096xf32>, %arg135: tensor<4096x11008xf32>, %arg136: tensor<4096x4096xf32>, %arg137: tensor<4096x4096xf32>, %arg138: tensor<4096x4096xf32>, %arg139: tensor<4096x4096xf32>, %arg140: tensor<11008x4096xf32>, %arg141: tensor<11008x4096xf32>, %arg142: tensor<4096x11008xf32>, %arg143: tensor<4096x4096xf32>, %arg144: tensor<4096x4096xf32>, %arg145: tensor<4096x4096xf32>, %arg146: tensor<4096x4096xf32>, %arg147: tensor<11008x4096xf32>, %arg148: tensor<11008x4096xf32>, %arg149: tensor<4096x11008xf32>, %arg150: tensor<4096x4096xf32>, %arg151: tensor<4096x4096xf32>, %arg152: tensor<4096x4096xf32>, %arg153: tensor<4096x4096xf32>, %arg154: tensor<11008x4096xf32>, %arg155: tensor<11008x4096xf32>, %arg156: tensor<4096x11008xf32>, %arg157: tensor<4096x4096xf32>, %arg158: tensor<4096x4096xf32>, %arg159: tensor<4096x4096xf32>, %arg160: tensor<4096x4096xf32>, %arg161: tensor<11008x4096xf32>, %arg162: tensor<11008x4096xf32>, %arg163: tensor<4096x11008xf32>, %arg164: tensor<4096x4096xf32>, %arg165: tensor<4096x4096xf32>, %arg166: tensor<4096x4096xf32>, %arg167: tensor<4096x4096xf32>, %arg168: tensor<11008x4096xf32>, %arg169: tensor<11008x4096xf32>, %arg170: tensor<4096x11008xf32>, %arg171: tensor<4096x4096xf32>, %arg172: tensor<4096x4096xf32>, %arg173: tensor<4096x4096xf32>, %arg174: tensor<4096x4096xf32>, %arg175: tensor<11008x4096xf32>, %arg176: tensor<11008x4096xf32>, %arg177: tensor<4096x11008xf32>, %arg178: tensor<4096x4096xf32>, %arg179: tensor<4096x4096xf32>, %arg180: tensor<4096x4096xf32>, %arg181: tensor<4096x4096xf32>, %arg182: tensor<11008x4096xf32>, %arg183: tensor<11008x4096xf32>, %arg184: tensor<4096x11008xf32>, %arg185: tensor<4096x4096xf32>, %arg186: tensor<4096x4096xf32>, %arg187: tensor<4096x4096xf32>, %arg188: tensor<4096x4096xf32>, %arg189: tensor<11008x4096xf32>, %arg190: tensor<11008x4096xf32>, %arg191: tensor<4096x11008xf32>, %arg192: tensor<4096x4096xf32>, %arg193: tensor<4096x4096xf32>, %arg194: tensor<4096x4096xf32>, %arg195: tensor<4096x4096xf32>, %arg196: tensor<11008x4096xf32>, %arg197: tensor<11008x4096xf32>, %arg198: tensor<4096x11008xf32>, %arg199: tensor<4096x4096xf32>, %arg200: tensor<4096x4096xf32>, %arg201: tensor<4096x4096xf32>, %arg202: tensor<4096x4096xf32>, %arg203: tensor<11008x4096xf32>, %arg204: tensor<11008x4096xf32>, %arg205: tensor<4096x11008xf32>, %arg206: tensor<4096x4096xf32>, %arg207: tensor<4096x4096xf32>, %arg208: tensor<4096x4096xf32>, %arg209: tensor<4096x4096xf32>, %arg210: tensor<11008x4096xf32>, %arg211: tensor<11008x4096xf32>, %arg212: tensor<4096x11008xf32>, %arg213: tensor<4096x4096xf32>, %arg214: tensor<4096x4096xf32>, %arg215: tensor<4096x4096xf32>, %arg216: tensor<4096x4096xf32>, %arg217: tensor<11008x4096xf32>, %arg218: tensor<11008x4096xf32>, %arg219: tensor<4096x11008xf32>, %arg220: tensor<4096x4096xf32>, %arg221: tensor<4096x4096xf32>, %arg222: tensor<4096x4096xf32>, %arg223: tensor<4096x4096xf32>, %arg224: tensor<11008x4096xf32>, %arg225: tensor<11008x4096xf32>, %arg226: tensor<4096x11008xf32>, %arg227: tensor<4096x4096xf32>, %arg228: tensor<4096x4096xf32>, %arg229: tensor<4096x4096xf32>, %arg230: tensor<4096x4096xf32>, %arg231: tensor<11008x4096xf32>, %arg232: tensor<11008x4096xf32>, %arg233: tensor<4096x11008xf32>, %arg234: tensor<4096x4096xf32>, %arg235: tensor<4096x4096xf32>, %arg236: tensor<4096x4096xf32>, %arg237: tensor<4096x4096xf32>, %arg238: tensor<11008x4096xf32>, %arg239: tensor<11008x4096xf32>, %arg240: tensor<4096x11008xf32>, %arg241: tensor<4096x4096xf32>, %arg242: tensor<4096x4096xf32>, %arg243: tensor<4096x4096xf32>, %arg244: tensor<4096x4096xf32>, %arg245: tensor<11008x4096xf32>, %arg246: tensor<11008x4096xf32>, %arg247: tensor<4096x11008xf32>, %arg248: tensor<4096x4096xf32>, %arg249: tensor<4096x4096xf32>, %arg250: tensor<4096x4096xf32>, %arg251: tensor<4096x4096xf32>, %arg252: tensor<11008x4096xf32>, %arg253: tensor<11008x4096xf32>, %arg254: tensor<4096x11008xf32>, %arg255: tensor<4096x4096xf32>, %arg256: tensor<4096x4096xf32>, %arg257: tensor<4096x4096xf32>, %arg258: tensor<4096x4096xf32>, %arg259: tensor<11008x4096xf32>, %arg260: tensor<11008x4096xf32>, %arg261: tensor<4096x11008xf32>, %arg262: tensor<4096x4096xf32>, %arg263: tensor<4096x4096xf32>, %arg264: tensor<4096x4096xf32>, %arg265: tensor<4096x4096xf32>, %arg266: tensor<11008x4096xf32>, %arg267: tensor<11008x4096xf32>, %arg268: tensor<4096x11008xf32>, %arg269: tensor<4096x4096xf32>, %arg270: tensor<4096x4096xf32>, %arg271: tensor<4096x4096xf32>, %arg272: tensor<4096x4096xf32>, %arg273: tensor<11008x4096xf32>, %arg274: tensor<11008x4096xf32>, %arg275: tensor<4096x11008xf32>, %arg276: tensor<4096x4096xf32>, %arg277: tensor<4096x4096xf32>, %arg278: tensor<4096x4096xf32>, %arg279: tensor<4096x4096xf32>, %arg280: tensor<11008x4096xf32>, %arg281: tensor<11008x4096xf32>, %arg282: tensor<4096x11008xf32>, %arg283: tensor<4096x4096xf32>, %arg284: tensor<4096x4096xf32>, %arg285: tensor<4096x4096xf32>, %arg286: tensor<4096x4096xf32>, %arg287: tensor<11008x4096xf32>, %arg288: tensor<11008x4096xf32>, %arg289: tensor<4096x11008xf32>, %arg290: tensor<32000x4096xf32>, %arg291: tensor<1x1x2048x128xf32>, %arg292: tensor<1x1x2048x128xf32>, %arg293: tensor<1x1x2048x128xf32>, %arg294: tensor<1x1x2048x128xf32>, %arg295: tensor<1x1x2048x128xf32>, %arg296: tensor<1x1x2048x128xf32>, %arg297: tensor<1x1x2048x128xf32>, %arg298: tensor<1x1x2048x128xf32>, %arg299: tensor<1x1x2048x128xf32>, %arg300: tensor<1x1x2048x128xf32>, %arg301: tensor<1x1x2048x128xf32>, %arg302: tensor<1x1x2048x128xf32>, %arg303: tensor<1x1x2048x128xf32>, %arg304: tensor<1x1x2048x128xf32>, %arg305: tensor<1x1x2048x128xf32>, %arg306: tensor<1x1x2048x128xf32>, %arg307: tensor<1x1x2048x128xf32>, %arg308: tensor<1x1x2048x128xf32>, %arg309: tensor<1x1x2048x128xf32>, %arg310: tensor<1x1x2048x128xf32>, %arg311: tensor<1x1x2048x128xf32>, %arg312: tensor<1x1x2048x128xf32>, %arg313: tensor<1x1x2048x128xf32>, %arg314: tensor<1x1x2048x128xf32>, %arg315: tensor<1x1x2048x128xf32>, %arg316: tensor<1x1x2048x128xf32>, %arg317: tensor<1x1x2048x128xf32>, %arg318: tensor<1x1x2048x128xf32>, %arg319: tensor<1x1x2048x128xf32>, %arg320: tensor<1x1x2048x128xf32>, %arg321: tensor<1x1x2048x128xf32>, %arg322: tensor<1x1x2048x128xf32>, %arg323: tensor<1x1x2048x128xf32>, %arg324: tensor<1x1x2048x128xf32>, %arg325: tensor<1x1x2048x128xf32>, %arg326: tensor<1x1x2048x128xf32>, %arg327: tensor<1x1x2048x128xf32>, %arg328: tensor<1x1x2048x128xf32>, %arg329: tensor<1x1x2048x128xf32>, %arg330: tensor<1x1x2048x128xf32>, %arg331: tensor<1x1x2048x128xf32>, %arg332: tensor<1x1x2048x128xf32>, %arg333: tensor<1x1x2048x128xf32>, %arg334: tensor<1x1x2048x128xf32>, %arg335: tensor<1x1x2048x128xf32>, %arg336: tensor<1x1x2048x128xf32>, %arg337: tensor<1x1x2048x128xf32>, %arg338: tensor<1x1x2048x128xf32>, %arg339: tensor<1x1x2048x128xf32>, %arg340: tensor<1x1x2048x128xf32>, %arg341: tensor<1x1x2048x128xf32>, %arg342: tensor<1x1x2048x128xf32>, %arg343: tensor<1x1x2048x128xf32>, %arg344: tensor<1x1x2048x128xf32>, %arg345: tensor<1x1x2048x128xf32>, %arg346: tensor<1x1x2048x128xf32>, %arg347: tensor<1x1x2048x128xf32>, %arg348: tensor<1x1x2048x128xf32>, %arg349: tensor<1x1x2048x128xf32>, %arg350: tensor<1x1x2048x128xf32>, %arg351: tensor<1x1x2048x128xf32>, %arg352: tensor<1x1x2048x128xf32>, %arg353: tensor<1x1x2048x128xf32>, %arg354: tensor<1x1x2048x128xf32>, %arg355: tensor<1x6xi64>) -> (tensor<1x6x32000xf32>, tensor<1x6x4096xf32>, tensor<6x4096xf32>, tensor<6x4096xf32>, tensor<6x4096xf32>, tensor<6x4096xf32>, tensor<6x4096xf32>, tensor<6x4096xf32>, tensor<6x4096xf32>, tensor<6x4096xf32>, tensor<6x4096xf32>, tensor<6x4096xf32>, tensor<6x4096xf32>, tensor<6x4096xf32>, tensor<6x4096xf32>, tensor<6x4096xf32>, tensor<6x4096xf32>, tensor<6x4096xf32>, tensor<6x4096xf32>, tensor<6x4096xf32>, tensor<6x4096xf32>, tensor<6x4096xf32>, tensor<6x4096xf32>, tensor<6x4096xf32>, tensor<6x4096xf32>, tensor<6x4096xf32>, tensor<6x4096xf32>, tensor<6x4096xf32>, tensor<6x4096xf32>, tensor<6x4096xf32>, tensor<6x4096xf32>, tensor<6x4096xf32>, tensor<6x4096xf32>, tensor<6x4096xf32>, tensor<6x4096xf32>, tensor<6x4096xf32>, tensor<6x4096xf32>, tensor<6x4096xf32>, tensor<6x4096xf32>, tensor<6x4096xf32>, tensor<6x4096xf32>, tensor<6x4096xf32>, tensor<6x4096xf32>, tensor<6x4096xf32>, tensor<6x4096xf32>, tensor<6x4096xf32>, tensor<6x4096xf32>, tensor<6x4096xf32>, tensor<6x4096xf32>, tensor<6x4096xf32>, tensor<6x4096xf32>, tensor<6x4096xf32>, tensor<6x4096xf32>, tensor<6x4096xf32>, tensor<6x4096xf32>, tensor<6x4096xf32>, tensor<6x4096xf32>, tensor<6x4096xf32>, tensor<6x4096xf32>, tensor<6x4096xf32>, tensor<6x4096xf32>, tensor<6x4096xf32>, tensor<6x4096xf32>, tensor<6x4096xf32>, tensor<6x4096xf32>, tensor<6x4096xf32>) {
    %0 = "tosa.const"() <{value = dense<[0, 1, 2, 3, 4, 5]> : tensor<6xi64>}> : () -> tensor<6xi64>
    %1 = tosa.reshape %0 {new_shape = array<i64: 1, 6>} : (tensor<6xi64>) -> tensor<1x6xi64>
    %2 = tosa.reshape %1 {new_shape = array<i64: 1, 6>} : (tensor<1x6xi64>) -> tensor<1x6xi64>
    %3 = tosa.cast %arg355 : (tensor<1x6xi64>) -> tensor<1x6xi32>
    %4 = tosa.reshape %arg65 {new_shape = array<i64: 1, 32000, 4096>} : (tensor<32000x4096xf32>) -> tensor<1x32000x4096xf32>
    %5 = tosa.gather %4, %3 : (tensor<1x32000x4096xf32>, tensor<1x6xi32>) -> tensor<1x6x4096xf32>
    %6 = tosa.reshape %5 {new_shape = array<i64: 1, 6, 4096>} : (tensor<1x6x4096xf32>) -> tensor<1x6x4096xf32>
    %cst = arith.constant dense<true> : tensor<1x6xi1>
    %cst_0 = arith.constant dense<-3.40282347E+38> : tensor<6x6xf32>
    %7 = "tosa.const"() <{value = dense<[0, 1, 2, 3, 4, 5]> : tensor<6xi64>}> : () -> tensor<6xi64>
    %8 = "tosa.const"() <{value = dense<1> : tensor<6xi64>}> : () -> tensor<6xi64>
    %9 = tosa.add %7, %8 : (tensor<6xi64>, tensor<6xi64>) -> tensor<6xi64>
    %10 = tosa.reshape %9 {new_shape = array<i64: 6, 1>} : (tensor<6xi64>) -> tensor<6x1xi64>
    %11 = tensor.empty() : tensor<6x6xi1>
    %12 = linalg.generic {indexing_maps = [#map, #map1, #map2], iterator_types = ["parallel", "parallel", "reduction"]} ins(%7, %10 : tensor<6xi64>, tensor<6x1xi64>) outs(%11 : tensor<6x6xi1>) {
    ^bb0(%in: i64, %in_807: i64, %out: i1):
      %3850 = arith.cmpi slt, %in, %in_807 : i64
      linalg.yield %3850 : i1
    } -> tensor<6x6xi1>
    %cst_1 = arith.constant 0.000000e+00 : f32
    %13 = tensor.empty() : tensor<6x6xf32>
    %14 = linalg.generic {indexing_maps = [#map3, #map3, #map3], iterator_types = ["parallel", "parallel"]} ins(%12, %cst_0 : tensor<6x6xi1>, tensor<6x6xf32>) outs(%13 : tensor<6x6xf32>) {
    ^bb0(%in: i1, %in_807: f32, %out: f32):
      %3850 = arith.select %in, %cst_1, %in_807 : f32
      linalg.yield %3850 : f32
    } -> tensor<6x6xf32>
    %extracted_slice = tensor.extract_slice %cst[0, 0] [1, 6] [1, 1] : tensor<1x6xi1> to tensor<1x6xi1>
    %15 = tosa.reshape %extracted_slice {new_shape = array<i64: 1, 1, 6>} : (tensor<1x6xi1>) -> tensor<1x1x6xi1>
    %16 = tosa.reshape %15 {new_shape = array<i64: 1, 1, 1, 6>} : (tensor<1x1x6xi1>) -> tensor<1x1x1x6xi1>
    %extracted_slice_2 = tensor.extract_slice %16[0, 0, 0, 0] [1, 1, 1, 6] [1, 1, 1, 1] : tensor<1x1x1x6xi1> to tensor<1x1x1x6xi1>
    %17 = "tosa.const"() <{value = dense<false> : tensor<1x1x6x6xi1>}> : () -> tensor<1x1x6x6xi1>
    %18 = tosa.add %extracted_slice_2, %17 : (tensor<1x1x1x6xi1>, tensor<1x1x6x6xi1>) -> tensor<1x1x6x6xi1>
    %19 = tosa.cast %18 : (tensor<1x1x6x6xi1>) -> tensor<1x1x6x6xf32>
    %20 = "tosa.const"() <{value = dense<1.000000e+00> : tensor<1x1x6x6xf32>}> : () -> tensor<1x1x6x6xf32>
    %21 = tosa.sub %20, %19 : (tensor<1x1x6x6xf32>, tensor<1x1x6x6xf32>) -> tensor<1x1x6x6xf32>
    %22 = tosa.cast %21 : (tensor<1x1x6x6xf32>) -> tensor<1x1x6x6xi1>
    %cst_3 = arith.constant -3.40282347E+38 : f32
    %23 = tensor.empty() : tensor<1x1x6x6xf32>
    %24 = linalg.generic {indexing_maps = [#map4, #map4, #map4], iterator_types = ["parallel", "parallel", "parallel", "parallel"]} ins(%22, %21 : tensor<1x1x6x6xi1>, tensor<1x1x6x6xf32>) outs(%23 : tensor<1x1x6x6xf32>) {
    ^bb0(%in: i1, %in_807: f32, %out: f32):
      %3850 = arith.select %in, %cst_3, %in_807 : f32
      linalg.yield %3850 : f32
    } -> tensor<1x1x6x6xf32>
    %25 = tosa.reshape %14 {new_shape = array<i64: 1, 6, 6>} : (tensor<6x6xf32>) -> tensor<1x6x6xf32>
    %26 = tosa.reshape %25 {new_shape = array<i64: 1, 1, 6, 6>} : (tensor<1x6x6xf32>) -> tensor<1x1x6x6xf32>
    %extracted_slice_4 = tensor.extract_slice %26[0, 0, 0, 0] [1, 1, 6, 6] [1, 1, 1, 1] : tensor<1x1x6x6xf32> to tensor<1x1x6x6xf32>
    %extracted_slice_5 = tensor.extract_slice %extracted_slice_4[0, 0, 0, 0] [1, 1, 6, 6] [1, 1, 1, 1] : tensor<1x1x6x6xf32> to tensor<1x1x6x6xf32>
    %27 = tosa.add %24, %extracted_slice_5 : (tensor<1x1x6x6xf32>, tensor<1x1x6x6xf32>) -> tensor<1x1x6x6xf32>
    %28 = tensor.empty() : tensor<1x6x4096xf32>
    %c2_i32 = arith.constant 2 : i32
    %29 = linalg.generic {indexing_maps = [#map5, #map5], iterator_types = ["parallel", "parallel", "parallel"]} ins(%6 : tensor<1x6x4096xf32>) outs(%28 : tensor<1x6x4096xf32>) {
    ^bb0(%in: f32, %out: f32):
      %3850 = math.fpowi %in, %c2_i32 : f32, i32
      linalg.yield %3850 : f32
    } -> tensor<1x6x4096xf32>
    %cst_6 = arith.constant dense<0.000000e+00> : tensor<1x6x1xf32>
    %30 = linalg.generic {indexing_maps = [#map6, #map7], iterator_types = ["parallel", "parallel", "reduction", "parallel"]} ins(%29 : tensor<1x6x4096xf32>) outs(%cst_6 : tensor<1x6x1xf32>) {
    ^bb0(%in: f32, %out: f32):
      %cst_807 = arith.constant 4.096000e+03 : f32
      %3850 = arith.divf %in, %cst_807 : f32
      %3851 = arith.addf %3850, %out : f32
      linalg.yield %3851 : f32
    } -> tensor<1x6x1xf32>
    %31 = "tosa.const"() <{value = dense<9.99999997E-7> : tensor<1x6x1xf32>}> : () -> tensor<1x6x1xf32>
    %32 = tosa.add %30, %31 : (tensor<1x6x1xf32>, tensor<1x6x1xf32>) -> tensor<1x6x1xf32>
    %33 = tosa.rsqrt %32 : (tensor<1x6x1xf32>) -> tensor<1x6x1xf32>
    %34 = tosa.mul %6, %33 {shift = 0 : i8} : (tensor<1x6x4096xf32>, tensor<1x6x1xf32>) -> tensor<1x6x4096xf32>
    %35 = tosa.reshape %arg0 {new_shape = array<i64: 1, 1, 4096>} : (tensor<4096xf32>) -> tensor<1x1x4096xf32>
    %36 = tosa.mul %35, %34 {shift = 0 : i8} : (tensor<1x1x4096xf32>, tensor<1x6x4096xf32>) -> tensor<1x6x4096xf32>
    %37 = "tosa.const"() <{value = dense<[1, 0]> : tensor<2xi32>}> : () -> tensor<2xi32>
    %38 = tosa.transpose %arg66, %37 : (tensor<4096x4096xf32>, tensor<2xi32>) -> tensor<4096x4096xf32>
    %39 = tosa.reshape %36 {new_shape = array<i64: 6, 4096>} : (tensor<1x6x4096xf32>) -> tensor<6x4096xf32>
    %cst_7 = arith.constant dense<0.000000e+00> : tensor<6x4096xf32>
    %40 = linalg.matmul {cast = #linalg.type_fn<cast_signed>} ins(%39, %38 : tensor<6x4096xf32>, tensor<4096x4096xf32>) outs(%cst_7 : tensor<6x4096xf32>) -> tensor<6x4096xf32>
    %41 = tosa.reshape %40 {new_shape = array<i64: 1, 6, 4096>} : (tensor<6x4096xf32>) -> tensor<1x6x4096xf32>
    %42 = "tosa.const"() <{value = dense<[1, 0]> : tensor<2xi32>}> : () -> tensor<2xi32>
    %43 = tosa.transpose %arg67, %42 : (tensor<4096x4096xf32>, tensor<2xi32>) -> tensor<4096x4096xf32>
    %44 = tosa.reshape %36 {new_shape = array<i64: 6, 4096>} : (tensor<1x6x4096xf32>) -> tensor<6x4096xf32>
    %cst_8 = arith.constant dense<0.000000e+00> : tensor<6x4096xf32>
    %45 = linalg.matmul {cast = #linalg.type_fn<cast_signed>} ins(%44, %43 : tensor<6x4096xf32>, tensor<4096x4096xf32>) outs(%cst_8 : tensor<6x4096xf32>) -> tensor<6x4096xf32>
    %46 = tosa.identity %45 : (tensor<6x4096xf32>) -> tensor<6x4096xf32>
    %47 = tosa.reshape %45 {new_shape = array<i64: 1, 6, 4096>} : (tensor<6x4096xf32>) -> tensor<1x6x4096xf32>
    %48 = "tosa.const"() <{value = dense<[1, 0]> : tensor<2xi32>}> : () -> tensor<2xi32>
    %49 = tosa.transpose %arg68, %48 : (tensor<4096x4096xf32>, tensor<2xi32>) -> tensor<4096x4096xf32>
    %50 = tosa.reshape %36 {new_shape = array<i64: 6, 4096>} : (tensor<1x6x4096xf32>) -> tensor<6x4096xf32>
    %cst_9 = arith.constant dense<0.000000e+00> : tensor<6x4096xf32>
    %51 = linalg.matmul {cast = #linalg.type_fn<cast_signed>} ins(%50, %49 : tensor<6x4096xf32>, tensor<4096x4096xf32>) outs(%cst_9 : tensor<6x4096xf32>) -> tensor<6x4096xf32>
    %52 = tosa.identity %51 : (tensor<6x4096xf32>) -> tensor<6x4096xf32>
    %53 = tosa.reshape %51 {new_shape = array<i64: 1, 6, 4096>} : (tensor<6x4096xf32>) -> tensor<1x6x4096xf32>
    %54 = tosa.reshape %41 {new_shape = array<i64: 1, 6, 32, 128>} : (tensor<1x6x4096xf32>) -> tensor<1x6x32x128xf32>
    %55 = "tosa.const"() <{value = dense<[0, 2, 1, 3]> : tensor<4xi32>}> : () -> tensor<4xi32>
    %56 = tosa.transpose %54, %55 : (tensor<1x6x32x128xf32>, tensor<4xi32>) -> tensor<1x32x6x128xf32>
    %57 = tosa.reshape %47 {new_shape = array<i64: 1, 6, 32, 128>} : (tensor<1x6x4096xf32>) -> tensor<1x6x32x128xf32>
    %58 = "tosa.const"() <{value = dense<[0, 2, 1, 3]> : tensor<4xi32>}> : () -> tensor<4xi32>
    %59 = tosa.transpose %57, %58 : (tensor<1x6x32x128xf32>, tensor<4xi32>) -> tensor<1x32x6x128xf32>
    %60 = tosa.reshape %53 {new_shape = array<i64: 1, 6, 32, 128>} : (tensor<1x6x4096xf32>) -> tensor<1x6x32x128xf32>
    %61 = "tosa.const"() <{value = dense<[0, 2, 1, 3]> : tensor<4xi32>}> : () -> tensor<4xi32>
    %62 = tosa.transpose %60, %61 : (tensor<1x6x32x128xf32>, tensor<4xi32>) -> tensor<1x32x6x128xf32>
    %extracted_slice_10 = tensor.extract_slice %arg291[0, 0, 0, 0] [1, 1, 2048, 128] [1, 1, 1, 1] : tensor<1x1x2048x128xf32> to tensor<1x1x2048x128xf32>
    %extracted_slice_11 = tensor.extract_slice %extracted_slice_10[0, 0, 0, 0] [1, 1, 2048, 128] [1, 1, 1, 1] : tensor<1x1x2048x128xf32> to tensor<1x1x2048x128xf32>
    %extracted_slice_12 = tensor.extract_slice %extracted_slice_11[0, 0, 0, 0] [1, 1, 6, 128] [1, 1, 1, 1] : tensor<1x1x2048x128xf32> to tensor<1x1x6x128xf32>
    %extracted_slice_13 = tensor.extract_slice %arg292[0, 0, 0, 0] [1, 1, 2048, 128] [1, 1, 1, 1] : tensor<1x1x2048x128xf32> to tensor<1x1x2048x128xf32>
    %extracted_slice_14 = tensor.extract_slice %extracted_slice_13[0, 0, 0, 0] [1, 1, 2048, 128] [1, 1, 1, 1] : tensor<1x1x2048x128xf32> to tensor<1x1x2048x128xf32>
    %extracted_slice_15 = tensor.extract_slice %extracted_slice_14[0, 0, 0, 0] [1, 1, 6, 128] [1, 1, 1, 1] : tensor<1x1x2048x128xf32> to tensor<1x1x6x128xf32>
    %63 = tensor.empty() : tensor<1x6x128xf32>
    %64 = linalg.generic {indexing_maps = [#map8, #map5], iterator_types = ["parallel", "parallel", "parallel"]} ins(%extracted_slice_12 : tensor<1x1x6x128xf32>) outs(%63 : tensor<1x6x128xf32>) {
    ^bb0(%in: f32, %out: f32):
      linalg.yield %in : f32
    } -> tensor<1x6x128xf32>
    %65 = tensor.empty() : tensor<6x128xf32>
    %66 = linalg.generic {indexing_maps = [#map9, #map3], iterator_types = ["parallel", "parallel"]} ins(%64 : tensor<1x6x128xf32>) outs(%65 : tensor<6x128xf32>) {
    ^bb0(%in: f32, %out: f32):
      linalg.yield %in : f32
    } -> tensor<6x128xf32>
    %67 = tensor.empty() : tensor<1x6x128xf32>
    %68 = linalg.generic {indexing_maps = [#map8, #map5], iterator_types = ["parallel", "parallel", "parallel"]} ins(%extracted_slice_15 : tensor<1x1x6x128xf32>) outs(%67 : tensor<1x6x128xf32>) {
    ^bb0(%in: f32, %out: f32):
      linalg.yield %in : f32
    } -> tensor<1x6x128xf32>
    %69 = tensor.empty() : tensor<6x128xf32>
    %70 = linalg.generic {indexing_maps = [#map9, #map3], iterator_types = ["parallel", "parallel"]} ins(%68 : tensor<1x6x128xf32>) outs(%69 : tensor<6x128xf32>) {
    ^bb0(%in: f32, %out: f32):
      linalg.yield %in : f32
    } -> tensor<6x128xf32>
    %71 = tensor.empty() : tensor<1x6x128xf32>
    %72 = linalg.generic {indexing_maps = [#map2, #map5], iterator_types = ["parallel", "parallel", "parallel"]} ins(%2 : tensor<1x6xi64>) outs(%71 : tensor<1x6x128xf32>) {
    ^bb0(%in: i64, %out: f32):
      %3850 = arith.index_cast %in : i64 to index
      %3851 = linalg.index 2 : index
      %extracted = tensor.extract %66[%3850, %3851] : tensor<6x128xf32>
      linalg.yield %extracted : f32
    } -> tensor<1x6x128xf32>
    %73 = tosa.reshape %72 {new_shape = array<i64: 1, 1, 6, 128>} : (tensor<1x6x128xf32>) -> tensor<1x1x6x128xf32>
    %74 = tensor.empty() : tensor<1x6x128xf32>
    %75 = linalg.generic {indexing_maps = [#map2, #map5], iterator_types = ["parallel", "parallel", "parallel"]} ins(%2 : tensor<1x6xi64>) outs(%74 : tensor<1x6x128xf32>) {
    ^bb0(%in: i64, %out: f32):
      %3850 = arith.index_cast %in : i64 to index
      %3851 = linalg.index 2 : index
      %extracted = tensor.extract %70[%3850, %3851] : tensor<6x128xf32>
      linalg.yield %extracted : f32
    } -> tensor<1x6x128xf32>
    %76 = tosa.reshape %75 {new_shape = array<i64: 1, 1, 6, 128>} : (tensor<1x6x128xf32>) -> tensor<1x1x6x128xf32>
    %77 = tosa.mul %56, %73 {shift = 0 : i8} : (tensor<1x32x6x128xf32>, tensor<1x1x6x128xf32>) -> tensor<1x32x6x128xf32>
    %extracted_slice_16 = tensor.extract_slice %56[0, 0, 0, 0] [1, 32, 6, 64] [1, 1, 1, 1] : tensor<1x32x6x128xf32> to tensor<1x32x6x64xf32>
    %extracted_slice_17 = tensor.extract_slice %56[0, 0, 0, 64] [1, 32, 6, 64] [1, 1, 1, 1] : tensor<1x32x6x128xf32> to tensor<1x32x6x64xf32>
    %78 = tensor.empty() : tensor<1x32x6x64xf32>
    %79 = linalg.negf ins(%extracted_slice_17 : tensor<1x32x6x64xf32>) outs(%78 : tensor<1x32x6x64xf32>) -> tensor<1x32x6x64xf32>
    %80 = tensor.empty() : tensor<1x32x6x128xf32>
    %inserted_slice = tensor.insert_slice %79 into %80[0, 0, 0, 0] [1, 32, 6, 64] [1, 1, 1, 1] : tensor<1x32x6x64xf32> into tensor<1x32x6x128xf32>
    %inserted_slice_18 = tensor.insert_slice %extracted_slice_16 into %inserted_slice[0, 0, 0, 64] [1, 32, 6, 64] [1, 1, 1, 1] : tensor<1x32x6x64xf32> into tensor<1x32x6x128xf32>
    %81 = tosa.mul %inserted_slice_18, %76 {shift = 0 : i8} : (tensor<1x32x6x128xf32>, tensor<1x1x6x128xf32>) -> tensor<1x32x6x128xf32>
    %82 = tosa.add %77, %81 : (tensor<1x32x6x128xf32>, tensor<1x32x6x128xf32>) -> tensor<1x32x6x128xf32>
    %83 = tosa.mul %59, %73 {shift = 0 : i8} : (tensor<1x32x6x128xf32>, tensor<1x1x6x128xf32>) -> tensor<1x32x6x128xf32>
    %extracted_slice_19 = tensor.extract_slice %59[0, 0, 0, 0] [1, 32, 6, 64] [1, 1, 1, 1] : tensor<1x32x6x128xf32> to tensor<1x32x6x64xf32>
    %extracted_slice_20 = tensor.extract_slice %59[0, 0, 0, 64] [1, 32, 6, 64] [1, 1, 1, 1] : tensor<1x32x6x128xf32> to tensor<1x32x6x64xf32>
    %84 = tensor.empty() : tensor<1x32x6x64xf32>
    %85 = linalg.negf ins(%extracted_slice_20 : tensor<1x32x6x64xf32>) outs(%84 : tensor<1x32x6x64xf32>) -> tensor<1x32x6x64xf32>
    %86 = tensor.empty() : tensor<1x32x6x128xf32>
    %inserted_slice_21 = tensor.insert_slice %85 into %86[0, 0, 0, 0] [1, 32, 6, 64] [1, 1, 1, 1] : tensor<1x32x6x64xf32> into tensor<1x32x6x128xf32>
    %inserted_slice_22 = tensor.insert_slice %extracted_slice_19 into %inserted_slice_21[0, 0, 0, 64] [1, 32, 6, 64] [1, 1, 1, 1] : tensor<1x32x6x64xf32> into tensor<1x32x6x128xf32>
    %87 = tosa.mul %inserted_slice_22, %76 {shift = 0 : i8} : (tensor<1x32x6x128xf32>, tensor<1x1x6x128xf32>) -> tensor<1x32x6x128xf32>
    %88 = tosa.add %83, %87 : (tensor<1x32x6x128xf32>, tensor<1x32x6x128xf32>) -> tensor<1x32x6x128xf32>
    %89 = "tosa.const"() <{value = dense<[0, 1, 3, 2]> : tensor<4xi32>}> : () -> tensor<4xi32>
    %90 = tosa.transpose %88, %89 : (tensor<1x32x6x128xf32>, tensor<4xi32>) -> tensor<1x32x128x6xf32>
    %91 = tosa.reshape %82 {new_shape = array<i64: 32, 6, 128>} : (tensor<1x32x6x128xf32>) -> tensor<32x6x128xf32>
    %92 = tosa.reshape %90 {new_shape = array<i64: 32, 128, 6>} : (tensor<1x32x128x6xf32>) -> tensor<32x128x6xf32>
    %93 = tosa.matmul %91, %92 : (tensor<32x6x128xf32>, tensor<32x128x6xf32>) -> tensor<32x6x6xf32>
    %94 = tosa.reshape %93 {new_shape = array<i64: 1, 32, 6, 6>} : (tensor<32x6x6xf32>) -> tensor<1x32x6x6xf32>
    %95 = "tosa.const"() <{value = dense<11.3137083> : tensor<1x32x6x6xf32>}> : () -> tensor<1x32x6x6xf32>
    %96 = tosa.reciprocal %95 : (tensor<1x32x6x6xf32>) -> tensor<1x32x6x6xf32>
    %97 = tosa.mul %94, %96 {shift = 0 : i8} : (tensor<1x32x6x6xf32>, tensor<1x32x6x6xf32>) -> tensor<1x32x6x6xf32>
    %98 = tosa.add %97, %27 : (tensor<1x32x6x6xf32>, tensor<1x1x6x6xf32>) -> tensor<1x32x6x6xf32>
    %99 = tosa.reduce_max %98 {axis = 3 : i32} : (tensor<1x32x6x6xf32>) -> tensor<1x32x6x1xf32>
    %100 = tosa.sub %98, %99 : (tensor<1x32x6x6xf32>, tensor<1x32x6x1xf32>) -> tensor<1x32x6x6xf32>
    %101 = tosa.exp %100 : (tensor<1x32x6x6xf32>) -> tensor<1x32x6x6xf32>
    %102 = tosa.reduce_sum %101 {axis = 3 : i32} : (tensor<1x32x6x6xf32>) -> tensor<1x32x6x1xf32>
    %103 = tosa.reciprocal %102 : (tensor<1x32x6x1xf32>) -> tensor<1x32x6x1xf32>
    %104 = tosa.mul %101, %103 {shift = 0 : i8} : (tensor<1x32x6x6xf32>, tensor<1x32x6x1xf32>) -> tensor<1x32x6x6xf32>
    %105 = tosa.reshape %104 {new_shape = array<i64: 32, 6, 6>} : (tensor<1x32x6x6xf32>) -> tensor<32x6x6xf32>
    %106 = tosa.reshape %62 {new_shape = array<i64: 32, 6, 128>} : (tensor<1x32x6x128xf32>) -> tensor<32x6x128xf32>
    %107 = tosa.matmul %105, %106 : (tensor<32x6x6xf32>, tensor<32x6x128xf32>) -> tensor<32x6x128xf32>
    %108 = tosa.reshape %107 {new_shape = array<i64: 1, 32, 6, 128>} : (tensor<32x6x128xf32>) -> tensor<1x32x6x128xf32>
    %109 = "tosa.const"() <{value = dense<[0, 2, 1, 3]> : tensor<4xi32>}> : () -> tensor<4xi32>
    %110 = tosa.transpose %108, %109 : (tensor<1x32x6x128xf32>, tensor<4xi32>) -> tensor<1x6x32x128xf32>
    %111 = tosa.identity %110 : (tensor<1x6x32x128xf32>) -> tensor<1x6x32x128xf32>
    %112 = tosa.reshape %111 {new_shape = array<i64: 1, 6, 4096>} : (tensor<1x6x32x128xf32>) -> tensor<1x6x4096xf32>
    %113 = "tosa.const"() <{value = dense<[1, 0]> : tensor<2xi32>}> : () -> tensor<2xi32>
    %114 = tosa.transpose %arg69, %113 : (tensor<4096x4096xf32>, tensor<2xi32>) -> tensor<4096x4096xf32>
    %115 = tosa.reshape %112 {new_shape = array<i64: 6, 4096>} : (tensor<1x6x4096xf32>) -> tensor<6x4096xf32>
    %cst_23 = arith.constant dense<0.000000e+00> : tensor<6x4096xf32>
    %116 = linalg.matmul {cast = #linalg.type_fn<cast_signed>} ins(%115, %114 : tensor<6x4096xf32>, tensor<4096x4096xf32>) outs(%cst_23 : tensor<6x4096xf32>) -> tensor<6x4096xf32>
    %117 = tosa.reshape %116 {new_shape = array<i64: 1, 6, 4096>} : (tensor<6x4096xf32>) -> tensor<1x6x4096xf32>
    %118 = tosa.add %6, %117 : (tensor<1x6x4096xf32>, tensor<1x6x4096xf32>) -> tensor<1x6x4096xf32>
    %119 = tensor.empty() : tensor<1x6x4096xf32>
    %c2_i32_24 = arith.constant 2 : i32
    %120 = linalg.generic {indexing_maps = [#map5, #map5], iterator_types = ["parallel", "parallel", "parallel"]} ins(%118 : tensor<1x6x4096xf32>) outs(%119 : tensor<1x6x4096xf32>) {
    ^bb0(%in: f32, %out: f32):
      %3850 = math.fpowi %in, %c2_i32_24 : f32, i32
      linalg.yield %3850 : f32
    } -> tensor<1x6x4096xf32>
    %cst_25 = arith.constant dense<0.000000e+00> : tensor<1x6x1xf32>
    %121 = linalg.generic {indexing_maps = [#map6, #map7], iterator_types = ["parallel", "parallel", "reduction", "parallel"]} ins(%120 : tensor<1x6x4096xf32>) outs(%cst_25 : tensor<1x6x1xf32>) {
    ^bb0(%in: f32, %out: f32):
      %cst_807 = arith.constant 4.096000e+03 : f32
      %3850 = arith.divf %in, %cst_807 : f32
      %3851 = arith.addf %3850, %out : f32
      linalg.yield %3851 : f32
    } -> tensor<1x6x1xf32>
    %122 = "tosa.const"() <{value = dense<9.99999997E-7> : tensor<1x6x1xf32>}> : () -> tensor<1x6x1xf32>
    %123 = tosa.add %121, %122 : (tensor<1x6x1xf32>, tensor<1x6x1xf32>) -> tensor<1x6x1xf32>
    %124 = tosa.rsqrt %123 : (tensor<1x6x1xf32>) -> tensor<1x6x1xf32>
    %125 = tosa.mul %118, %124 {shift = 0 : i8} : (tensor<1x6x4096xf32>, tensor<1x6x1xf32>) -> tensor<1x6x4096xf32>
    %126 = tosa.reshape %arg1 {new_shape = array<i64: 1, 1, 4096>} : (tensor<4096xf32>) -> tensor<1x1x4096xf32>
    %127 = tosa.mul %126, %125 {shift = 0 : i8} : (tensor<1x1x4096xf32>, tensor<1x6x4096xf32>) -> tensor<1x6x4096xf32>
    %128 = "tosa.const"() <{value = dense<[1, 0]> : tensor<2xi32>}> : () -> tensor<2xi32>
    %129 = tosa.transpose %arg70, %128 : (tensor<11008x4096xf32>, tensor<2xi32>) -> tensor<4096x11008xf32>
    %130 = tosa.reshape %127 {new_shape = array<i64: 6, 4096>} : (tensor<1x6x4096xf32>) -> tensor<6x4096xf32>
    %cst_26 = arith.constant dense<0.000000e+00> : tensor<6x11008xf32>
    %131 = linalg.matmul {cast = #linalg.type_fn<cast_signed>} ins(%130, %129 : tensor<6x4096xf32>, tensor<4096x11008xf32>) outs(%cst_26 : tensor<6x11008xf32>) -> tensor<6x11008xf32>
    %132 = tosa.reshape %131 {new_shape = array<i64: 1, 6, 11008>} : (tensor<6x11008xf32>) -> tensor<1x6x11008xf32>
    %133 = tosa.sigmoid %132 : (tensor<1x6x11008xf32>) -> tensor<1x6x11008xf32>
    %134 = tosa.mul %132, %133 {shift = 0 : i8} : (tensor<1x6x11008xf32>, tensor<1x6x11008xf32>) -> tensor<1x6x11008xf32>
    %135 = "tosa.const"() <{value = dense<[1, 0]> : tensor<2xi32>}> : () -> tensor<2xi32>
    %136 = tosa.transpose %arg71, %135 : (tensor<11008x4096xf32>, tensor<2xi32>) -> tensor<4096x11008xf32>
    %137 = tosa.reshape %127 {new_shape = array<i64: 6, 4096>} : (tensor<1x6x4096xf32>) -> tensor<6x4096xf32>
    %cst_27 = arith.constant dense<0.000000e+00> : tensor<6x11008xf32>
    %138 = linalg.matmul {cast = #linalg.type_fn<cast_signed>} ins(%137, %136 : tensor<6x4096xf32>, tensor<4096x11008xf32>) outs(%cst_27 : tensor<6x11008xf32>) -> tensor<6x11008xf32>
    %139 = tosa.reshape %138 {new_shape = array<i64: 1, 6, 11008>} : (tensor<6x11008xf32>) -> tensor<1x6x11008xf32>
    %140 = tosa.mul %134, %139 {shift = 0 : i8} : (tensor<1x6x11008xf32>, tensor<1x6x11008xf32>) -> tensor<1x6x11008xf32>
    %141 = "tosa.const"() <{value = dense<[1, 0]> : tensor<2xi32>}> : () -> tensor<2xi32>
    %142 = tosa.transpose %arg72, %141 : (tensor<4096x11008xf32>, tensor<2xi32>) -> tensor<11008x4096xf32>
    %143 = tosa.reshape %140 {new_shape = array<i64: 6, 11008>} : (tensor<1x6x11008xf32>) -> tensor<6x11008xf32>
    %cst_28 = arith.constant dense<0.000000e+00> : tensor<6x4096xf32>
    %144 = linalg.matmul {cast = #linalg.type_fn<cast_signed>} ins(%143, %142 : tensor<6x11008xf32>, tensor<11008x4096xf32>) outs(%cst_28 : tensor<6x4096xf32>) -> tensor<6x4096xf32>
    %145 = tosa.reshape %144 {new_shape = array<i64: 1, 6, 4096>} : (tensor<6x4096xf32>) -> tensor<1x6x4096xf32>
    %146 = tosa.add %118, %145 : (tensor<1x6x4096xf32>, tensor<1x6x4096xf32>) -> tensor<1x6x4096xf32>
    %147 = tensor.empty() : tensor<1x6x4096xf32>
    %c2_i32_29 = arith.constant 2 : i32
    %148 = linalg.generic {indexing_maps = [#map5, #map5], iterator_types = ["parallel", "parallel", "parallel"]} ins(%146 : tensor<1x6x4096xf32>) outs(%147 : tensor<1x6x4096xf32>) {
    ^bb0(%in: f32, %out: f32):
      %3850 = math.fpowi %in, %c2_i32_29 : f32, i32
      linalg.yield %3850 : f32
    } -> tensor<1x6x4096xf32>
    %cst_30 = arith.constant dense<0.000000e+00> : tensor<1x6x1xf32>
    %149 = linalg.generic {indexing_maps = [#map6, #map7], iterator_types = ["parallel", "parallel", "reduction", "parallel"]} ins(%148 : tensor<1x6x4096xf32>) outs(%cst_30 : tensor<1x6x1xf32>) {
    ^bb0(%in: f32, %out: f32):
      %cst_807 = arith.constant 4.096000e+03 : f32
      %3850 = arith.divf %in, %cst_807 : f32
      %3851 = arith.addf %3850, %out : f32
      linalg.yield %3851 : f32
    } -> tensor<1x6x1xf32>
    %150 = "tosa.const"() <{value = dense<9.99999997E-7> : tensor<1x6x1xf32>}> : () -> tensor<1x6x1xf32>
    %151 = tosa.add %149, %150 : (tensor<1x6x1xf32>, tensor<1x6x1xf32>) -> tensor<1x6x1xf32>
    %152 = tosa.rsqrt %151 : (tensor<1x6x1xf32>) -> tensor<1x6x1xf32>
    %153 = tosa.mul %146, %152 {shift = 0 : i8} : (tensor<1x6x4096xf32>, tensor<1x6x1xf32>) -> tensor<1x6x4096xf32>
    %154 = tosa.reshape %arg2 {new_shape = array<i64: 1, 1, 4096>} : (tensor<4096xf32>) -> tensor<1x1x4096xf32>
    %155 = tosa.mul %154, %153 {shift = 0 : i8} : (tensor<1x1x4096xf32>, tensor<1x6x4096xf32>) -> tensor<1x6x4096xf32>
    %156 = "tosa.const"() <{value = dense<[1, 0]> : tensor<2xi32>}> : () -> tensor<2xi32>
    %157 = tosa.transpose %arg73, %156 : (tensor<4096x4096xf32>, tensor<2xi32>) -> tensor<4096x4096xf32>
    %158 = tosa.reshape %155 {new_shape = array<i64: 6, 4096>} : (tensor<1x6x4096xf32>) -> tensor<6x4096xf32>
    %cst_31 = arith.constant dense<0.000000e+00> : tensor<6x4096xf32>
    %159 = linalg.matmul {cast = #linalg.type_fn<cast_signed>} ins(%158, %157 : tensor<6x4096xf32>, tensor<4096x4096xf32>) outs(%cst_31 : tensor<6x4096xf32>) -> tensor<6x4096xf32>
    %160 = tosa.reshape %159 {new_shape = array<i64: 1, 6, 4096>} : (tensor<6x4096xf32>) -> tensor<1x6x4096xf32>
    %161 = "tosa.const"() <{value = dense<[1, 0]> : tensor<2xi32>}> : () -> tensor<2xi32>
    %162 = tosa.transpose %arg74, %161 : (tensor<4096x4096xf32>, tensor<2xi32>) -> tensor<4096x4096xf32>
    %163 = tosa.reshape %155 {new_shape = array<i64: 6, 4096>} : (tensor<1x6x4096xf32>) -> tensor<6x4096xf32>
    %cst_32 = arith.constant dense<0.000000e+00> : tensor<6x4096xf32>
    %164 = linalg.matmul {cast = #linalg.type_fn<cast_signed>} ins(%163, %162 : tensor<6x4096xf32>, tensor<4096x4096xf32>) outs(%cst_32 : tensor<6x4096xf32>) -> tensor<6x4096xf32>
    %165 = tosa.identity %164 : (tensor<6x4096xf32>) -> tensor<6x4096xf32>
    %166 = tosa.reshape %164 {new_shape = array<i64: 1, 6, 4096>} : (tensor<6x4096xf32>) -> tensor<1x6x4096xf32>
    %167 = "tosa.const"() <{value = dense<[1, 0]> : tensor<2xi32>}> : () -> tensor<2xi32>
    %168 = tosa.transpose %arg75, %167 : (tensor<4096x4096xf32>, tensor<2xi32>) -> tensor<4096x4096xf32>
    %169 = tosa.reshape %155 {new_shape = array<i64: 6, 4096>} : (tensor<1x6x4096xf32>) -> tensor<6x4096xf32>
    %cst_33 = arith.constant dense<0.000000e+00> : tensor<6x4096xf32>
    %170 = linalg.matmul {cast = #linalg.type_fn<cast_signed>} ins(%169, %168 : tensor<6x4096xf32>, tensor<4096x4096xf32>) outs(%cst_33 : tensor<6x4096xf32>) -> tensor<6x4096xf32>
    %171 = tosa.identity %170 : (tensor<6x4096xf32>) -> tensor<6x4096xf32>
    %172 = tosa.reshape %170 {new_shape = array<i64: 1, 6, 4096>} : (tensor<6x4096xf32>) -> tensor<1x6x4096xf32>
    %173 = tosa.reshape %160 {new_shape = array<i64: 1, 6, 32, 128>} : (tensor<1x6x4096xf32>) -> tensor<1x6x32x128xf32>
    %174 = "tosa.const"() <{value = dense<[0, 2, 1, 3]> : tensor<4xi32>}> : () -> tensor<4xi32>
    %175 = tosa.transpose %173, %174 : (tensor<1x6x32x128xf32>, tensor<4xi32>) -> tensor<1x32x6x128xf32>
    %176 = tosa.reshape %166 {new_shape = array<i64: 1, 6, 32, 128>} : (tensor<1x6x4096xf32>) -> tensor<1x6x32x128xf32>
    %177 = "tosa.const"() <{value = dense<[0, 2, 1, 3]> : tensor<4xi32>}> : () -> tensor<4xi32>
    %178 = tosa.transpose %176, %177 : (tensor<1x6x32x128xf32>, tensor<4xi32>) -> tensor<1x32x6x128xf32>
    %179 = tosa.reshape %172 {new_shape = array<i64: 1, 6, 32, 128>} : (tensor<1x6x4096xf32>) -> tensor<1x6x32x128xf32>
    %180 = "tosa.const"() <{value = dense<[0, 2, 1, 3]> : tensor<4xi32>}> : () -> tensor<4xi32>
    %181 = tosa.transpose %179, %180 : (tensor<1x6x32x128xf32>, tensor<4xi32>) -> tensor<1x32x6x128xf32>
    %extracted_slice_34 = tensor.extract_slice %arg293[0, 0, 0, 0] [1, 1, 2048, 128] [1, 1, 1, 1] : tensor<1x1x2048x128xf32> to tensor<1x1x2048x128xf32>
    %extracted_slice_35 = tensor.extract_slice %extracted_slice_34[0, 0, 0, 0] [1, 1, 2048, 128] [1, 1, 1, 1] : tensor<1x1x2048x128xf32> to tensor<1x1x2048x128xf32>
    %extracted_slice_36 = tensor.extract_slice %extracted_slice_35[0, 0, 0, 0] [1, 1, 6, 128] [1, 1, 1, 1] : tensor<1x1x2048x128xf32> to tensor<1x1x6x128xf32>
    %extracted_slice_37 = tensor.extract_slice %arg294[0, 0, 0, 0] [1, 1, 2048, 128] [1, 1, 1, 1] : tensor<1x1x2048x128xf32> to tensor<1x1x2048x128xf32>
    %extracted_slice_38 = tensor.extract_slice %extracted_slice_37[0, 0, 0, 0] [1, 1, 2048, 128] [1, 1, 1, 1] : tensor<1x1x2048x128xf32> to tensor<1x1x2048x128xf32>
    %extracted_slice_39 = tensor.extract_slice %extracted_slice_38[0, 0, 0, 0] [1, 1, 6, 128] [1, 1, 1, 1] : tensor<1x1x2048x128xf32> to tensor<1x1x6x128xf32>
    %182 = tensor.empty() : tensor<1x6x128xf32>
    %183 = linalg.generic {indexing_maps = [#map8, #map5], iterator_types = ["parallel", "parallel", "parallel"]} ins(%extracted_slice_36 : tensor<1x1x6x128xf32>) outs(%182 : tensor<1x6x128xf32>) {
    ^bb0(%in: f32, %out: f32):
      linalg.yield %in : f32
    } -> tensor<1x6x128xf32>
    %184 = tensor.empty() : tensor<6x128xf32>
    %185 = linalg.generic {indexing_maps = [#map9, #map3], iterator_types = ["parallel", "parallel"]} ins(%183 : tensor<1x6x128xf32>) outs(%184 : tensor<6x128xf32>) {
    ^bb0(%in: f32, %out: f32):
      linalg.yield %in : f32
    } -> tensor<6x128xf32>
    %186 = tensor.empty() : tensor<1x6x128xf32>
    %187 = linalg.generic {indexing_maps = [#map8, #map5], iterator_types = ["parallel", "parallel", "parallel"]} ins(%extracted_slice_39 : tensor<1x1x6x128xf32>) outs(%186 : tensor<1x6x128xf32>) {
    ^bb0(%in: f32, %out: f32):
      linalg.yield %in : f32
    } -> tensor<1x6x128xf32>
    %188 = tensor.empty() : tensor<6x128xf32>
    %189 = linalg.generic {indexing_maps = [#map9, #map3], iterator_types = ["parallel", "parallel"]} ins(%187 : tensor<1x6x128xf32>) outs(%188 : tensor<6x128xf32>) {
    ^bb0(%in: f32, %out: f32):
      linalg.yield %in : f32
    } -> tensor<6x128xf32>
    %190 = tensor.empty() : tensor<1x6x128xf32>
    %191 = linalg.generic {indexing_maps = [#map2, #map5], iterator_types = ["parallel", "parallel", "parallel"]} ins(%2 : tensor<1x6xi64>) outs(%190 : tensor<1x6x128xf32>) {
    ^bb0(%in: i64, %out: f32):
      %3850 = arith.index_cast %in : i64 to index
      %3851 = linalg.index 2 : index
      %extracted = tensor.extract %185[%3850, %3851] : tensor<6x128xf32>
      linalg.yield %extracted : f32
    } -> tensor<1x6x128xf32>
    %192 = tosa.reshape %191 {new_shape = array<i64: 1, 1, 6, 128>} : (tensor<1x6x128xf32>) -> tensor<1x1x6x128xf32>
    %193 = tensor.empty() : tensor<1x6x128xf32>
    %194 = linalg.generic {indexing_maps = [#map2, #map5], iterator_types = ["parallel", "parallel", "parallel"]} ins(%2 : tensor<1x6xi64>) outs(%193 : tensor<1x6x128xf32>) {
    ^bb0(%in: i64, %out: f32):
      %3850 = arith.index_cast %in : i64 to index
      %3851 = linalg.index 2 : index
      %extracted = tensor.extract %189[%3850, %3851] : tensor<6x128xf32>
      linalg.yield %extracted : f32
    } -> tensor<1x6x128xf32>
    %195 = tosa.reshape %194 {new_shape = array<i64: 1, 1, 6, 128>} : (tensor<1x6x128xf32>) -> tensor<1x1x6x128xf32>
    %196 = tosa.mul %175, %192 {shift = 0 : i8} : (tensor<1x32x6x128xf32>, tensor<1x1x6x128xf32>) -> tensor<1x32x6x128xf32>
    %extracted_slice_40 = tensor.extract_slice %175[0, 0, 0, 0] [1, 32, 6, 64] [1, 1, 1, 1] : tensor<1x32x6x128xf32> to tensor<1x32x6x64xf32>
    %extracted_slice_41 = tensor.extract_slice %175[0, 0, 0, 64] [1, 32, 6, 64] [1, 1, 1, 1] : tensor<1x32x6x128xf32> to tensor<1x32x6x64xf32>
    %197 = tensor.empty() : tensor<1x32x6x64xf32>
    %198 = linalg.negf ins(%extracted_slice_41 : tensor<1x32x6x64xf32>) outs(%197 : tensor<1x32x6x64xf32>) -> tensor<1x32x6x64xf32>
    %199 = tensor.empty() : tensor<1x32x6x128xf32>
    %inserted_slice_42 = tensor.insert_slice %198 into %199[0, 0, 0, 0] [1, 32, 6, 64] [1, 1, 1, 1] : tensor<1x32x6x64xf32> into tensor<1x32x6x128xf32>
    %inserted_slice_43 = tensor.insert_slice %extracted_slice_40 into %inserted_slice_42[0, 0, 0, 64] [1, 32, 6, 64] [1, 1, 1, 1] : tensor<1x32x6x64xf32> into tensor<1x32x6x128xf32>
    %200 = tosa.mul %inserted_slice_43, %195 {shift = 0 : i8} : (tensor<1x32x6x128xf32>, tensor<1x1x6x128xf32>) -> tensor<1x32x6x128xf32>
    %201 = tosa.add %196, %200 : (tensor<1x32x6x128xf32>, tensor<1x32x6x128xf32>) -> tensor<1x32x6x128xf32>
    %202 = tosa.mul %178, %192 {shift = 0 : i8} : (tensor<1x32x6x128xf32>, tensor<1x1x6x128xf32>) -> tensor<1x32x6x128xf32>
    %extracted_slice_44 = tensor.extract_slice %178[0, 0, 0, 0] [1, 32, 6, 64] [1, 1, 1, 1] : tensor<1x32x6x128xf32> to tensor<1x32x6x64xf32>
    %extracted_slice_45 = tensor.extract_slice %178[0, 0, 0, 64] [1, 32, 6, 64] [1, 1, 1, 1] : tensor<1x32x6x128xf32> to tensor<1x32x6x64xf32>
    %203 = tensor.empty() : tensor<1x32x6x64xf32>
    %204 = linalg.negf ins(%extracted_slice_45 : tensor<1x32x6x64xf32>) outs(%203 : tensor<1x32x6x64xf32>) -> tensor<1x32x6x64xf32>
    %205 = tensor.empty() : tensor<1x32x6x128xf32>
    %inserted_slice_46 = tensor.insert_slice %204 into %205[0, 0, 0, 0] [1, 32, 6, 64] [1, 1, 1, 1] : tensor<1x32x6x64xf32> into tensor<1x32x6x128xf32>
    %inserted_slice_47 = tensor.insert_slice %extracted_slice_44 into %inserted_slice_46[0, 0, 0, 64] [1, 32, 6, 64] [1, 1, 1, 1] : tensor<1x32x6x64xf32> into tensor<1x32x6x128xf32>
    %206 = tosa.mul %inserted_slice_47, %195 {shift = 0 : i8} : (tensor<1x32x6x128xf32>, tensor<1x1x6x128xf32>) -> tensor<1x32x6x128xf32>
    %207 = tosa.add %202, %206 : (tensor<1x32x6x128xf32>, tensor<1x32x6x128xf32>) -> tensor<1x32x6x128xf32>
    %208 = "tosa.const"() <{value = dense<[0, 1, 3, 2]> : tensor<4xi32>}> : () -> tensor<4xi32>
    %209 = tosa.transpose %207, %208 : (tensor<1x32x6x128xf32>, tensor<4xi32>) -> tensor<1x32x128x6xf32>
    %210 = tosa.reshape %201 {new_shape = array<i64: 32, 6, 128>} : (tensor<1x32x6x128xf32>) -> tensor<32x6x128xf32>
    %211 = tosa.reshape %209 {new_shape = array<i64: 32, 128, 6>} : (tensor<1x32x128x6xf32>) -> tensor<32x128x6xf32>
    %212 = tosa.matmul %210, %211 : (tensor<32x6x128xf32>, tensor<32x128x6xf32>) -> tensor<32x6x6xf32>
    %213 = tosa.reshape %212 {new_shape = array<i64: 1, 32, 6, 6>} : (tensor<32x6x6xf32>) -> tensor<1x32x6x6xf32>
    %214 = "tosa.const"() <{value = dense<11.3137083> : tensor<1x32x6x6xf32>}> : () -> tensor<1x32x6x6xf32>
    %215 = tosa.reciprocal %214 : (tensor<1x32x6x6xf32>) -> tensor<1x32x6x6xf32>
    %216 = tosa.mul %213, %215 {shift = 0 : i8} : (tensor<1x32x6x6xf32>, tensor<1x32x6x6xf32>) -> tensor<1x32x6x6xf32>
    %217 = tosa.add %216, %27 : (tensor<1x32x6x6xf32>, tensor<1x1x6x6xf32>) -> tensor<1x32x6x6xf32>
    %218 = tosa.reduce_max %217 {axis = 3 : i32} : (tensor<1x32x6x6xf32>) -> tensor<1x32x6x1xf32>
    %219 = tosa.sub %217, %218 : (tensor<1x32x6x6xf32>, tensor<1x32x6x1xf32>) -> tensor<1x32x6x6xf32>
    %220 = tosa.exp %219 : (tensor<1x32x6x6xf32>) -> tensor<1x32x6x6xf32>
    %221 = tosa.reduce_sum %220 {axis = 3 : i32} : (tensor<1x32x6x6xf32>) -> tensor<1x32x6x1xf32>
    %222 = tosa.reciprocal %221 : (tensor<1x32x6x1xf32>) -> tensor<1x32x6x1xf32>
    %223 = tosa.mul %220, %222 {shift = 0 : i8} : (tensor<1x32x6x6xf32>, tensor<1x32x6x1xf32>) -> tensor<1x32x6x6xf32>
    %224 = tosa.reshape %223 {new_shape = array<i64: 32, 6, 6>} : (tensor<1x32x6x6xf32>) -> tensor<32x6x6xf32>
    %225 = tosa.reshape %181 {new_shape = array<i64: 32, 6, 128>} : (tensor<1x32x6x128xf32>) -> tensor<32x6x128xf32>
    %226 = tosa.matmul %224, %225 : (tensor<32x6x6xf32>, tensor<32x6x128xf32>) -> tensor<32x6x128xf32>
    %227 = tosa.reshape %226 {new_shape = array<i64: 1, 32, 6, 128>} : (tensor<32x6x128xf32>) -> tensor<1x32x6x128xf32>
    %228 = "tosa.const"() <{value = dense<[0, 2, 1, 3]> : tensor<4xi32>}> : () -> tensor<4xi32>
    %229 = tosa.transpose %227, %228 : (tensor<1x32x6x128xf32>, tensor<4xi32>) -> tensor<1x6x32x128xf32>
    %230 = tosa.identity %229 : (tensor<1x6x32x128xf32>) -> tensor<1x6x32x128xf32>
    %231 = tosa.reshape %230 {new_shape = array<i64: 1, 6, 4096>} : (tensor<1x6x32x128xf32>) -> tensor<1x6x4096xf32>
    %232 = "tosa.const"() <{value = dense<[1, 0]> : tensor<2xi32>}> : () -> tensor<2xi32>
    %233 = tosa.transpose %arg76, %232 : (tensor<4096x4096xf32>, tensor<2xi32>) -> tensor<4096x4096xf32>
    %234 = tosa.reshape %231 {new_shape = array<i64: 6, 4096>} : (tensor<1x6x4096xf32>) -> tensor<6x4096xf32>
    %cst_48 = arith.constant dense<0.000000e+00> : tensor<6x4096xf32>
    %235 = linalg.matmul {cast = #linalg.type_fn<cast_signed>} ins(%234, %233 : tensor<6x4096xf32>, tensor<4096x4096xf32>) outs(%cst_48 : tensor<6x4096xf32>) -> tensor<6x4096xf32>
    %236 = tosa.reshape %235 {new_shape = array<i64: 1, 6, 4096>} : (tensor<6x4096xf32>) -> tensor<1x6x4096xf32>
    %237 = tosa.add %146, %236 : (tensor<1x6x4096xf32>, tensor<1x6x4096xf32>) -> tensor<1x6x4096xf32>
    %238 = tensor.empty() : tensor<1x6x4096xf32>
    %c2_i32_49 = arith.constant 2 : i32
    %239 = linalg.generic {indexing_maps = [#map5, #map5], iterator_types = ["parallel", "parallel", "parallel"]} ins(%237 : tensor<1x6x4096xf32>) outs(%238 : tensor<1x6x4096xf32>) {
    ^bb0(%in: f32, %out: f32):
      %3850 = math.fpowi %in, %c2_i32_49 : f32, i32
      linalg.yield %3850 : f32
    } -> tensor<1x6x4096xf32>
    %cst_50 = arith.constant dense<0.000000e+00> : tensor<1x6x1xf32>
    %240 = linalg.generic {indexing_maps = [#map6, #map7], iterator_types = ["parallel", "parallel", "reduction", "parallel"]} ins(%239 : tensor<1x6x4096xf32>) outs(%cst_50 : tensor<1x6x1xf32>) {
    ^bb0(%in: f32, %out: f32):
      %cst_807 = arith.constant 4.096000e+03 : f32
      %3850 = arith.divf %in, %cst_807 : f32
      %3851 = arith.addf %3850, %out : f32
      linalg.yield %3851 : f32
    } -> tensor<1x6x1xf32>
    %241 = "tosa.const"() <{value = dense<9.99999997E-7> : tensor<1x6x1xf32>}> : () -> tensor<1x6x1xf32>
    %242 = tosa.add %240, %241 : (tensor<1x6x1xf32>, tensor<1x6x1xf32>) -> tensor<1x6x1xf32>
    %243 = tosa.rsqrt %242 : (tensor<1x6x1xf32>) -> tensor<1x6x1xf32>
    %244 = tosa.mul %237, %243 {shift = 0 : i8} : (tensor<1x6x4096xf32>, tensor<1x6x1xf32>) -> tensor<1x6x4096xf32>
    %245 = tosa.reshape %arg3 {new_shape = array<i64: 1, 1, 4096>} : (tensor<4096xf32>) -> tensor<1x1x4096xf32>
    %246 = tosa.mul %245, %244 {shift = 0 : i8} : (tensor<1x1x4096xf32>, tensor<1x6x4096xf32>) -> tensor<1x6x4096xf32>
    %247 = "tosa.const"() <{value = dense<[1, 0]> : tensor<2xi32>}> : () -> tensor<2xi32>
    %248 = tosa.transpose %arg77, %247 : (tensor<11008x4096xf32>, tensor<2xi32>) -> tensor<4096x11008xf32>
    %249 = tosa.reshape %246 {new_shape = array<i64: 6, 4096>} : (tensor<1x6x4096xf32>) -> tensor<6x4096xf32>
    %cst_51 = arith.constant dense<0.000000e+00> : tensor<6x11008xf32>
    %250 = linalg.matmul {cast = #linalg.type_fn<cast_signed>} ins(%249, %248 : tensor<6x4096xf32>, tensor<4096x11008xf32>) outs(%cst_51 : tensor<6x11008xf32>) -> tensor<6x11008xf32>
    %251 = tosa.reshape %250 {new_shape = array<i64: 1, 6, 11008>} : (tensor<6x11008xf32>) -> tensor<1x6x11008xf32>
    %252 = tosa.sigmoid %251 : (tensor<1x6x11008xf32>) -> tensor<1x6x11008xf32>
    %253 = tosa.mul %251, %252 {shift = 0 : i8} : (tensor<1x6x11008xf32>, tensor<1x6x11008xf32>) -> tensor<1x6x11008xf32>
    %254 = "tosa.const"() <{value = dense<[1, 0]> : tensor<2xi32>}> : () -> tensor<2xi32>
    %255 = tosa.transpose %arg78, %254 : (tensor<11008x4096xf32>, tensor<2xi32>) -> tensor<4096x11008xf32>
    %256 = tosa.reshape %246 {new_shape = array<i64: 6, 4096>} : (tensor<1x6x4096xf32>) -> tensor<6x4096xf32>
    %cst_52 = arith.constant dense<0.000000e+00> : tensor<6x11008xf32>
    %257 = linalg.matmul {cast = #linalg.type_fn<cast_signed>} ins(%256, %255 : tensor<6x4096xf32>, tensor<4096x11008xf32>) outs(%cst_52 : tensor<6x11008xf32>) -> tensor<6x11008xf32>
    %258 = tosa.reshape %257 {new_shape = array<i64: 1, 6, 11008>} : (tensor<6x11008xf32>) -> tensor<1x6x11008xf32>
    %259 = tosa.mul %253, %258 {shift = 0 : i8} : (tensor<1x6x11008xf32>, tensor<1x6x11008xf32>) -> tensor<1x6x11008xf32>
    %260 = "tosa.const"() <{value = dense<[1, 0]> : tensor<2xi32>}> : () -> tensor<2xi32>
    %261 = tosa.transpose %arg79, %260 : (tensor<4096x11008xf32>, tensor<2xi32>) -> tensor<11008x4096xf32>
    %262 = tosa.reshape %259 {new_shape = array<i64: 6, 11008>} : (tensor<1x6x11008xf32>) -> tensor<6x11008xf32>
    %cst_53 = arith.constant dense<0.000000e+00> : tensor<6x4096xf32>
    %263 = linalg.matmul {cast = #linalg.type_fn<cast_signed>} ins(%262, %261 : tensor<6x11008xf32>, tensor<11008x4096xf32>) outs(%cst_53 : tensor<6x4096xf32>) -> tensor<6x4096xf32>
    %264 = tosa.reshape %263 {new_shape = array<i64: 1, 6, 4096>} : (tensor<6x4096xf32>) -> tensor<1x6x4096xf32>
    %265 = tosa.add %237, %264 : (tensor<1x6x4096xf32>, tensor<1x6x4096xf32>) -> tensor<1x6x4096xf32>
    %266 = tensor.empty() : tensor<1x6x4096xf32>
    %c2_i32_54 = arith.constant 2 : i32
    %267 = linalg.generic {indexing_maps = [#map5, #map5], iterator_types = ["parallel", "parallel", "parallel"]} ins(%265 : tensor<1x6x4096xf32>) outs(%266 : tensor<1x6x4096xf32>) {
    ^bb0(%in: f32, %out: f32):
      %3850 = math.fpowi %in, %c2_i32_54 : f32, i32
      linalg.yield %3850 : f32
    } -> tensor<1x6x4096xf32>
    %cst_55 = arith.constant dense<0.000000e+00> : tensor<1x6x1xf32>
    %268 = linalg.generic {indexing_maps = [#map6, #map7], iterator_types = ["parallel", "parallel", "reduction", "parallel"]} ins(%267 : tensor<1x6x4096xf32>) outs(%cst_55 : tensor<1x6x1xf32>) {
    ^bb0(%in: f32, %out: f32):
      %cst_807 = arith.constant 4.096000e+03 : f32
      %3850 = arith.divf %in, %cst_807 : f32
      %3851 = arith.addf %3850, %out : f32
      linalg.yield %3851 : f32
    } -> tensor<1x6x1xf32>
    %269 = "tosa.const"() <{value = dense<9.99999997E-7> : tensor<1x6x1xf32>}> : () -> tensor<1x6x1xf32>
    %270 = tosa.add %268, %269 : (tensor<1x6x1xf32>, tensor<1x6x1xf32>) -> tensor<1x6x1xf32>
    %271 = tosa.rsqrt %270 : (tensor<1x6x1xf32>) -> tensor<1x6x1xf32>
    %272 = tosa.mul %265, %271 {shift = 0 : i8} : (tensor<1x6x4096xf32>, tensor<1x6x1xf32>) -> tensor<1x6x4096xf32>
    %273 = tosa.reshape %arg4 {new_shape = array<i64: 1, 1, 4096>} : (tensor<4096xf32>) -> tensor<1x1x4096xf32>
    %274 = tosa.mul %273, %272 {shift = 0 : i8} : (tensor<1x1x4096xf32>, tensor<1x6x4096xf32>) -> tensor<1x6x4096xf32>
    %275 = "tosa.const"() <{value = dense<[1, 0]> : tensor<2xi32>}> : () -> tensor<2xi32>
    %276 = tosa.transpose %arg80, %275 : (tensor<4096x4096xf32>, tensor<2xi32>) -> tensor<4096x4096xf32>
    %277 = tosa.reshape %274 {new_shape = array<i64: 6, 4096>} : (tensor<1x6x4096xf32>) -> tensor<6x4096xf32>
    %cst_56 = arith.constant dense<0.000000e+00> : tensor<6x4096xf32>
    %278 = linalg.matmul {cast = #linalg.type_fn<cast_signed>} ins(%277, %276 : tensor<6x4096xf32>, tensor<4096x4096xf32>) outs(%cst_56 : tensor<6x4096xf32>) -> tensor<6x4096xf32>
    %279 = tosa.reshape %278 {new_shape = array<i64: 1, 6, 4096>} : (tensor<6x4096xf32>) -> tensor<1x6x4096xf32>
    %280 = "tosa.const"() <{value = dense<[1, 0]> : tensor<2xi32>}> : () -> tensor<2xi32>
    %281 = tosa.transpose %arg81, %280 : (tensor<4096x4096xf32>, tensor<2xi32>) -> tensor<4096x4096xf32>
    %282 = tosa.reshape %274 {new_shape = array<i64: 6, 4096>} : (tensor<1x6x4096xf32>) -> tensor<6x4096xf32>
    %cst_57 = arith.constant dense<0.000000e+00> : tensor<6x4096xf32>
    %283 = linalg.matmul {cast = #linalg.type_fn<cast_signed>} ins(%282, %281 : tensor<6x4096xf32>, tensor<4096x4096xf32>) outs(%cst_57 : tensor<6x4096xf32>) -> tensor<6x4096xf32>
    %284 = tosa.identity %283 : (tensor<6x4096xf32>) -> tensor<6x4096xf32>
    %285 = tosa.reshape %283 {new_shape = array<i64: 1, 6, 4096>} : (tensor<6x4096xf32>) -> tensor<1x6x4096xf32>
    %286 = "tosa.const"() <{value = dense<[1, 0]> : tensor<2xi32>}> : () -> tensor<2xi32>
    %287 = tosa.transpose %arg82, %286 : (tensor<4096x4096xf32>, tensor<2xi32>) -> tensor<4096x4096xf32>
    %288 = tosa.reshape %274 {new_shape = array<i64: 6, 4096>} : (tensor<1x6x4096xf32>) -> tensor<6x4096xf32>
    %cst_58 = arith.constant dense<0.000000e+00> : tensor<6x4096xf32>
    %289 = linalg.matmul {cast = #linalg.type_fn<cast_signed>} ins(%288, %287 : tensor<6x4096xf32>, tensor<4096x4096xf32>) outs(%cst_58 : tensor<6x4096xf32>) -> tensor<6x4096xf32>
    %290 = tosa.identity %289 : (tensor<6x4096xf32>) -> tensor<6x4096xf32>
    %291 = tosa.reshape %289 {new_shape = array<i64: 1, 6, 4096>} : (tensor<6x4096xf32>) -> tensor<1x6x4096xf32>
    %292 = tosa.reshape %279 {new_shape = array<i64: 1, 6, 32, 128>} : (tensor<1x6x4096xf32>) -> tensor<1x6x32x128xf32>
    %293 = "tosa.const"() <{value = dense<[0, 2, 1, 3]> : tensor<4xi32>}> : () -> tensor<4xi32>
    %294 = tosa.transpose %292, %293 : (tensor<1x6x32x128xf32>, tensor<4xi32>) -> tensor<1x32x6x128xf32>
    %295 = tosa.reshape %285 {new_shape = array<i64: 1, 6, 32, 128>} : (tensor<1x6x4096xf32>) -> tensor<1x6x32x128xf32>
    %296 = "tosa.const"() <{value = dense<[0, 2, 1, 3]> : tensor<4xi32>}> : () -> tensor<4xi32>
    %297 = tosa.transpose %295, %296 : (tensor<1x6x32x128xf32>, tensor<4xi32>) -> tensor<1x32x6x128xf32>
    %298 = tosa.reshape %291 {new_shape = array<i64: 1, 6, 32, 128>} : (tensor<1x6x4096xf32>) -> tensor<1x6x32x128xf32>
    %299 = "tosa.const"() <{value = dense<[0, 2, 1, 3]> : tensor<4xi32>}> : () -> tensor<4xi32>
    %300 = tosa.transpose %298, %299 : (tensor<1x6x32x128xf32>, tensor<4xi32>) -> tensor<1x32x6x128xf32>
    %extracted_slice_59 = tensor.extract_slice %arg295[0, 0, 0, 0] [1, 1, 2048, 128] [1, 1, 1, 1] : tensor<1x1x2048x128xf32> to tensor<1x1x2048x128xf32>
    %extracted_slice_60 = tensor.extract_slice %extracted_slice_59[0, 0, 0, 0] [1, 1, 2048, 128] [1, 1, 1, 1] : tensor<1x1x2048x128xf32> to tensor<1x1x2048x128xf32>
    %extracted_slice_61 = tensor.extract_slice %extracted_slice_60[0, 0, 0, 0] [1, 1, 6, 128] [1, 1, 1, 1] : tensor<1x1x2048x128xf32> to tensor<1x1x6x128xf32>
    %extracted_slice_62 = tensor.extract_slice %arg296[0, 0, 0, 0] [1, 1, 2048, 128] [1, 1, 1, 1] : tensor<1x1x2048x128xf32> to tensor<1x1x2048x128xf32>
    %extracted_slice_63 = tensor.extract_slice %extracted_slice_62[0, 0, 0, 0] [1, 1, 2048, 128] [1, 1, 1, 1] : tensor<1x1x2048x128xf32> to tensor<1x1x2048x128xf32>
    %extracted_slice_64 = tensor.extract_slice %extracted_slice_63[0, 0, 0, 0] [1, 1, 6, 128] [1, 1, 1, 1] : tensor<1x1x2048x128xf32> to tensor<1x1x6x128xf32>
    %301 = tensor.empty() : tensor<1x6x128xf32>
    %302 = linalg.generic {indexing_maps = [#map8, #map5], iterator_types = ["parallel", "parallel", "parallel"]} ins(%extracted_slice_61 : tensor<1x1x6x128xf32>) outs(%301 : tensor<1x6x128xf32>) {
    ^bb0(%in: f32, %out: f32):
      linalg.yield %in : f32
    } -> tensor<1x6x128xf32>
    %303 = tensor.empty() : tensor<6x128xf32>
    %304 = linalg.generic {indexing_maps = [#map9, #map3], iterator_types = ["parallel", "parallel"]} ins(%302 : tensor<1x6x128xf32>) outs(%303 : tensor<6x128xf32>) {
    ^bb0(%in: f32, %out: f32):
      linalg.yield %in : f32
    } -> tensor<6x128xf32>
    %305 = tensor.empty() : tensor<1x6x128xf32>
    %306 = linalg.generic {indexing_maps = [#map8, #map5], iterator_types = ["parallel", "parallel", "parallel"]} ins(%extracted_slice_64 : tensor<1x1x6x128xf32>) outs(%305 : tensor<1x6x128xf32>) {
    ^bb0(%in: f32, %out: f32):
      linalg.yield %in : f32
    } -> tensor<1x6x128xf32>
    %307 = tensor.empty() : tensor<6x128xf32>
    %308 = linalg.generic {indexing_maps = [#map9, #map3], iterator_types = ["parallel", "parallel"]} ins(%306 : tensor<1x6x128xf32>) outs(%307 : tensor<6x128xf32>) {
    ^bb0(%in: f32, %out: f32):
      linalg.yield %in : f32
    } -> tensor<6x128xf32>
    %309 = tensor.empty() : tensor<1x6x128xf32>
    %310 = linalg.generic {indexing_maps = [#map2, #map5], iterator_types = ["parallel", "parallel", "parallel"]} ins(%2 : tensor<1x6xi64>) outs(%309 : tensor<1x6x128xf32>) {
    ^bb0(%in: i64, %out: f32):
      %3850 = arith.index_cast %in : i64 to index
      %3851 = linalg.index 2 : index
      %extracted = tensor.extract %304[%3850, %3851] : tensor<6x128xf32>
      linalg.yield %extracted : f32
    } -> tensor<1x6x128xf32>
    %311 = tosa.reshape %310 {new_shape = array<i64: 1, 1, 6, 128>} : (tensor<1x6x128xf32>) -> tensor<1x1x6x128xf32>
    %312 = tensor.empty() : tensor<1x6x128xf32>
    %313 = linalg.generic {indexing_maps = [#map2, #map5], iterator_types = ["parallel", "parallel", "parallel"]} ins(%2 : tensor<1x6xi64>) outs(%312 : tensor<1x6x128xf32>) {
    ^bb0(%in: i64, %out: f32):
      %3850 = arith.index_cast %in : i64 to index
      %3851 = linalg.index 2 : index
      %extracted = tensor.extract %308[%3850, %3851] : tensor<6x128xf32>
      linalg.yield %extracted : f32
    } -> tensor<1x6x128xf32>
    %314 = tosa.reshape %313 {new_shape = array<i64: 1, 1, 6, 128>} : (tensor<1x6x128xf32>) -> tensor<1x1x6x128xf32>
    %315 = tosa.mul %294, %311 {shift = 0 : i8} : (tensor<1x32x6x128xf32>, tensor<1x1x6x128xf32>) -> tensor<1x32x6x128xf32>
    %extracted_slice_65 = tensor.extract_slice %294[0, 0, 0, 0] [1, 32, 6, 64] [1, 1, 1, 1] : tensor<1x32x6x128xf32> to tensor<1x32x6x64xf32>
    %extracted_slice_66 = tensor.extract_slice %294[0, 0, 0, 64] [1, 32, 6, 64] [1, 1, 1, 1] : tensor<1x32x6x128xf32> to tensor<1x32x6x64xf32>
    %316 = tensor.empty() : tensor<1x32x6x64xf32>
    %317 = linalg.negf ins(%extracted_slice_66 : tensor<1x32x6x64xf32>) outs(%316 : tensor<1x32x6x64xf32>) -> tensor<1x32x6x64xf32>
    %318 = tensor.empty() : tensor<1x32x6x128xf32>
    %inserted_slice_67 = tensor.insert_slice %317 into %318[0, 0, 0, 0] [1, 32, 6, 64] [1, 1, 1, 1] : tensor<1x32x6x64xf32> into tensor<1x32x6x128xf32>
    %inserted_slice_68 = tensor.insert_slice %extracted_slice_65 into %inserted_slice_67[0, 0, 0, 64] [1, 32, 6, 64] [1, 1, 1, 1] : tensor<1x32x6x64xf32> into tensor<1x32x6x128xf32>
    %319 = tosa.mul %inserted_slice_68, %314 {shift = 0 : i8} : (tensor<1x32x6x128xf32>, tensor<1x1x6x128xf32>) -> tensor<1x32x6x128xf32>
    %320 = tosa.add %315, %319 : (tensor<1x32x6x128xf32>, tensor<1x32x6x128xf32>) -> tensor<1x32x6x128xf32>
    %321 = tosa.mul %297, %311 {shift = 0 : i8} : (tensor<1x32x6x128xf32>, tensor<1x1x6x128xf32>) -> tensor<1x32x6x128xf32>
    %extracted_slice_69 = tensor.extract_slice %297[0, 0, 0, 0] [1, 32, 6, 64] [1, 1, 1, 1] : tensor<1x32x6x128xf32> to tensor<1x32x6x64xf32>
    %extracted_slice_70 = tensor.extract_slice %297[0, 0, 0, 64] [1, 32, 6, 64] [1, 1, 1, 1] : tensor<1x32x6x128xf32> to tensor<1x32x6x64xf32>
    %322 = tensor.empty() : tensor<1x32x6x64xf32>
    %323 = linalg.negf ins(%extracted_slice_70 : tensor<1x32x6x64xf32>) outs(%322 : tensor<1x32x6x64xf32>) -> tensor<1x32x6x64xf32>
    %324 = tensor.empty() : tensor<1x32x6x128xf32>
    %inserted_slice_71 = tensor.insert_slice %323 into %324[0, 0, 0, 0] [1, 32, 6, 64] [1, 1, 1, 1] : tensor<1x32x6x64xf32> into tensor<1x32x6x128xf32>
    %inserted_slice_72 = tensor.insert_slice %extracted_slice_69 into %inserted_slice_71[0, 0, 0, 64] [1, 32, 6, 64] [1, 1, 1, 1] : tensor<1x32x6x64xf32> into tensor<1x32x6x128xf32>
    %325 = tosa.mul %inserted_slice_72, %314 {shift = 0 : i8} : (tensor<1x32x6x128xf32>, tensor<1x1x6x128xf32>) -> tensor<1x32x6x128xf32>
    %326 = tosa.add %321, %325 : (tensor<1x32x6x128xf32>, tensor<1x32x6x128xf32>) -> tensor<1x32x6x128xf32>
    %327 = "tosa.const"() <{value = dense<[0, 1, 3, 2]> : tensor<4xi32>}> : () -> tensor<4xi32>
    %328 = tosa.transpose %326, %327 : (tensor<1x32x6x128xf32>, tensor<4xi32>) -> tensor<1x32x128x6xf32>
    %329 = tosa.reshape %320 {new_shape = array<i64: 32, 6, 128>} : (tensor<1x32x6x128xf32>) -> tensor<32x6x128xf32>
    %330 = tosa.reshape %328 {new_shape = array<i64: 32, 128, 6>} : (tensor<1x32x128x6xf32>) -> tensor<32x128x6xf32>
    %331 = tosa.matmul %329, %330 : (tensor<32x6x128xf32>, tensor<32x128x6xf32>) -> tensor<32x6x6xf32>
    %332 = tosa.reshape %331 {new_shape = array<i64: 1, 32, 6, 6>} : (tensor<32x6x6xf32>) -> tensor<1x32x6x6xf32>
    %333 = "tosa.const"() <{value = dense<11.3137083> : tensor<1x32x6x6xf32>}> : () -> tensor<1x32x6x6xf32>
    %334 = tosa.reciprocal %333 : (tensor<1x32x6x6xf32>) -> tensor<1x32x6x6xf32>
    %335 = tosa.mul %332, %334 {shift = 0 : i8} : (tensor<1x32x6x6xf32>, tensor<1x32x6x6xf32>) -> tensor<1x32x6x6xf32>
    %336 = tosa.add %335, %27 : (tensor<1x32x6x6xf32>, tensor<1x1x6x6xf32>) -> tensor<1x32x6x6xf32>
    %337 = tosa.reduce_max %336 {axis = 3 : i32} : (tensor<1x32x6x6xf32>) -> tensor<1x32x6x1xf32>
    %338 = tosa.sub %336, %337 : (tensor<1x32x6x6xf32>, tensor<1x32x6x1xf32>) -> tensor<1x32x6x6xf32>
    %339 = tosa.exp %338 : (tensor<1x32x6x6xf32>) -> tensor<1x32x6x6xf32>
    %340 = tosa.reduce_sum %339 {axis = 3 : i32} : (tensor<1x32x6x6xf32>) -> tensor<1x32x6x1xf32>
    %341 = tosa.reciprocal %340 : (tensor<1x32x6x1xf32>) -> tensor<1x32x6x1xf32>
    %342 = tosa.mul %339, %341 {shift = 0 : i8} : (tensor<1x32x6x6xf32>, tensor<1x32x6x1xf32>) -> tensor<1x32x6x6xf32>
    %343 = tosa.reshape %342 {new_shape = array<i64: 32, 6, 6>} : (tensor<1x32x6x6xf32>) -> tensor<32x6x6xf32>
    %344 = tosa.reshape %300 {new_shape = array<i64: 32, 6, 128>} : (tensor<1x32x6x128xf32>) -> tensor<32x6x128xf32>
    %345 = tosa.matmul %343, %344 : (tensor<32x6x6xf32>, tensor<32x6x128xf32>) -> tensor<32x6x128xf32>
    %346 = tosa.reshape %345 {new_shape = array<i64: 1, 32, 6, 128>} : (tensor<32x6x128xf32>) -> tensor<1x32x6x128xf32>
    %347 = "tosa.const"() <{value = dense<[0, 2, 1, 3]> : tensor<4xi32>}> : () -> tensor<4xi32>
    %348 = tosa.transpose %346, %347 : (tensor<1x32x6x128xf32>, tensor<4xi32>) -> tensor<1x6x32x128xf32>
    %349 = tosa.identity %348 : (tensor<1x6x32x128xf32>) -> tensor<1x6x32x128xf32>
    %350 = tosa.reshape %349 {new_shape = array<i64: 1, 6, 4096>} : (tensor<1x6x32x128xf32>) -> tensor<1x6x4096xf32>
    %351 = "tosa.const"() <{value = dense<[1, 0]> : tensor<2xi32>}> : () -> tensor<2xi32>
    %352 = tosa.transpose %arg83, %351 : (tensor<4096x4096xf32>, tensor<2xi32>) -> tensor<4096x4096xf32>
    %353 = tosa.reshape %350 {new_shape = array<i64: 6, 4096>} : (tensor<1x6x4096xf32>) -> tensor<6x4096xf32>
    %cst_73 = arith.constant dense<0.000000e+00> : tensor<6x4096xf32>
    %354 = linalg.matmul {cast = #linalg.type_fn<cast_signed>} ins(%353, %352 : tensor<6x4096xf32>, tensor<4096x4096xf32>) outs(%cst_73 : tensor<6x4096xf32>) -> tensor<6x4096xf32>
    %355 = tosa.reshape %354 {new_shape = array<i64: 1, 6, 4096>} : (tensor<6x4096xf32>) -> tensor<1x6x4096xf32>
    %356 = tosa.add %265, %355 : (tensor<1x6x4096xf32>, tensor<1x6x4096xf32>) -> tensor<1x6x4096xf32>
    %357 = tensor.empty() : tensor<1x6x4096xf32>
    %c2_i32_74 = arith.constant 2 : i32
    %358 = linalg.generic {indexing_maps = [#map5, #map5], iterator_types = ["parallel", "parallel", "parallel"]} ins(%356 : tensor<1x6x4096xf32>) outs(%357 : tensor<1x6x4096xf32>) {
    ^bb0(%in: f32, %out: f32):
      %3850 = math.fpowi %in, %c2_i32_74 : f32, i32
      linalg.yield %3850 : f32
    } -> tensor<1x6x4096xf32>
    %cst_75 = arith.constant dense<0.000000e+00> : tensor<1x6x1xf32>
    %359 = linalg.generic {indexing_maps = [#map6, #map7], iterator_types = ["parallel", "parallel", "reduction", "parallel"]} ins(%358 : tensor<1x6x4096xf32>) outs(%cst_75 : tensor<1x6x1xf32>) {
    ^bb0(%in: f32, %out: f32):
      %cst_807 = arith.constant 4.096000e+03 : f32
      %3850 = arith.divf %in, %cst_807 : f32
      %3851 = arith.addf %3850, %out : f32
      linalg.yield %3851 : f32
    } -> tensor<1x6x1xf32>
    %360 = "tosa.const"() <{value = dense<9.99999997E-7> : tensor<1x6x1xf32>}> : () -> tensor<1x6x1xf32>
    %361 = tosa.add %359, %360 : (tensor<1x6x1xf32>, tensor<1x6x1xf32>) -> tensor<1x6x1xf32>
    %362 = tosa.rsqrt %361 : (tensor<1x6x1xf32>) -> tensor<1x6x1xf32>
    %363 = tosa.mul %356, %362 {shift = 0 : i8} : (tensor<1x6x4096xf32>, tensor<1x6x1xf32>) -> tensor<1x6x4096xf32>
    %364 = tosa.reshape %arg5 {new_shape = array<i64: 1, 1, 4096>} : (tensor<4096xf32>) -> tensor<1x1x4096xf32>
    %365 = tosa.mul %364, %363 {shift = 0 : i8} : (tensor<1x1x4096xf32>, tensor<1x6x4096xf32>) -> tensor<1x6x4096xf32>
    %366 = "tosa.const"() <{value = dense<[1, 0]> : tensor<2xi32>}> : () -> tensor<2xi32>
    %367 = tosa.transpose %arg84, %366 : (tensor<11008x4096xf32>, tensor<2xi32>) -> tensor<4096x11008xf32>
    %368 = tosa.reshape %365 {new_shape = array<i64: 6, 4096>} : (tensor<1x6x4096xf32>) -> tensor<6x4096xf32>
    %cst_76 = arith.constant dense<0.000000e+00> : tensor<6x11008xf32>
    %369 = linalg.matmul {cast = #linalg.type_fn<cast_signed>} ins(%368, %367 : tensor<6x4096xf32>, tensor<4096x11008xf32>) outs(%cst_76 : tensor<6x11008xf32>) -> tensor<6x11008xf32>
    %370 = tosa.reshape %369 {new_shape = array<i64: 1, 6, 11008>} : (tensor<6x11008xf32>) -> tensor<1x6x11008xf32>
    %371 = tosa.sigmoid %370 : (tensor<1x6x11008xf32>) -> tensor<1x6x11008xf32>
    %372 = tosa.mul %370, %371 {shift = 0 : i8} : (tensor<1x6x11008xf32>, tensor<1x6x11008xf32>) -> tensor<1x6x11008xf32>
    %373 = "tosa.const"() <{value = dense<[1, 0]> : tensor<2xi32>}> : () -> tensor<2xi32>
    %374 = tosa.transpose %arg85, %373 : (tensor<11008x4096xf32>, tensor<2xi32>) -> tensor<4096x11008xf32>
    %375 = tosa.reshape %365 {new_shape = array<i64: 6, 4096>} : (tensor<1x6x4096xf32>) -> tensor<6x4096xf32>
    %cst_77 = arith.constant dense<0.000000e+00> : tensor<6x11008xf32>
    %376 = linalg.matmul {cast = #linalg.type_fn<cast_signed>} ins(%375, %374 : tensor<6x4096xf32>, tensor<4096x11008xf32>) outs(%cst_77 : tensor<6x11008xf32>) -> tensor<6x11008xf32>
    %377 = tosa.reshape %376 {new_shape = array<i64: 1, 6, 11008>} : (tensor<6x11008xf32>) -> tensor<1x6x11008xf32>
    %378 = tosa.mul %372, %377 {shift = 0 : i8} : (tensor<1x6x11008xf32>, tensor<1x6x11008xf32>) -> tensor<1x6x11008xf32>
    %379 = "tosa.const"() <{value = dense<[1, 0]> : tensor<2xi32>}> : () -> tensor<2xi32>
    %380 = tosa.transpose %arg86, %379 : (tensor<4096x11008xf32>, tensor<2xi32>) -> tensor<11008x4096xf32>
    %381 = tosa.reshape %378 {new_shape = array<i64: 6, 11008>} : (tensor<1x6x11008xf32>) -> tensor<6x11008xf32>
    %cst_78 = arith.constant dense<0.000000e+00> : tensor<6x4096xf32>
    %382 = linalg.matmul {cast = #linalg.type_fn<cast_signed>} ins(%381, %380 : tensor<6x11008xf32>, tensor<11008x4096xf32>) outs(%cst_78 : tensor<6x4096xf32>) -> tensor<6x4096xf32>
    %383 = tosa.reshape %382 {new_shape = array<i64: 1, 6, 4096>} : (tensor<6x4096xf32>) -> tensor<1x6x4096xf32>
    %384 = tosa.add %356, %383 : (tensor<1x6x4096xf32>, tensor<1x6x4096xf32>) -> tensor<1x6x4096xf32>
    %385 = tensor.empty() : tensor<1x6x4096xf32>
    %c2_i32_79 = arith.constant 2 : i32
    %386 = linalg.generic {indexing_maps = [#map5, #map5], iterator_types = ["parallel", "parallel", "parallel"]} ins(%384 : tensor<1x6x4096xf32>) outs(%385 : tensor<1x6x4096xf32>) {
    ^bb0(%in: f32, %out: f32):
      %3850 = math.fpowi %in, %c2_i32_79 : f32, i32
      linalg.yield %3850 : f32
    } -> tensor<1x6x4096xf32>
    %cst_80 = arith.constant dense<0.000000e+00> : tensor<1x6x1xf32>
    %387 = linalg.generic {indexing_maps = [#map6, #map7], iterator_types = ["parallel", "parallel", "reduction", "parallel"]} ins(%386 : tensor<1x6x4096xf32>) outs(%cst_80 : tensor<1x6x1xf32>) {
    ^bb0(%in: f32, %out: f32):
      %cst_807 = arith.constant 4.096000e+03 : f32
      %3850 = arith.divf %in, %cst_807 : f32
      %3851 = arith.addf %3850, %out : f32
      linalg.yield %3851 : f32
    } -> tensor<1x6x1xf32>
    %388 = "tosa.const"() <{value = dense<9.99999997E-7> : tensor<1x6x1xf32>}> : () -> tensor<1x6x1xf32>
    %389 = tosa.add %387, %388 : (tensor<1x6x1xf32>, tensor<1x6x1xf32>) -> tensor<1x6x1xf32>
    %390 = tosa.rsqrt %389 : (tensor<1x6x1xf32>) -> tensor<1x6x1xf32>
    %391 = tosa.mul %384, %390 {shift = 0 : i8} : (tensor<1x6x4096xf32>, tensor<1x6x1xf32>) -> tensor<1x6x4096xf32>
    %392 = tosa.reshape %arg6 {new_shape = array<i64: 1, 1, 4096>} : (tensor<4096xf32>) -> tensor<1x1x4096xf32>
    %393 = tosa.mul %392, %391 {shift = 0 : i8} : (tensor<1x1x4096xf32>, tensor<1x6x4096xf32>) -> tensor<1x6x4096xf32>
    %394 = "tosa.const"() <{value = dense<[1, 0]> : tensor<2xi32>}> : () -> tensor<2xi32>
    %395 = tosa.transpose %arg87, %394 : (tensor<4096x4096xf32>, tensor<2xi32>) -> tensor<4096x4096xf32>
    %396 = tosa.reshape %393 {new_shape = array<i64: 6, 4096>} : (tensor<1x6x4096xf32>) -> tensor<6x4096xf32>
    %cst_81 = arith.constant dense<0.000000e+00> : tensor<6x4096xf32>
    %397 = linalg.matmul {cast = #linalg.type_fn<cast_signed>} ins(%396, %395 : tensor<6x4096xf32>, tensor<4096x4096xf32>) outs(%cst_81 : tensor<6x4096xf32>) -> tensor<6x4096xf32>
    %398 = tosa.reshape %397 {new_shape = array<i64: 1, 6, 4096>} : (tensor<6x4096xf32>) -> tensor<1x6x4096xf32>
    %399 = "tosa.const"() <{value = dense<[1, 0]> : tensor<2xi32>}> : () -> tensor<2xi32>
    %400 = tosa.transpose %arg88, %399 : (tensor<4096x4096xf32>, tensor<2xi32>) -> tensor<4096x4096xf32>
    %401 = tosa.reshape %393 {new_shape = array<i64: 6, 4096>} : (tensor<1x6x4096xf32>) -> tensor<6x4096xf32>
    %cst_82 = arith.constant dense<0.000000e+00> : tensor<6x4096xf32>
    %402 = linalg.matmul {cast = #linalg.type_fn<cast_signed>} ins(%401, %400 : tensor<6x4096xf32>, tensor<4096x4096xf32>) outs(%cst_82 : tensor<6x4096xf32>) -> tensor<6x4096xf32>
    %403 = tosa.identity %402 : (tensor<6x4096xf32>) -> tensor<6x4096xf32>
    %404 = tosa.reshape %402 {new_shape = array<i64: 1, 6, 4096>} : (tensor<6x4096xf32>) -> tensor<1x6x4096xf32>
    %405 = "tosa.const"() <{value = dense<[1, 0]> : tensor<2xi32>}> : () -> tensor<2xi32>
    %406 = tosa.transpose %arg89, %405 : (tensor<4096x4096xf32>, tensor<2xi32>) -> tensor<4096x4096xf32>
    %407 = tosa.reshape %393 {new_shape = array<i64: 6, 4096>} : (tensor<1x6x4096xf32>) -> tensor<6x4096xf32>
    %cst_83 = arith.constant dense<0.000000e+00> : tensor<6x4096xf32>
    %408 = linalg.matmul {cast = #linalg.type_fn<cast_signed>} ins(%407, %406 : tensor<6x4096xf32>, tensor<4096x4096xf32>) outs(%cst_83 : tensor<6x4096xf32>) -> tensor<6x4096xf32>
    %409 = tosa.identity %408 : (tensor<6x4096xf32>) -> tensor<6x4096xf32>
    %410 = tosa.reshape %408 {new_shape = array<i64: 1, 6, 4096>} : (tensor<6x4096xf32>) -> tensor<1x6x4096xf32>
    %411 = tosa.reshape %398 {new_shape = array<i64: 1, 6, 32, 128>} : (tensor<1x6x4096xf32>) -> tensor<1x6x32x128xf32>
    %412 = "tosa.const"() <{value = dense<[0, 2, 1, 3]> : tensor<4xi32>}> : () -> tensor<4xi32>
    %413 = tosa.transpose %411, %412 : (tensor<1x6x32x128xf32>, tensor<4xi32>) -> tensor<1x32x6x128xf32>
    %414 = tosa.reshape %404 {new_shape = array<i64: 1, 6, 32, 128>} : (tensor<1x6x4096xf32>) -> tensor<1x6x32x128xf32>
    %415 = "tosa.const"() <{value = dense<[0, 2, 1, 3]> : tensor<4xi32>}> : () -> tensor<4xi32>
    %416 = tosa.transpose %414, %415 : (tensor<1x6x32x128xf32>, tensor<4xi32>) -> tensor<1x32x6x128xf32>
    %417 = tosa.reshape %410 {new_shape = array<i64: 1, 6, 32, 128>} : (tensor<1x6x4096xf32>) -> tensor<1x6x32x128xf32>
    %418 = "tosa.const"() <{value = dense<[0, 2, 1, 3]> : tensor<4xi32>}> : () -> tensor<4xi32>
    %419 = tosa.transpose %417, %418 : (tensor<1x6x32x128xf32>, tensor<4xi32>) -> tensor<1x32x6x128xf32>
    %extracted_slice_84 = tensor.extract_slice %arg297[0, 0, 0, 0] [1, 1, 2048, 128] [1, 1, 1, 1] : tensor<1x1x2048x128xf32> to tensor<1x1x2048x128xf32>
    %extracted_slice_85 = tensor.extract_slice %extracted_slice_84[0, 0, 0, 0] [1, 1, 2048, 128] [1, 1, 1, 1] : tensor<1x1x2048x128xf32> to tensor<1x1x2048x128xf32>
    %extracted_slice_86 = tensor.extract_slice %extracted_slice_85[0, 0, 0, 0] [1, 1, 6, 128] [1, 1, 1, 1] : tensor<1x1x2048x128xf32> to tensor<1x1x6x128xf32>
    %extracted_slice_87 = tensor.extract_slice %arg298[0, 0, 0, 0] [1, 1, 2048, 128] [1, 1, 1, 1] : tensor<1x1x2048x128xf32> to tensor<1x1x2048x128xf32>
    %extracted_slice_88 = tensor.extract_slice %extracted_slice_87[0, 0, 0, 0] [1, 1, 2048, 128] [1, 1, 1, 1] : tensor<1x1x2048x128xf32> to tensor<1x1x2048x128xf32>
    %extracted_slice_89 = tensor.extract_slice %extracted_slice_88[0, 0, 0, 0] [1, 1, 6, 128] [1, 1, 1, 1] : tensor<1x1x2048x128xf32> to tensor<1x1x6x128xf32>
    %420 = tensor.empty() : tensor<1x6x128xf32>
    %421 = linalg.generic {indexing_maps = [#map8, #map5], iterator_types = ["parallel", "parallel", "parallel"]} ins(%extracted_slice_86 : tensor<1x1x6x128xf32>) outs(%420 : tensor<1x6x128xf32>) {
    ^bb0(%in: f32, %out: f32):
      linalg.yield %in : f32
    } -> tensor<1x6x128xf32>
    %422 = tensor.empty() : tensor<6x128xf32>
    %423 = linalg.generic {indexing_maps = [#map9, #map3], iterator_types = ["parallel", "parallel"]} ins(%421 : tensor<1x6x128xf32>) outs(%422 : tensor<6x128xf32>) {
    ^bb0(%in: f32, %out: f32):
      linalg.yield %in : f32
    } -> tensor<6x128xf32>
    %424 = tensor.empty() : tensor<1x6x128xf32>
    %425 = linalg.generic {indexing_maps = [#map8, #map5], iterator_types = ["parallel", "parallel", "parallel"]} ins(%extracted_slice_89 : tensor<1x1x6x128xf32>) outs(%424 : tensor<1x6x128xf32>) {
    ^bb0(%in: f32, %out: f32):
      linalg.yield %in : f32
    } -> tensor<1x6x128xf32>
    %426 = tensor.empty() : tensor<6x128xf32>
    %427 = linalg.generic {indexing_maps = [#map9, #map3], iterator_types = ["parallel", "parallel"]} ins(%425 : tensor<1x6x128xf32>) outs(%426 : tensor<6x128xf32>) {
    ^bb0(%in: f32, %out: f32):
      linalg.yield %in : f32
    } -> tensor<6x128xf32>
    %428 = tensor.empty() : tensor<1x6x128xf32>
    %429 = linalg.generic {indexing_maps = [#map2, #map5], iterator_types = ["parallel", "parallel", "parallel"]} ins(%2 : tensor<1x6xi64>) outs(%428 : tensor<1x6x128xf32>) {
    ^bb0(%in: i64, %out: f32):
      %3850 = arith.index_cast %in : i64 to index
      %3851 = linalg.index 2 : index
      %extracted = tensor.extract %423[%3850, %3851] : tensor<6x128xf32>
      linalg.yield %extracted : f32
    } -> tensor<1x6x128xf32>
    %430 = tosa.reshape %429 {new_shape = array<i64: 1, 1, 6, 128>} : (tensor<1x6x128xf32>) -> tensor<1x1x6x128xf32>
    %431 = tensor.empty() : tensor<1x6x128xf32>
    %432 = linalg.generic {indexing_maps = [#map2, #map5], iterator_types = ["parallel", "parallel", "parallel"]} ins(%2 : tensor<1x6xi64>) outs(%431 : tensor<1x6x128xf32>) {
    ^bb0(%in: i64, %out: f32):
      %3850 = arith.index_cast %in : i64 to index
      %3851 = linalg.index 2 : index
      %extracted = tensor.extract %427[%3850, %3851] : tensor<6x128xf32>
      linalg.yield %extracted : f32
    } -> tensor<1x6x128xf32>
    %433 = tosa.reshape %432 {new_shape = array<i64: 1, 1, 6, 128>} : (tensor<1x6x128xf32>) -> tensor<1x1x6x128xf32>
    %434 = tosa.mul %413, %430 {shift = 0 : i8} : (tensor<1x32x6x128xf32>, tensor<1x1x6x128xf32>) -> tensor<1x32x6x128xf32>
    %extracted_slice_90 = tensor.extract_slice %413[0, 0, 0, 0] [1, 32, 6, 64] [1, 1, 1, 1] : tensor<1x32x6x128xf32> to tensor<1x32x6x64xf32>
    %extracted_slice_91 = tensor.extract_slice %413[0, 0, 0, 64] [1, 32, 6, 64] [1, 1, 1, 1] : tensor<1x32x6x128xf32> to tensor<1x32x6x64xf32>
    %435 = tensor.empty() : tensor<1x32x6x64xf32>
    %436 = linalg.negf ins(%extracted_slice_91 : tensor<1x32x6x64xf32>) outs(%435 : tensor<1x32x6x64xf32>) -> tensor<1x32x6x64xf32>
    %437 = tensor.empty() : tensor<1x32x6x128xf32>
    %inserted_slice_92 = tensor.insert_slice %436 into %437[0, 0, 0, 0] [1, 32, 6, 64] [1, 1, 1, 1] : tensor<1x32x6x64xf32> into tensor<1x32x6x128xf32>
    %inserted_slice_93 = tensor.insert_slice %extracted_slice_90 into %inserted_slice_92[0, 0, 0, 64] [1, 32, 6, 64] [1, 1, 1, 1] : tensor<1x32x6x64xf32> into tensor<1x32x6x128xf32>
    %438 = tosa.mul %inserted_slice_93, %433 {shift = 0 : i8} : (tensor<1x32x6x128xf32>, tensor<1x1x6x128xf32>) -> tensor<1x32x6x128xf32>
    %439 = tosa.add %434, %438 : (tensor<1x32x6x128xf32>, tensor<1x32x6x128xf32>) -> tensor<1x32x6x128xf32>
    %440 = tosa.mul %416, %430 {shift = 0 : i8} : (tensor<1x32x6x128xf32>, tensor<1x1x6x128xf32>) -> tensor<1x32x6x128xf32>
    %extracted_slice_94 = tensor.extract_slice %416[0, 0, 0, 0] [1, 32, 6, 64] [1, 1, 1, 1] : tensor<1x32x6x128xf32> to tensor<1x32x6x64xf32>
    %extracted_slice_95 = tensor.extract_slice %416[0, 0, 0, 64] [1, 32, 6, 64] [1, 1, 1, 1] : tensor<1x32x6x128xf32> to tensor<1x32x6x64xf32>
    %441 = tensor.empty() : tensor<1x32x6x64xf32>
    %442 = linalg.negf ins(%extracted_slice_95 : tensor<1x32x6x64xf32>) outs(%441 : tensor<1x32x6x64xf32>) -> tensor<1x32x6x64xf32>
    %443 = tensor.empty() : tensor<1x32x6x128xf32>
    %inserted_slice_96 = tensor.insert_slice %442 into %443[0, 0, 0, 0] [1, 32, 6, 64] [1, 1, 1, 1] : tensor<1x32x6x64xf32> into tensor<1x32x6x128xf32>
    %inserted_slice_97 = tensor.insert_slice %extracted_slice_94 into %inserted_slice_96[0, 0, 0, 64] [1, 32, 6, 64] [1, 1, 1, 1] : tensor<1x32x6x64xf32> into tensor<1x32x6x128xf32>
    %444 = tosa.mul %inserted_slice_97, %433 {shift = 0 : i8} : (tensor<1x32x6x128xf32>, tensor<1x1x6x128xf32>) -> tensor<1x32x6x128xf32>
    %445 = tosa.add %440, %444 : (tensor<1x32x6x128xf32>, tensor<1x32x6x128xf32>) -> tensor<1x32x6x128xf32>
    %446 = "tosa.const"() <{value = dense<[0, 1, 3, 2]> : tensor<4xi32>}> : () -> tensor<4xi32>
    %447 = tosa.transpose %445, %446 : (tensor<1x32x6x128xf32>, tensor<4xi32>) -> tensor<1x32x128x6xf32>
    %448 = tosa.reshape %439 {new_shape = array<i64: 32, 6, 128>} : (tensor<1x32x6x128xf32>) -> tensor<32x6x128xf32>
    %449 = tosa.reshape %447 {new_shape = array<i64: 32, 128, 6>} : (tensor<1x32x128x6xf32>) -> tensor<32x128x6xf32>
    %450 = tosa.matmul %448, %449 : (tensor<32x6x128xf32>, tensor<32x128x6xf32>) -> tensor<32x6x6xf32>
    %451 = tosa.reshape %450 {new_shape = array<i64: 1, 32, 6, 6>} : (tensor<32x6x6xf32>) -> tensor<1x32x6x6xf32>
    %452 = "tosa.const"() <{value = dense<11.3137083> : tensor<1x32x6x6xf32>}> : () -> tensor<1x32x6x6xf32>
    %453 = tosa.reciprocal %452 : (tensor<1x32x6x6xf32>) -> tensor<1x32x6x6xf32>
    %454 = tosa.mul %451, %453 {shift = 0 : i8} : (tensor<1x32x6x6xf32>, tensor<1x32x6x6xf32>) -> tensor<1x32x6x6xf32>
    %455 = tosa.add %454, %27 : (tensor<1x32x6x6xf32>, tensor<1x1x6x6xf32>) -> tensor<1x32x6x6xf32>
    %456 = tosa.reduce_max %455 {axis = 3 : i32} : (tensor<1x32x6x6xf32>) -> tensor<1x32x6x1xf32>
    %457 = tosa.sub %455, %456 : (tensor<1x32x6x6xf32>, tensor<1x32x6x1xf32>) -> tensor<1x32x6x6xf32>
    %458 = tosa.exp %457 : (tensor<1x32x6x6xf32>) -> tensor<1x32x6x6xf32>
    %459 = tosa.reduce_sum %458 {axis = 3 : i32} : (tensor<1x32x6x6xf32>) -> tensor<1x32x6x1xf32>
    %460 = tosa.reciprocal %459 : (tensor<1x32x6x1xf32>) -> tensor<1x32x6x1xf32>
    %461 = tosa.mul %458, %460 {shift = 0 : i8} : (tensor<1x32x6x6xf32>, tensor<1x32x6x1xf32>) -> tensor<1x32x6x6xf32>
    %462 = tosa.reshape %461 {new_shape = array<i64: 32, 6, 6>} : (tensor<1x32x6x6xf32>) -> tensor<32x6x6xf32>
    %463 = tosa.reshape %419 {new_shape = array<i64: 32, 6, 128>} : (tensor<1x32x6x128xf32>) -> tensor<32x6x128xf32>
    %464 = tosa.matmul %462, %463 : (tensor<32x6x6xf32>, tensor<32x6x128xf32>) -> tensor<32x6x128xf32>
    %465 = tosa.reshape %464 {new_shape = array<i64: 1, 32, 6, 128>} : (tensor<32x6x128xf32>) -> tensor<1x32x6x128xf32>
    %466 = "tosa.const"() <{value = dense<[0, 2, 1, 3]> : tensor<4xi32>}> : () -> tensor<4xi32>
    %467 = tosa.transpose %465, %466 : (tensor<1x32x6x128xf32>, tensor<4xi32>) -> tensor<1x6x32x128xf32>
    %468 = tosa.identity %467 : (tensor<1x6x32x128xf32>) -> tensor<1x6x32x128xf32>
    %469 = tosa.reshape %468 {new_shape = array<i64: 1, 6, 4096>} : (tensor<1x6x32x128xf32>) -> tensor<1x6x4096xf32>
    %470 = "tosa.const"() <{value = dense<[1, 0]> : tensor<2xi32>}> : () -> tensor<2xi32>
    %471 = tosa.transpose %arg90, %470 : (tensor<4096x4096xf32>, tensor<2xi32>) -> tensor<4096x4096xf32>
    %472 = tosa.reshape %469 {new_shape = array<i64: 6, 4096>} : (tensor<1x6x4096xf32>) -> tensor<6x4096xf32>
    %cst_98 = arith.constant dense<0.000000e+00> : tensor<6x4096xf32>
    %473 = linalg.matmul {cast = #linalg.type_fn<cast_signed>} ins(%472, %471 : tensor<6x4096xf32>, tensor<4096x4096xf32>) outs(%cst_98 : tensor<6x4096xf32>) -> tensor<6x4096xf32>
    %474 = tosa.reshape %473 {new_shape = array<i64: 1, 6, 4096>} : (tensor<6x4096xf32>) -> tensor<1x6x4096xf32>
    %475 = tosa.add %384, %474 : (tensor<1x6x4096xf32>, tensor<1x6x4096xf32>) -> tensor<1x6x4096xf32>
    %476 = tensor.empty() : tensor<1x6x4096xf32>
    %c2_i32_99 = arith.constant 2 : i32
    %477 = linalg.generic {indexing_maps = [#map5, #map5], iterator_types = ["parallel", "parallel", "parallel"]} ins(%475 : tensor<1x6x4096xf32>) outs(%476 : tensor<1x6x4096xf32>) {
    ^bb0(%in: f32, %out: f32):
      %3850 = math.fpowi %in, %c2_i32_99 : f32, i32
      linalg.yield %3850 : f32
    } -> tensor<1x6x4096xf32>
    %cst_100 = arith.constant dense<0.000000e+00> : tensor<1x6x1xf32>
    %478 = linalg.generic {indexing_maps = [#map6, #map7], iterator_types = ["parallel", "parallel", "reduction", "parallel"]} ins(%477 : tensor<1x6x4096xf32>) outs(%cst_100 : tensor<1x6x1xf32>) {
    ^bb0(%in: f32, %out: f32):
      %cst_807 = arith.constant 4.096000e+03 : f32
      %3850 = arith.divf %in, %cst_807 : f32
      %3851 = arith.addf %3850, %out : f32
      linalg.yield %3851 : f32
    } -> tensor<1x6x1xf32>
    %479 = "tosa.const"() <{value = dense<9.99999997E-7> : tensor<1x6x1xf32>}> : () -> tensor<1x6x1xf32>
    %480 = tosa.add %478, %479 : (tensor<1x6x1xf32>, tensor<1x6x1xf32>) -> tensor<1x6x1xf32>
    %481 = tosa.rsqrt %480 : (tensor<1x6x1xf32>) -> tensor<1x6x1xf32>
    %482 = tosa.mul %475, %481 {shift = 0 : i8} : (tensor<1x6x4096xf32>, tensor<1x6x1xf32>) -> tensor<1x6x4096xf32>
    %483 = tosa.reshape %arg7 {new_shape = array<i64: 1, 1, 4096>} : (tensor<4096xf32>) -> tensor<1x1x4096xf32>
    %484 = tosa.mul %483, %482 {shift = 0 : i8} : (tensor<1x1x4096xf32>, tensor<1x6x4096xf32>) -> tensor<1x6x4096xf32>
    %485 = "tosa.const"() <{value = dense<[1, 0]> : tensor<2xi32>}> : () -> tensor<2xi32>
    %486 = tosa.transpose %arg91, %485 : (tensor<11008x4096xf32>, tensor<2xi32>) -> tensor<4096x11008xf32>
    %487 = tosa.reshape %484 {new_shape = array<i64: 6, 4096>} : (tensor<1x6x4096xf32>) -> tensor<6x4096xf32>
    %cst_101 = arith.constant dense<0.000000e+00> : tensor<6x11008xf32>
    %488 = linalg.matmul {cast = #linalg.type_fn<cast_signed>} ins(%487, %486 : tensor<6x4096xf32>, tensor<4096x11008xf32>) outs(%cst_101 : tensor<6x11008xf32>) -> tensor<6x11008xf32>
    %489 = tosa.reshape %488 {new_shape = array<i64: 1, 6, 11008>} : (tensor<6x11008xf32>) -> tensor<1x6x11008xf32>
    %490 = tosa.sigmoid %489 : (tensor<1x6x11008xf32>) -> tensor<1x6x11008xf32>
    %491 = tosa.mul %489, %490 {shift = 0 : i8} : (tensor<1x6x11008xf32>, tensor<1x6x11008xf32>) -> tensor<1x6x11008xf32>
    %492 = "tosa.const"() <{value = dense<[1, 0]> : tensor<2xi32>}> : () -> tensor<2xi32>
    %493 = tosa.transpose %arg92, %492 : (tensor<11008x4096xf32>, tensor<2xi32>) -> tensor<4096x11008xf32>
    %494 = tosa.reshape %484 {new_shape = array<i64: 6, 4096>} : (tensor<1x6x4096xf32>) -> tensor<6x4096xf32>
    %cst_102 = arith.constant dense<0.000000e+00> : tensor<6x11008xf32>
    %495 = linalg.matmul {cast = #linalg.type_fn<cast_signed>} ins(%494, %493 : tensor<6x4096xf32>, tensor<4096x11008xf32>) outs(%cst_102 : tensor<6x11008xf32>) -> tensor<6x11008xf32>
    %496 = tosa.reshape %495 {new_shape = array<i64: 1, 6, 11008>} : (tensor<6x11008xf32>) -> tensor<1x6x11008xf32>
    %497 = tosa.mul %491, %496 {shift = 0 : i8} : (tensor<1x6x11008xf32>, tensor<1x6x11008xf32>) -> tensor<1x6x11008xf32>
    %498 = "tosa.const"() <{value = dense<[1, 0]> : tensor<2xi32>}> : () -> tensor<2xi32>
    %499 = tosa.transpose %arg93, %498 : (tensor<4096x11008xf32>, tensor<2xi32>) -> tensor<11008x4096xf32>
    %500 = tosa.reshape %497 {new_shape = array<i64: 6, 11008>} : (tensor<1x6x11008xf32>) -> tensor<6x11008xf32>
    %cst_103 = arith.constant dense<0.000000e+00> : tensor<6x4096xf32>
    %501 = linalg.matmul {cast = #linalg.type_fn<cast_signed>} ins(%500, %499 : tensor<6x11008xf32>, tensor<11008x4096xf32>) outs(%cst_103 : tensor<6x4096xf32>) -> tensor<6x4096xf32>
    %502 = tosa.reshape %501 {new_shape = array<i64: 1, 6, 4096>} : (tensor<6x4096xf32>) -> tensor<1x6x4096xf32>
    %503 = tosa.add %475, %502 : (tensor<1x6x4096xf32>, tensor<1x6x4096xf32>) -> tensor<1x6x4096xf32>
    %504 = tensor.empty() : tensor<1x6x4096xf32>
    %c2_i32_104 = arith.constant 2 : i32
    %505 = linalg.generic {indexing_maps = [#map5, #map5], iterator_types = ["parallel", "parallel", "parallel"]} ins(%503 : tensor<1x6x4096xf32>) outs(%504 : tensor<1x6x4096xf32>) {
    ^bb0(%in: f32, %out: f32):
      %3850 = math.fpowi %in, %c2_i32_104 : f32, i32
      linalg.yield %3850 : f32
    } -> tensor<1x6x4096xf32>
    %cst_105 = arith.constant dense<0.000000e+00> : tensor<1x6x1xf32>
    %506 = linalg.generic {indexing_maps = [#map6, #map7], iterator_types = ["parallel", "parallel", "reduction", "parallel"]} ins(%505 : tensor<1x6x4096xf32>) outs(%cst_105 : tensor<1x6x1xf32>) {
    ^bb0(%in: f32, %out: f32):
      %cst_807 = arith.constant 4.096000e+03 : f32
      %3850 = arith.divf %in, %cst_807 : f32
      %3851 = arith.addf %3850, %out : f32
      linalg.yield %3851 : f32
    } -> tensor<1x6x1xf32>
    %507 = "tosa.const"() <{value = dense<9.99999997E-7> : tensor<1x6x1xf32>}> : () -> tensor<1x6x1xf32>
    %508 = tosa.add %506, %507 : (tensor<1x6x1xf32>, tensor<1x6x1xf32>) -> tensor<1x6x1xf32>
    %509 = tosa.rsqrt %508 : (tensor<1x6x1xf32>) -> tensor<1x6x1xf32>
    %510 = tosa.mul %503, %509 {shift = 0 : i8} : (tensor<1x6x4096xf32>, tensor<1x6x1xf32>) -> tensor<1x6x4096xf32>
    %511 = tosa.reshape %arg8 {new_shape = array<i64: 1, 1, 4096>} : (tensor<4096xf32>) -> tensor<1x1x4096xf32>
    %512 = tosa.mul %511, %510 {shift = 0 : i8} : (tensor<1x1x4096xf32>, tensor<1x6x4096xf32>) -> tensor<1x6x4096xf32>
    %513 = "tosa.const"() <{value = dense<[1, 0]> : tensor<2xi32>}> : () -> tensor<2xi32>
    %514 = tosa.transpose %arg94, %513 : (tensor<4096x4096xf32>, tensor<2xi32>) -> tensor<4096x4096xf32>
    %515 = tosa.reshape %512 {new_shape = array<i64: 6, 4096>} : (tensor<1x6x4096xf32>) -> tensor<6x4096xf32>
    %cst_106 = arith.constant dense<0.000000e+00> : tensor<6x4096xf32>
    %516 = linalg.matmul {cast = #linalg.type_fn<cast_signed>} ins(%515, %514 : tensor<6x4096xf32>, tensor<4096x4096xf32>) outs(%cst_106 : tensor<6x4096xf32>) -> tensor<6x4096xf32>
    %517 = tosa.reshape %516 {new_shape = array<i64: 1, 6, 4096>} : (tensor<6x4096xf32>) -> tensor<1x6x4096xf32>
    %518 = "tosa.const"() <{value = dense<[1, 0]> : tensor<2xi32>}> : () -> tensor<2xi32>
    %519 = tosa.transpose %arg95, %518 : (tensor<4096x4096xf32>, tensor<2xi32>) -> tensor<4096x4096xf32>
    %520 = tosa.reshape %512 {new_shape = array<i64: 6, 4096>} : (tensor<1x6x4096xf32>) -> tensor<6x4096xf32>
    %cst_107 = arith.constant dense<0.000000e+00> : tensor<6x4096xf32>
    %521 = linalg.matmul {cast = #linalg.type_fn<cast_signed>} ins(%520, %519 : tensor<6x4096xf32>, tensor<4096x4096xf32>) outs(%cst_107 : tensor<6x4096xf32>) -> tensor<6x4096xf32>
    %522 = tosa.identity %521 : (tensor<6x4096xf32>) -> tensor<6x4096xf32>
    %523 = tosa.reshape %521 {new_shape = array<i64: 1, 6, 4096>} : (tensor<6x4096xf32>) -> tensor<1x6x4096xf32>
    %524 = "tosa.const"() <{value = dense<[1, 0]> : tensor<2xi32>}> : () -> tensor<2xi32>
    %525 = tosa.transpose %arg96, %524 : (tensor<4096x4096xf32>, tensor<2xi32>) -> tensor<4096x4096xf32>
    %526 = tosa.reshape %512 {new_shape = array<i64: 6, 4096>} : (tensor<1x6x4096xf32>) -> tensor<6x4096xf32>
    %cst_108 = arith.constant dense<0.000000e+00> : tensor<6x4096xf32>
    %527 = linalg.matmul {cast = #linalg.type_fn<cast_signed>} ins(%526, %525 : tensor<6x4096xf32>, tensor<4096x4096xf32>) outs(%cst_108 : tensor<6x4096xf32>) -> tensor<6x4096xf32>
    %528 = tosa.identity %527 : (tensor<6x4096xf32>) -> tensor<6x4096xf32>
    %529 = tosa.reshape %527 {new_shape = array<i64: 1, 6, 4096>} : (tensor<6x4096xf32>) -> tensor<1x6x4096xf32>
    %530 = tosa.reshape %517 {new_shape = array<i64: 1, 6, 32, 128>} : (tensor<1x6x4096xf32>) -> tensor<1x6x32x128xf32>
    %531 = "tosa.const"() <{value = dense<[0, 2, 1, 3]> : tensor<4xi32>}> : () -> tensor<4xi32>
    %532 = tosa.transpose %530, %531 : (tensor<1x6x32x128xf32>, tensor<4xi32>) -> tensor<1x32x6x128xf32>
    %533 = tosa.reshape %523 {new_shape = array<i64: 1, 6, 32, 128>} : (tensor<1x6x4096xf32>) -> tensor<1x6x32x128xf32>
    %534 = "tosa.const"() <{value = dense<[0, 2, 1, 3]> : tensor<4xi32>}> : () -> tensor<4xi32>
    %535 = tosa.transpose %533, %534 : (tensor<1x6x32x128xf32>, tensor<4xi32>) -> tensor<1x32x6x128xf32>
    %536 = tosa.reshape %529 {new_shape = array<i64: 1, 6, 32, 128>} : (tensor<1x6x4096xf32>) -> tensor<1x6x32x128xf32>
    %537 = "tosa.const"() <{value = dense<[0, 2, 1, 3]> : tensor<4xi32>}> : () -> tensor<4xi32>
    %538 = tosa.transpose %536, %537 : (tensor<1x6x32x128xf32>, tensor<4xi32>) -> tensor<1x32x6x128xf32>
    %extracted_slice_109 = tensor.extract_slice %arg299[0, 0, 0, 0] [1, 1, 2048, 128] [1, 1, 1, 1] : tensor<1x1x2048x128xf32> to tensor<1x1x2048x128xf32>
    %extracted_slice_110 = tensor.extract_slice %extracted_slice_109[0, 0, 0, 0] [1, 1, 2048, 128] [1, 1, 1, 1] : tensor<1x1x2048x128xf32> to tensor<1x1x2048x128xf32>
    %extracted_slice_111 = tensor.extract_slice %extracted_slice_110[0, 0, 0, 0] [1, 1, 6, 128] [1, 1, 1, 1] : tensor<1x1x2048x128xf32> to tensor<1x1x6x128xf32>
    %extracted_slice_112 = tensor.extract_slice %arg300[0, 0, 0, 0] [1, 1, 2048, 128] [1, 1, 1, 1] : tensor<1x1x2048x128xf32> to tensor<1x1x2048x128xf32>
    %extracted_slice_113 = tensor.extract_slice %extracted_slice_112[0, 0, 0, 0] [1, 1, 2048, 128] [1, 1, 1, 1] : tensor<1x1x2048x128xf32> to tensor<1x1x2048x128xf32>
    %extracted_slice_114 = tensor.extract_slice %extracted_slice_113[0, 0, 0, 0] [1, 1, 6, 128] [1, 1, 1, 1] : tensor<1x1x2048x128xf32> to tensor<1x1x6x128xf32>
    %539 = tensor.empty() : tensor<1x6x128xf32>
    %540 = linalg.generic {indexing_maps = [#map8, #map5], iterator_types = ["parallel", "parallel", "parallel"]} ins(%extracted_slice_111 : tensor<1x1x6x128xf32>) outs(%539 : tensor<1x6x128xf32>) {
    ^bb0(%in: f32, %out: f32):
      linalg.yield %in : f32
    } -> tensor<1x6x128xf32>
    %541 = tensor.empty() : tensor<6x128xf32>
    %542 = linalg.generic {indexing_maps = [#map9, #map3], iterator_types = ["parallel", "parallel"]} ins(%540 : tensor<1x6x128xf32>) outs(%541 : tensor<6x128xf32>) {
    ^bb0(%in: f32, %out: f32):
      linalg.yield %in : f32
    } -> tensor<6x128xf32>
    %543 = tensor.empty() : tensor<1x6x128xf32>
    %544 = linalg.generic {indexing_maps = [#map8, #map5], iterator_types = ["parallel", "parallel", "parallel"]} ins(%extracted_slice_114 : tensor<1x1x6x128xf32>) outs(%543 : tensor<1x6x128xf32>) {
    ^bb0(%in: f32, %out: f32):
      linalg.yield %in : f32
    } -> tensor<1x6x128xf32>
    %545 = tensor.empty() : tensor<6x128xf32>
    %546 = linalg.generic {indexing_maps = [#map9, #map3], iterator_types = ["parallel", "parallel"]} ins(%544 : tensor<1x6x128xf32>) outs(%545 : tensor<6x128xf32>) {
    ^bb0(%in: f32, %out: f32):
      linalg.yield %in : f32
    } -> tensor<6x128xf32>
    %547 = tensor.empty() : tensor<1x6x128xf32>
    %548 = linalg.generic {indexing_maps = [#map2, #map5], iterator_types = ["parallel", "parallel", "parallel"]} ins(%2 : tensor<1x6xi64>) outs(%547 : tensor<1x6x128xf32>) {
    ^bb0(%in: i64, %out: f32):
      %3850 = arith.index_cast %in : i64 to index
      %3851 = linalg.index 2 : index
      %extracted = tensor.extract %542[%3850, %3851] : tensor<6x128xf32>
      linalg.yield %extracted : f32
    } -> tensor<1x6x128xf32>
    %549 = tosa.reshape %548 {new_shape = array<i64: 1, 1, 6, 128>} : (tensor<1x6x128xf32>) -> tensor<1x1x6x128xf32>
    %550 = tensor.empty() : tensor<1x6x128xf32>
    %551 = linalg.generic {indexing_maps = [#map2, #map5], iterator_types = ["parallel", "parallel", "parallel"]} ins(%2 : tensor<1x6xi64>) outs(%550 : tensor<1x6x128xf32>) {
    ^bb0(%in: i64, %out: f32):
      %3850 = arith.index_cast %in : i64 to index
      %3851 = linalg.index 2 : index
      %extracted = tensor.extract %546[%3850, %3851] : tensor<6x128xf32>
      linalg.yield %extracted : f32
    } -> tensor<1x6x128xf32>
    %552 = tosa.reshape %551 {new_shape = array<i64: 1, 1, 6, 128>} : (tensor<1x6x128xf32>) -> tensor<1x1x6x128xf32>
    %553 = tosa.mul %532, %549 {shift = 0 : i8} : (tensor<1x32x6x128xf32>, tensor<1x1x6x128xf32>) -> tensor<1x32x6x128xf32>
    %extracted_slice_115 = tensor.extract_slice %532[0, 0, 0, 0] [1, 32, 6, 64] [1, 1, 1, 1] : tensor<1x32x6x128xf32> to tensor<1x32x6x64xf32>
    %extracted_slice_116 = tensor.extract_slice %532[0, 0, 0, 64] [1, 32, 6, 64] [1, 1, 1, 1] : tensor<1x32x6x128xf32> to tensor<1x32x6x64xf32>
    %554 = tensor.empty() : tensor<1x32x6x64xf32>
    %555 = linalg.negf ins(%extracted_slice_116 : tensor<1x32x6x64xf32>) outs(%554 : tensor<1x32x6x64xf32>) -> tensor<1x32x6x64xf32>
    %556 = tensor.empty() : tensor<1x32x6x128xf32>
    %inserted_slice_117 = tensor.insert_slice %555 into %556[0, 0, 0, 0] [1, 32, 6, 64] [1, 1, 1, 1] : tensor<1x32x6x64xf32> into tensor<1x32x6x128xf32>
    %inserted_slice_118 = tensor.insert_slice %extracted_slice_115 into %inserted_slice_117[0, 0, 0, 64] [1, 32, 6, 64] [1, 1, 1, 1] : tensor<1x32x6x64xf32> into tensor<1x32x6x128xf32>
    %557 = tosa.mul %inserted_slice_118, %552 {shift = 0 : i8} : (tensor<1x32x6x128xf32>, tensor<1x1x6x128xf32>) -> tensor<1x32x6x128xf32>
    %558 = tosa.add %553, %557 : (tensor<1x32x6x128xf32>, tensor<1x32x6x128xf32>) -> tensor<1x32x6x128xf32>
    %559 = tosa.mul %535, %549 {shift = 0 : i8} : (tensor<1x32x6x128xf32>, tensor<1x1x6x128xf32>) -> tensor<1x32x6x128xf32>
    %extracted_slice_119 = tensor.extract_slice %535[0, 0, 0, 0] [1, 32, 6, 64] [1, 1, 1, 1] : tensor<1x32x6x128xf32> to tensor<1x32x6x64xf32>
    %extracted_slice_120 = tensor.extract_slice %535[0, 0, 0, 64] [1, 32, 6, 64] [1, 1, 1, 1] : tensor<1x32x6x128xf32> to tensor<1x32x6x64xf32>
    %560 = tensor.empty() : tensor<1x32x6x64xf32>
    %561 = linalg.negf ins(%extracted_slice_120 : tensor<1x32x6x64xf32>) outs(%560 : tensor<1x32x6x64xf32>) -> tensor<1x32x6x64xf32>
    %562 = tensor.empty() : tensor<1x32x6x128xf32>
    %inserted_slice_121 = tensor.insert_slice %561 into %562[0, 0, 0, 0] [1, 32, 6, 64] [1, 1, 1, 1] : tensor<1x32x6x64xf32> into tensor<1x32x6x128xf32>
    %inserted_slice_122 = tensor.insert_slice %extracted_slice_119 into %inserted_slice_121[0, 0, 0, 64] [1, 32, 6, 64] [1, 1, 1, 1] : tensor<1x32x6x64xf32> into tensor<1x32x6x128xf32>
    %563 = tosa.mul %inserted_slice_122, %552 {shift = 0 : i8} : (tensor<1x32x6x128xf32>, tensor<1x1x6x128xf32>) -> tensor<1x32x6x128xf32>
    %564 = tosa.add %559, %563 : (tensor<1x32x6x128xf32>, tensor<1x32x6x128xf32>) -> tensor<1x32x6x128xf32>
    %565 = "tosa.const"() <{value = dense<[0, 1, 3, 2]> : tensor<4xi32>}> : () -> tensor<4xi32>
    %566 = tosa.transpose %564, %565 : (tensor<1x32x6x128xf32>, tensor<4xi32>) -> tensor<1x32x128x6xf32>
    %567 = tosa.reshape %558 {new_shape = array<i64: 32, 6, 128>} : (tensor<1x32x6x128xf32>) -> tensor<32x6x128xf32>
    %568 = tosa.reshape %566 {new_shape = array<i64: 32, 128, 6>} : (tensor<1x32x128x6xf32>) -> tensor<32x128x6xf32>
    %569 = tosa.matmul %567, %568 : (tensor<32x6x128xf32>, tensor<32x128x6xf32>) -> tensor<32x6x6xf32>
    %570 = tosa.reshape %569 {new_shape = array<i64: 1, 32, 6, 6>} : (tensor<32x6x6xf32>) -> tensor<1x32x6x6xf32>
    %571 = "tosa.const"() <{value = dense<11.3137083> : tensor<1x32x6x6xf32>}> : () -> tensor<1x32x6x6xf32>
    %572 = tosa.reciprocal %571 : (tensor<1x32x6x6xf32>) -> tensor<1x32x6x6xf32>
    %573 = tosa.mul %570, %572 {shift = 0 : i8} : (tensor<1x32x6x6xf32>, tensor<1x32x6x6xf32>) -> tensor<1x32x6x6xf32>
    %574 = tosa.add %573, %27 : (tensor<1x32x6x6xf32>, tensor<1x1x6x6xf32>) -> tensor<1x32x6x6xf32>
    %575 = tosa.reduce_max %574 {axis = 3 : i32} : (tensor<1x32x6x6xf32>) -> tensor<1x32x6x1xf32>
    %576 = tosa.sub %574, %575 : (tensor<1x32x6x6xf32>, tensor<1x32x6x1xf32>) -> tensor<1x32x6x6xf32>
    %577 = tosa.exp %576 : (tensor<1x32x6x6xf32>) -> tensor<1x32x6x6xf32>
    %578 = tosa.reduce_sum %577 {axis = 3 : i32} : (tensor<1x32x6x6xf32>) -> tensor<1x32x6x1xf32>
    %579 = tosa.reciprocal %578 : (tensor<1x32x6x1xf32>) -> tensor<1x32x6x1xf32>
    %580 = tosa.mul %577, %579 {shift = 0 : i8} : (tensor<1x32x6x6xf32>, tensor<1x32x6x1xf32>) -> tensor<1x32x6x6xf32>
    %581 = tosa.reshape %580 {new_shape = array<i64: 32, 6, 6>} : (tensor<1x32x6x6xf32>) -> tensor<32x6x6xf32>
    %582 = tosa.reshape %538 {new_shape = array<i64: 32, 6, 128>} : (tensor<1x32x6x128xf32>) -> tensor<32x6x128xf32>
    %583 = tosa.matmul %581, %582 : (tensor<32x6x6xf32>, tensor<32x6x128xf32>) -> tensor<32x6x128xf32>
    %584 = tosa.reshape %583 {new_shape = array<i64: 1, 32, 6, 128>} : (tensor<32x6x128xf32>) -> tensor<1x32x6x128xf32>
    %585 = "tosa.const"() <{value = dense<[0, 2, 1, 3]> : tensor<4xi32>}> : () -> tensor<4xi32>
    %586 = tosa.transpose %584, %585 : (tensor<1x32x6x128xf32>, tensor<4xi32>) -> tensor<1x6x32x128xf32>
    %587 = tosa.identity %586 : (tensor<1x6x32x128xf32>) -> tensor<1x6x32x128xf32>
    %588 = tosa.reshape %587 {new_shape = array<i64: 1, 6, 4096>} : (tensor<1x6x32x128xf32>) -> tensor<1x6x4096xf32>
    %589 = "tosa.const"() <{value = dense<[1, 0]> : tensor<2xi32>}> : () -> tensor<2xi32>
    %590 = tosa.transpose %arg97, %589 : (tensor<4096x4096xf32>, tensor<2xi32>) -> tensor<4096x4096xf32>
    %591 = tosa.reshape %588 {new_shape = array<i64: 6, 4096>} : (tensor<1x6x4096xf32>) -> tensor<6x4096xf32>
    %cst_123 = arith.constant dense<0.000000e+00> : tensor<6x4096xf32>
    %592 = linalg.matmul {cast = #linalg.type_fn<cast_signed>} ins(%591, %590 : tensor<6x4096xf32>, tensor<4096x4096xf32>) outs(%cst_123 : tensor<6x4096xf32>) -> tensor<6x4096xf32>
    %593 = tosa.reshape %592 {new_shape = array<i64: 1, 6, 4096>} : (tensor<6x4096xf32>) -> tensor<1x6x4096xf32>
    %594 = tosa.add %503, %593 : (tensor<1x6x4096xf32>, tensor<1x6x4096xf32>) -> tensor<1x6x4096xf32>
    %595 = tensor.empty() : tensor<1x6x4096xf32>
    %c2_i32_124 = arith.constant 2 : i32
    %596 = linalg.generic {indexing_maps = [#map5, #map5], iterator_types = ["parallel", "parallel", "parallel"]} ins(%594 : tensor<1x6x4096xf32>) outs(%595 : tensor<1x6x4096xf32>) {
    ^bb0(%in: f32, %out: f32):
      %3850 = math.fpowi %in, %c2_i32_124 : f32, i32
      linalg.yield %3850 : f32
    } -> tensor<1x6x4096xf32>
    %cst_125 = arith.constant dense<0.000000e+00> : tensor<1x6x1xf32>
    %597 = linalg.generic {indexing_maps = [#map6, #map7], iterator_types = ["parallel", "parallel", "reduction", "parallel"]} ins(%596 : tensor<1x6x4096xf32>) outs(%cst_125 : tensor<1x6x1xf32>) {
    ^bb0(%in: f32, %out: f32):
      %cst_807 = arith.constant 4.096000e+03 : f32
      %3850 = arith.divf %in, %cst_807 : f32
      %3851 = arith.addf %3850, %out : f32
      linalg.yield %3851 : f32
    } -> tensor<1x6x1xf32>
    %598 = "tosa.const"() <{value = dense<9.99999997E-7> : tensor<1x6x1xf32>}> : () -> tensor<1x6x1xf32>
    %599 = tosa.add %597, %598 : (tensor<1x6x1xf32>, tensor<1x6x1xf32>) -> tensor<1x6x1xf32>
    %600 = tosa.rsqrt %599 : (tensor<1x6x1xf32>) -> tensor<1x6x1xf32>
    %601 = tosa.mul %594, %600 {shift = 0 : i8} : (tensor<1x6x4096xf32>, tensor<1x6x1xf32>) -> tensor<1x6x4096xf32>
    %602 = tosa.reshape %arg9 {new_shape = array<i64: 1, 1, 4096>} : (tensor<4096xf32>) -> tensor<1x1x4096xf32>
    %603 = tosa.mul %602, %601 {shift = 0 : i8} : (tensor<1x1x4096xf32>, tensor<1x6x4096xf32>) -> tensor<1x6x4096xf32>
    %604 = "tosa.const"() <{value = dense<[1, 0]> : tensor<2xi32>}> : () -> tensor<2xi32>
    %605 = tosa.transpose %arg98, %604 : (tensor<11008x4096xf32>, tensor<2xi32>) -> tensor<4096x11008xf32>
    %606 = tosa.reshape %603 {new_shape = array<i64: 6, 4096>} : (tensor<1x6x4096xf32>) -> tensor<6x4096xf32>
    %cst_126 = arith.constant dense<0.000000e+00> : tensor<6x11008xf32>
    %607 = linalg.matmul {cast = #linalg.type_fn<cast_signed>} ins(%606, %605 : tensor<6x4096xf32>, tensor<4096x11008xf32>) outs(%cst_126 : tensor<6x11008xf32>) -> tensor<6x11008xf32>
    %608 = tosa.reshape %607 {new_shape = array<i64: 1, 6, 11008>} : (tensor<6x11008xf32>) -> tensor<1x6x11008xf32>
    %609 = tosa.sigmoid %608 : (tensor<1x6x11008xf32>) -> tensor<1x6x11008xf32>
    %610 = tosa.mul %608, %609 {shift = 0 : i8} : (tensor<1x6x11008xf32>, tensor<1x6x11008xf32>) -> tensor<1x6x11008xf32>
    %611 = "tosa.const"() <{value = dense<[1, 0]> : tensor<2xi32>}> : () -> tensor<2xi32>
    %612 = tosa.transpose %arg99, %611 : (tensor<11008x4096xf32>, tensor<2xi32>) -> tensor<4096x11008xf32>
    %613 = tosa.reshape %603 {new_shape = array<i64: 6, 4096>} : (tensor<1x6x4096xf32>) -> tensor<6x4096xf32>
    %cst_127 = arith.constant dense<0.000000e+00> : tensor<6x11008xf32>
    %614 = linalg.matmul {cast = #linalg.type_fn<cast_signed>} ins(%613, %612 : tensor<6x4096xf32>, tensor<4096x11008xf32>) outs(%cst_127 : tensor<6x11008xf32>) -> tensor<6x11008xf32>
    %615 = tosa.reshape %614 {new_shape = array<i64: 1, 6, 11008>} : (tensor<6x11008xf32>) -> tensor<1x6x11008xf32>
    %616 = tosa.mul %610, %615 {shift = 0 : i8} : (tensor<1x6x11008xf32>, tensor<1x6x11008xf32>) -> tensor<1x6x11008xf32>
    %617 = "tosa.const"() <{value = dense<[1, 0]> : tensor<2xi32>}> : () -> tensor<2xi32>
    %618 = tosa.transpose %arg100, %617 : (tensor<4096x11008xf32>, tensor<2xi32>) -> tensor<11008x4096xf32>
    %619 = tosa.reshape %616 {new_shape = array<i64: 6, 11008>} : (tensor<1x6x11008xf32>) -> tensor<6x11008xf32>
    %cst_128 = arith.constant dense<0.000000e+00> : tensor<6x4096xf32>
    %620 = linalg.matmul {cast = #linalg.type_fn<cast_signed>} ins(%619, %618 : tensor<6x11008xf32>, tensor<11008x4096xf32>) outs(%cst_128 : tensor<6x4096xf32>) -> tensor<6x4096xf32>
    %621 = tosa.reshape %620 {new_shape = array<i64: 1, 6, 4096>} : (tensor<6x4096xf32>) -> tensor<1x6x4096xf32>
    %622 = tosa.add %594, %621 : (tensor<1x6x4096xf32>, tensor<1x6x4096xf32>) -> tensor<1x6x4096xf32>
    %623 = tensor.empty() : tensor<1x6x4096xf32>
    %c2_i32_129 = arith.constant 2 : i32
    %624 = linalg.generic {indexing_maps = [#map5, #map5], iterator_types = ["parallel", "parallel", "parallel"]} ins(%622 : tensor<1x6x4096xf32>) outs(%623 : tensor<1x6x4096xf32>) {
    ^bb0(%in: f32, %out: f32):
      %3850 = math.fpowi %in, %c2_i32_129 : f32, i32
      linalg.yield %3850 : f32
    } -> tensor<1x6x4096xf32>
    %cst_130 = arith.constant dense<0.000000e+00> : tensor<1x6x1xf32>
    %625 = linalg.generic {indexing_maps = [#map6, #map7], iterator_types = ["parallel", "parallel", "reduction", "parallel"]} ins(%624 : tensor<1x6x4096xf32>) outs(%cst_130 : tensor<1x6x1xf32>) {
    ^bb0(%in: f32, %out: f32):
      %cst_807 = arith.constant 4.096000e+03 : f32
      %3850 = arith.divf %in, %cst_807 : f32
      %3851 = arith.addf %3850, %out : f32
      linalg.yield %3851 : f32
    } -> tensor<1x6x1xf32>
    %626 = "tosa.const"() <{value = dense<9.99999997E-7> : tensor<1x6x1xf32>}> : () -> tensor<1x6x1xf32>
    %627 = tosa.add %625, %626 : (tensor<1x6x1xf32>, tensor<1x6x1xf32>) -> tensor<1x6x1xf32>
    %628 = tosa.rsqrt %627 : (tensor<1x6x1xf32>) -> tensor<1x6x1xf32>
    %629 = tosa.mul %622, %628 {shift = 0 : i8} : (tensor<1x6x4096xf32>, tensor<1x6x1xf32>) -> tensor<1x6x4096xf32>
    %630 = tosa.reshape %arg10 {new_shape = array<i64: 1, 1, 4096>} : (tensor<4096xf32>) -> tensor<1x1x4096xf32>
    %631 = tosa.mul %630, %629 {shift = 0 : i8} : (tensor<1x1x4096xf32>, tensor<1x6x4096xf32>) -> tensor<1x6x4096xf32>
    %632 = "tosa.const"() <{value = dense<[1, 0]> : tensor<2xi32>}> : () -> tensor<2xi32>
    %633 = tosa.transpose %arg101, %632 : (tensor<4096x4096xf32>, tensor<2xi32>) -> tensor<4096x4096xf32>
    %634 = tosa.reshape %631 {new_shape = array<i64: 6, 4096>} : (tensor<1x6x4096xf32>) -> tensor<6x4096xf32>
    %cst_131 = arith.constant dense<0.000000e+00> : tensor<6x4096xf32>
    %635 = linalg.matmul {cast = #linalg.type_fn<cast_signed>} ins(%634, %633 : tensor<6x4096xf32>, tensor<4096x4096xf32>) outs(%cst_131 : tensor<6x4096xf32>) -> tensor<6x4096xf32>
    %636 = tosa.reshape %635 {new_shape = array<i64: 1, 6, 4096>} : (tensor<6x4096xf32>) -> tensor<1x6x4096xf32>
    %637 = "tosa.const"() <{value = dense<[1, 0]> : tensor<2xi32>}> : () -> tensor<2xi32>
    %638 = tosa.transpose %arg102, %637 : (tensor<4096x4096xf32>, tensor<2xi32>) -> tensor<4096x4096xf32>
    %639 = tosa.reshape %631 {new_shape = array<i64: 6, 4096>} : (tensor<1x6x4096xf32>) -> tensor<6x4096xf32>
    %cst_132 = arith.constant dense<0.000000e+00> : tensor<6x4096xf32>
    %640 = linalg.matmul {cast = #linalg.type_fn<cast_signed>} ins(%639, %638 : tensor<6x4096xf32>, tensor<4096x4096xf32>) outs(%cst_132 : tensor<6x4096xf32>) -> tensor<6x4096xf32>
    %641 = tosa.identity %640 : (tensor<6x4096xf32>) -> tensor<6x4096xf32>
    %642 = tosa.reshape %640 {new_shape = array<i64: 1, 6, 4096>} : (tensor<6x4096xf32>) -> tensor<1x6x4096xf32>
    %643 = "tosa.const"() <{value = dense<[1, 0]> : tensor<2xi32>}> : () -> tensor<2xi32>
    %644 = tosa.transpose %arg103, %643 : (tensor<4096x4096xf32>, tensor<2xi32>) -> tensor<4096x4096xf32>
    %645 = tosa.reshape %631 {new_shape = array<i64: 6, 4096>} : (tensor<1x6x4096xf32>) -> tensor<6x4096xf32>
    %cst_133 = arith.constant dense<0.000000e+00> : tensor<6x4096xf32>
    %646 = linalg.matmul {cast = #linalg.type_fn<cast_signed>} ins(%645, %644 : tensor<6x4096xf32>, tensor<4096x4096xf32>) outs(%cst_133 : tensor<6x4096xf32>) -> tensor<6x4096xf32>
    %647 = tosa.identity %646 : (tensor<6x4096xf32>) -> tensor<6x4096xf32>
    %648 = tosa.reshape %646 {new_shape = array<i64: 1, 6, 4096>} : (tensor<6x4096xf32>) -> tensor<1x6x4096xf32>
    %649 = tosa.reshape %636 {new_shape = array<i64: 1, 6, 32, 128>} : (tensor<1x6x4096xf32>) -> tensor<1x6x32x128xf32>
    %650 = "tosa.const"() <{value = dense<[0, 2, 1, 3]> : tensor<4xi32>}> : () -> tensor<4xi32>
    %651 = tosa.transpose %649, %650 : (tensor<1x6x32x128xf32>, tensor<4xi32>) -> tensor<1x32x6x128xf32>
    %652 = tosa.reshape %642 {new_shape = array<i64: 1, 6, 32, 128>} : (tensor<1x6x4096xf32>) -> tensor<1x6x32x128xf32>
    %653 = "tosa.const"() <{value = dense<[0, 2, 1, 3]> : tensor<4xi32>}> : () -> tensor<4xi32>
    %654 = tosa.transpose %652, %653 : (tensor<1x6x32x128xf32>, tensor<4xi32>) -> tensor<1x32x6x128xf32>
    %655 = tosa.reshape %648 {new_shape = array<i64: 1, 6, 32, 128>} : (tensor<1x6x4096xf32>) -> tensor<1x6x32x128xf32>
    %656 = "tosa.const"() <{value = dense<[0, 2, 1, 3]> : tensor<4xi32>}> : () -> tensor<4xi32>
    %657 = tosa.transpose %655, %656 : (tensor<1x6x32x128xf32>, tensor<4xi32>) -> tensor<1x32x6x128xf32>
    %extracted_slice_134 = tensor.extract_slice %arg301[0, 0, 0, 0] [1, 1, 2048, 128] [1, 1, 1, 1] : tensor<1x1x2048x128xf32> to tensor<1x1x2048x128xf32>
    %extracted_slice_135 = tensor.extract_slice %extracted_slice_134[0, 0, 0, 0] [1, 1, 2048, 128] [1, 1, 1, 1] : tensor<1x1x2048x128xf32> to tensor<1x1x2048x128xf32>
    %extracted_slice_136 = tensor.extract_slice %extracted_slice_135[0, 0, 0, 0] [1, 1, 6, 128] [1, 1, 1, 1] : tensor<1x1x2048x128xf32> to tensor<1x1x6x128xf32>
    %extracted_slice_137 = tensor.extract_slice %arg302[0, 0, 0, 0] [1, 1, 2048, 128] [1, 1, 1, 1] : tensor<1x1x2048x128xf32> to tensor<1x1x2048x128xf32>
    %extracted_slice_138 = tensor.extract_slice %extracted_slice_137[0, 0, 0, 0] [1, 1, 2048, 128] [1, 1, 1, 1] : tensor<1x1x2048x128xf32> to tensor<1x1x2048x128xf32>
    %extracted_slice_139 = tensor.extract_slice %extracted_slice_138[0, 0, 0, 0] [1, 1, 6, 128] [1, 1, 1, 1] : tensor<1x1x2048x128xf32> to tensor<1x1x6x128xf32>
    %658 = tensor.empty() : tensor<1x6x128xf32>
    %659 = linalg.generic {indexing_maps = [#map8, #map5], iterator_types = ["parallel", "parallel", "parallel"]} ins(%extracted_slice_136 : tensor<1x1x6x128xf32>) outs(%658 : tensor<1x6x128xf32>) {
    ^bb0(%in: f32, %out: f32):
      linalg.yield %in : f32
    } -> tensor<1x6x128xf32>
    %660 = tensor.empty() : tensor<6x128xf32>
    %661 = linalg.generic {indexing_maps = [#map9, #map3], iterator_types = ["parallel", "parallel"]} ins(%659 : tensor<1x6x128xf32>) outs(%660 : tensor<6x128xf32>) {
    ^bb0(%in: f32, %out: f32):
      linalg.yield %in : f32
    } -> tensor<6x128xf32>
    %662 = tensor.empty() : tensor<1x6x128xf32>
    %663 = linalg.generic {indexing_maps = [#map8, #map5], iterator_types = ["parallel", "parallel", "parallel"]} ins(%extracted_slice_139 : tensor<1x1x6x128xf32>) outs(%662 : tensor<1x6x128xf32>) {
    ^bb0(%in: f32, %out: f32):
      linalg.yield %in : f32
    } -> tensor<1x6x128xf32>
    %664 = tensor.empty() : tensor<6x128xf32>
    %665 = linalg.generic {indexing_maps = [#map9, #map3], iterator_types = ["parallel", "parallel"]} ins(%663 : tensor<1x6x128xf32>) outs(%664 : tensor<6x128xf32>) {
    ^bb0(%in: f32, %out: f32):
      linalg.yield %in : f32
    } -> tensor<6x128xf32>
    %666 = tensor.empty() : tensor<1x6x128xf32>
    %667 = linalg.generic {indexing_maps = [#map2, #map5], iterator_types = ["parallel", "parallel", "parallel"]} ins(%2 : tensor<1x6xi64>) outs(%666 : tensor<1x6x128xf32>) {
    ^bb0(%in: i64, %out: f32):
      %3850 = arith.index_cast %in : i64 to index
      %3851 = linalg.index 2 : index
      %extracted = tensor.extract %661[%3850, %3851] : tensor<6x128xf32>
      linalg.yield %extracted : f32
    } -> tensor<1x6x128xf32>
    %668 = tosa.reshape %667 {new_shape = array<i64: 1, 1, 6, 128>} : (tensor<1x6x128xf32>) -> tensor<1x1x6x128xf32>
    %669 = tensor.empty() : tensor<1x6x128xf32>
    %670 = linalg.generic {indexing_maps = [#map2, #map5], iterator_types = ["parallel", "parallel", "parallel"]} ins(%2 : tensor<1x6xi64>) outs(%669 : tensor<1x6x128xf32>) {
    ^bb0(%in: i64, %out: f32):
      %3850 = arith.index_cast %in : i64 to index
      %3851 = linalg.index 2 : index
      %extracted = tensor.extract %665[%3850, %3851] : tensor<6x128xf32>
      linalg.yield %extracted : f32
    } -> tensor<1x6x128xf32>
    %671 = tosa.reshape %670 {new_shape = array<i64: 1, 1, 6, 128>} : (tensor<1x6x128xf32>) -> tensor<1x1x6x128xf32>
    %672 = tosa.mul %651, %668 {shift = 0 : i8} : (tensor<1x32x6x128xf32>, tensor<1x1x6x128xf32>) -> tensor<1x32x6x128xf32>
    %extracted_slice_140 = tensor.extract_slice %651[0, 0, 0, 0] [1, 32, 6, 64] [1, 1, 1, 1] : tensor<1x32x6x128xf32> to tensor<1x32x6x64xf32>
    %extracted_slice_141 = tensor.extract_slice %651[0, 0, 0, 64] [1, 32, 6, 64] [1, 1, 1, 1] : tensor<1x32x6x128xf32> to tensor<1x32x6x64xf32>
    %673 = tensor.empty() : tensor<1x32x6x64xf32>
    %674 = linalg.negf ins(%extracted_slice_141 : tensor<1x32x6x64xf32>) outs(%673 : tensor<1x32x6x64xf32>) -> tensor<1x32x6x64xf32>
    %675 = tensor.empty() : tensor<1x32x6x128xf32>
    %inserted_slice_142 = tensor.insert_slice %674 into %675[0, 0, 0, 0] [1, 32, 6, 64] [1, 1, 1, 1] : tensor<1x32x6x64xf32> into tensor<1x32x6x128xf32>
    %inserted_slice_143 = tensor.insert_slice %extracted_slice_140 into %inserted_slice_142[0, 0, 0, 64] [1, 32, 6, 64] [1, 1, 1, 1] : tensor<1x32x6x64xf32> into tensor<1x32x6x128xf32>
    %676 = tosa.mul %inserted_slice_143, %671 {shift = 0 : i8} : (tensor<1x32x6x128xf32>, tensor<1x1x6x128xf32>) -> tensor<1x32x6x128xf32>
    %677 = tosa.add %672, %676 : (tensor<1x32x6x128xf32>, tensor<1x32x6x128xf32>) -> tensor<1x32x6x128xf32>
    %678 = tosa.mul %654, %668 {shift = 0 : i8} : (tensor<1x32x6x128xf32>, tensor<1x1x6x128xf32>) -> tensor<1x32x6x128xf32>
    %extracted_slice_144 = tensor.extract_slice %654[0, 0, 0, 0] [1, 32, 6, 64] [1, 1, 1, 1] : tensor<1x32x6x128xf32> to tensor<1x32x6x64xf32>
    %extracted_slice_145 = tensor.extract_slice %654[0, 0, 0, 64] [1, 32, 6, 64] [1, 1, 1, 1] : tensor<1x32x6x128xf32> to tensor<1x32x6x64xf32>
    %679 = tensor.empty() : tensor<1x32x6x64xf32>
    %680 = linalg.negf ins(%extracted_slice_145 : tensor<1x32x6x64xf32>) outs(%679 : tensor<1x32x6x64xf32>) -> tensor<1x32x6x64xf32>
    %681 = tensor.empty() : tensor<1x32x6x128xf32>
    %inserted_slice_146 = tensor.insert_slice %680 into %681[0, 0, 0, 0] [1, 32, 6, 64] [1, 1, 1, 1] : tensor<1x32x6x64xf32> into tensor<1x32x6x128xf32>
    %inserted_slice_147 = tensor.insert_slice %extracted_slice_144 into %inserted_slice_146[0, 0, 0, 64] [1, 32, 6, 64] [1, 1, 1, 1] : tensor<1x32x6x64xf32> into tensor<1x32x6x128xf32>
    %682 = tosa.mul %inserted_slice_147, %671 {shift = 0 : i8} : (tensor<1x32x6x128xf32>, tensor<1x1x6x128xf32>) -> tensor<1x32x6x128xf32>
    %683 = tosa.add %678, %682 : (tensor<1x32x6x128xf32>, tensor<1x32x6x128xf32>) -> tensor<1x32x6x128xf32>
    %684 = "tosa.const"() <{value = dense<[0, 1, 3, 2]> : tensor<4xi32>}> : () -> tensor<4xi32>
    %685 = tosa.transpose %683, %684 : (tensor<1x32x6x128xf32>, tensor<4xi32>) -> tensor<1x32x128x6xf32>
    %686 = tosa.reshape %677 {new_shape = array<i64: 32, 6, 128>} : (tensor<1x32x6x128xf32>) -> tensor<32x6x128xf32>
    %687 = tosa.reshape %685 {new_shape = array<i64: 32, 128, 6>} : (tensor<1x32x128x6xf32>) -> tensor<32x128x6xf32>
    %688 = tosa.matmul %686, %687 : (tensor<32x6x128xf32>, tensor<32x128x6xf32>) -> tensor<32x6x6xf32>
    %689 = tosa.reshape %688 {new_shape = array<i64: 1, 32, 6, 6>} : (tensor<32x6x6xf32>) -> tensor<1x32x6x6xf32>
    %690 = "tosa.const"() <{value = dense<11.3137083> : tensor<1x32x6x6xf32>}> : () -> tensor<1x32x6x6xf32>
    %691 = tosa.reciprocal %690 : (tensor<1x32x6x6xf32>) -> tensor<1x32x6x6xf32>
    %692 = tosa.mul %689, %691 {shift = 0 : i8} : (tensor<1x32x6x6xf32>, tensor<1x32x6x6xf32>) -> tensor<1x32x6x6xf32>
    %693 = tosa.add %692, %27 : (tensor<1x32x6x6xf32>, tensor<1x1x6x6xf32>) -> tensor<1x32x6x6xf32>
    %694 = tosa.reduce_max %693 {axis = 3 : i32} : (tensor<1x32x6x6xf32>) -> tensor<1x32x6x1xf32>
    %695 = tosa.sub %693, %694 : (tensor<1x32x6x6xf32>, tensor<1x32x6x1xf32>) -> tensor<1x32x6x6xf32>
    %696 = tosa.exp %695 : (tensor<1x32x6x6xf32>) -> tensor<1x32x6x6xf32>
    %697 = tosa.reduce_sum %696 {axis = 3 : i32} : (tensor<1x32x6x6xf32>) -> tensor<1x32x6x1xf32>
    %698 = tosa.reciprocal %697 : (tensor<1x32x6x1xf32>) -> tensor<1x32x6x1xf32>
    %699 = tosa.mul %696, %698 {shift = 0 : i8} : (tensor<1x32x6x6xf32>, tensor<1x32x6x1xf32>) -> tensor<1x32x6x6xf32>
    %700 = tosa.reshape %699 {new_shape = array<i64: 32, 6, 6>} : (tensor<1x32x6x6xf32>) -> tensor<32x6x6xf32>
    %701 = tosa.reshape %657 {new_shape = array<i64: 32, 6, 128>} : (tensor<1x32x6x128xf32>) -> tensor<32x6x128xf32>
    %702 = tosa.matmul %700, %701 : (tensor<32x6x6xf32>, tensor<32x6x128xf32>) -> tensor<32x6x128xf32>
    %703 = tosa.reshape %702 {new_shape = array<i64: 1, 32, 6, 128>} : (tensor<32x6x128xf32>) -> tensor<1x32x6x128xf32>
    %704 = "tosa.const"() <{value = dense<[0, 2, 1, 3]> : tensor<4xi32>}> : () -> tensor<4xi32>
    %705 = tosa.transpose %703, %704 : (tensor<1x32x6x128xf32>, tensor<4xi32>) -> tensor<1x6x32x128xf32>
    %706 = tosa.identity %705 : (tensor<1x6x32x128xf32>) -> tensor<1x6x32x128xf32>
    %707 = tosa.reshape %706 {new_shape = array<i64: 1, 6, 4096>} : (tensor<1x6x32x128xf32>) -> tensor<1x6x4096xf32>
    %708 = "tosa.const"() <{value = dense<[1, 0]> : tensor<2xi32>}> : () -> tensor<2xi32>
    %709 = tosa.transpose %arg104, %708 : (tensor<4096x4096xf32>, tensor<2xi32>) -> tensor<4096x4096xf32>
    %710 = tosa.reshape %707 {new_shape = array<i64: 6, 4096>} : (tensor<1x6x4096xf32>) -> tensor<6x4096xf32>
    %cst_148 = arith.constant dense<0.000000e+00> : tensor<6x4096xf32>
    %711 = linalg.matmul {cast = #linalg.type_fn<cast_signed>} ins(%710, %709 : tensor<6x4096xf32>, tensor<4096x4096xf32>) outs(%cst_148 : tensor<6x4096xf32>) -> tensor<6x4096xf32>
    %712 = tosa.reshape %711 {new_shape = array<i64: 1, 6, 4096>} : (tensor<6x4096xf32>) -> tensor<1x6x4096xf32>
    %713 = tosa.add %622, %712 : (tensor<1x6x4096xf32>, tensor<1x6x4096xf32>) -> tensor<1x6x4096xf32>
    %714 = tensor.empty() : tensor<1x6x4096xf32>
    %c2_i32_149 = arith.constant 2 : i32
    %715 = linalg.generic {indexing_maps = [#map5, #map5], iterator_types = ["parallel", "parallel", "parallel"]} ins(%713 : tensor<1x6x4096xf32>) outs(%714 : tensor<1x6x4096xf32>) {
    ^bb0(%in: f32, %out: f32):
      %3850 = math.fpowi %in, %c2_i32_149 : f32, i32
      linalg.yield %3850 : f32
    } -> tensor<1x6x4096xf32>
    %cst_150 = arith.constant dense<0.000000e+00> : tensor<1x6x1xf32>
    %716 = linalg.generic {indexing_maps = [#map6, #map7], iterator_types = ["parallel", "parallel", "reduction", "parallel"]} ins(%715 : tensor<1x6x4096xf32>) outs(%cst_150 : tensor<1x6x1xf32>) {
    ^bb0(%in: f32, %out: f32):
      %cst_807 = arith.constant 4.096000e+03 : f32
      %3850 = arith.divf %in, %cst_807 : f32
      %3851 = arith.addf %3850, %out : f32
      linalg.yield %3851 : f32
    } -> tensor<1x6x1xf32>
    %717 = "tosa.const"() <{value = dense<9.99999997E-7> : tensor<1x6x1xf32>}> : () -> tensor<1x6x1xf32>
    %718 = tosa.add %716, %717 : (tensor<1x6x1xf32>, tensor<1x6x1xf32>) -> tensor<1x6x1xf32>
    %719 = tosa.rsqrt %718 : (tensor<1x6x1xf32>) -> tensor<1x6x1xf32>
    %720 = tosa.mul %713, %719 {shift = 0 : i8} : (tensor<1x6x4096xf32>, tensor<1x6x1xf32>) -> tensor<1x6x4096xf32>
    %721 = tosa.reshape %arg11 {new_shape = array<i64: 1, 1, 4096>} : (tensor<4096xf32>) -> tensor<1x1x4096xf32>
    %722 = tosa.mul %721, %720 {shift = 0 : i8} : (tensor<1x1x4096xf32>, tensor<1x6x4096xf32>) -> tensor<1x6x4096xf32>
    %723 = "tosa.const"() <{value = dense<[1, 0]> : tensor<2xi32>}> : () -> tensor<2xi32>
    %724 = tosa.transpose %arg105, %723 : (tensor<11008x4096xf32>, tensor<2xi32>) -> tensor<4096x11008xf32>
    %725 = tosa.reshape %722 {new_shape = array<i64: 6, 4096>} : (tensor<1x6x4096xf32>) -> tensor<6x4096xf32>
    %cst_151 = arith.constant dense<0.000000e+00> : tensor<6x11008xf32>
    %726 = linalg.matmul {cast = #linalg.type_fn<cast_signed>} ins(%725, %724 : tensor<6x4096xf32>, tensor<4096x11008xf32>) outs(%cst_151 : tensor<6x11008xf32>) -> tensor<6x11008xf32>
    %727 = tosa.reshape %726 {new_shape = array<i64: 1, 6, 11008>} : (tensor<6x11008xf32>) -> tensor<1x6x11008xf32>
    %728 = tosa.sigmoid %727 : (tensor<1x6x11008xf32>) -> tensor<1x6x11008xf32>
    %729 = tosa.mul %727, %728 {shift = 0 : i8} : (tensor<1x6x11008xf32>, tensor<1x6x11008xf32>) -> tensor<1x6x11008xf32>
    %730 = "tosa.const"() <{value = dense<[1, 0]> : tensor<2xi32>}> : () -> tensor<2xi32>
    %731 = tosa.transpose %arg106, %730 : (tensor<11008x4096xf32>, tensor<2xi32>) -> tensor<4096x11008xf32>
    %732 = tosa.reshape %722 {new_shape = array<i64: 6, 4096>} : (tensor<1x6x4096xf32>) -> tensor<6x4096xf32>
    %cst_152 = arith.constant dense<0.000000e+00> : tensor<6x11008xf32>
    %733 = linalg.matmul {cast = #linalg.type_fn<cast_signed>} ins(%732, %731 : tensor<6x4096xf32>, tensor<4096x11008xf32>) outs(%cst_152 : tensor<6x11008xf32>) -> tensor<6x11008xf32>
    %734 = tosa.reshape %733 {new_shape = array<i64: 1, 6, 11008>} : (tensor<6x11008xf32>) -> tensor<1x6x11008xf32>
    %735 = tosa.mul %729, %734 {shift = 0 : i8} : (tensor<1x6x11008xf32>, tensor<1x6x11008xf32>) -> tensor<1x6x11008xf32>
    %736 = "tosa.const"() <{value = dense<[1, 0]> : tensor<2xi32>}> : () -> tensor<2xi32>
    %737 = tosa.transpose %arg107, %736 : (tensor<4096x11008xf32>, tensor<2xi32>) -> tensor<11008x4096xf32>
    %738 = tosa.reshape %735 {new_shape = array<i64: 6, 11008>} : (tensor<1x6x11008xf32>) -> tensor<6x11008xf32>
    %cst_153 = arith.constant dense<0.000000e+00> : tensor<6x4096xf32>
    %739 = linalg.matmul {cast = #linalg.type_fn<cast_signed>} ins(%738, %737 : tensor<6x11008xf32>, tensor<11008x4096xf32>) outs(%cst_153 : tensor<6x4096xf32>) -> tensor<6x4096xf32>
    %740 = tosa.reshape %739 {new_shape = array<i64: 1, 6, 4096>} : (tensor<6x4096xf32>) -> tensor<1x6x4096xf32>
    %741 = tosa.add %713, %740 : (tensor<1x6x4096xf32>, tensor<1x6x4096xf32>) -> tensor<1x6x4096xf32>
    %742 = tensor.empty() : tensor<1x6x4096xf32>
    %c2_i32_154 = arith.constant 2 : i32
    %743 = linalg.generic {indexing_maps = [#map5, #map5], iterator_types = ["parallel", "parallel", "parallel"]} ins(%741 : tensor<1x6x4096xf32>) outs(%742 : tensor<1x6x4096xf32>) {
    ^bb0(%in: f32, %out: f32):
      %3850 = math.fpowi %in, %c2_i32_154 : f32, i32
      linalg.yield %3850 : f32
    } -> tensor<1x6x4096xf32>
    %cst_155 = arith.constant dense<0.000000e+00> : tensor<1x6x1xf32>
    %744 = linalg.generic {indexing_maps = [#map6, #map7], iterator_types = ["parallel", "parallel", "reduction", "parallel"]} ins(%743 : tensor<1x6x4096xf32>) outs(%cst_155 : tensor<1x6x1xf32>) {
    ^bb0(%in: f32, %out: f32):
      %cst_807 = arith.constant 4.096000e+03 : f32
      %3850 = arith.divf %in, %cst_807 : f32
      %3851 = arith.addf %3850, %out : f32
      linalg.yield %3851 : f32
    } -> tensor<1x6x1xf32>
    %745 = "tosa.const"() <{value = dense<9.99999997E-7> : tensor<1x6x1xf32>}> : () -> tensor<1x6x1xf32>
    %746 = tosa.add %744, %745 : (tensor<1x6x1xf32>, tensor<1x6x1xf32>) -> tensor<1x6x1xf32>
    %747 = tosa.rsqrt %746 : (tensor<1x6x1xf32>) -> tensor<1x6x1xf32>
    %748 = tosa.mul %741, %747 {shift = 0 : i8} : (tensor<1x6x4096xf32>, tensor<1x6x1xf32>) -> tensor<1x6x4096xf32>
    %749 = tosa.reshape %arg12 {new_shape = array<i64: 1, 1, 4096>} : (tensor<4096xf32>) -> tensor<1x1x4096xf32>
    %750 = tosa.mul %749, %748 {shift = 0 : i8} : (tensor<1x1x4096xf32>, tensor<1x6x4096xf32>) -> tensor<1x6x4096xf32>
    %751 = "tosa.const"() <{value = dense<[1, 0]> : tensor<2xi32>}> : () -> tensor<2xi32>
    %752 = tosa.transpose %arg108, %751 : (tensor<4096x4096xf32>, tensor<2xi32>) -> tensor<4096x4096xf32>
    %753 = tosa.reshape %750 {new_shape = array<i64: 6, 4096>} : (tensor<1x6x4096xf32>) -> tensor<6x4096xf32>
    %cst_156 = arith.constant dense<0.000000e+00> : tensor<6x4096xf32>
    %754 = linalg.matmul {cast = #linalg.type_fn<cast_signed>} ins(%753, %752 : tensor<6x4096xf32>, tensor<4096x4096xf32>) outs(%cst_156 : tensor<6x4096xf32>) -> tensor<6x4096xf32>
    %755 = tosa.reshape %754 {new_shape = array<i64: 1, 6, 4096>} : (tensor<6x4096xf32>) -> tensor<1x6x4096xf32>
    %756 = "tosa.const"() <{value = dense<[1, 0]> : tensor<2xi32>}> : () -> tensor<2xi32>
    %757 = tosa.transpose %arg109, %756 : (tensor<4096x4096xf32>, tensor<2xi32>) -> tensor<4096x4096xf32>
    %758 = tosa.reshape %750 {new_shape = array<i64: 6, 4096>} : (tensor<1x6x4096xf32>) -> tensor<6x4096xf32>
    %cst_157 = arith.constant dense<0.000000e+00> : tensor<6x4096xf32>
    %759 = linalg.matmul {cast = #linalg.type_fn<cast_signed>} ins(%758, %757 : tensor<6x4096xf32>, tensor<4096x4096xf32>) outs(%cst_157 : tensor<6x4096xf32>) -> tensor<6x4096xf32>
    %760 = tosa.identity %759 : (tensor<6x4096xf32>) -> tensor<6x4096xf32>
    %761 = tosa.reshape %759 {new_shape = array<i64: 1, 6, 4096>} : (tensor<6x4096xf32>) -> tensor<1x6x4096xf32>
    %762 = "tosa.const"() <{value = dense<[1, 0]> : tensor<2xi32>}> : () -> tensor<2xi32>
    %763 = tosa.transpose %arg110, %762 : (tensor<4096x4096xf32>, tensor<2xi32>) -> tensor<4096x4096xf32>
    %764 = tosa.reshape %750 {new_shape = array<i64: 6, 4096>} : (tensor<1x6x4096xf32>) -> tensor<6x4096xf32>
    %cst_158 = arith.constant dense<0.000000e+00> : tensor<6x4096xf32>
    %765 = linalg.matmul {cast = #linalg.type_fn<cast_signed>} ins(%764, %763 : tensor<6x4096xf32>, tensor<4096x4096xf32>) outs(%cst_158 : tensor<6x4096xf32>) -> tensor<6x4096xf32>
    %766 = tosa.identity %765 : (tensor<6x4096xf32>) -> tensor<6x4096xf32>
    %767 = tosa.reshape %765 {new_shape = array<i64: 1, 6, 4096>} : (tensor<6x4096xf32>) -> tensor<1x6x4096xf32>
    %768 = tosa.reshape %755 {new_shape = array<i64: 1, 6, 32, 128>} : (tensor<1x6x4096xf32>) -> tensor<1x6x32x128xf32>
    %769 = "tosa.const"() <{value = dense<[0, 2, 1, 3]> : tensor<4xi32>}> : () -> tensor<4xi32>
    %770 = tosa.transpose %768, %769 : (tensor<1x6x32x128xf32>, tensor<4xi32>) -> tensor<1x32x6x128xf32>
    %771 = tosa.reshape %761 {new_shape = array<i64: 1, 6, 32, 128>} : (tensor<1x6x4096xf32>) -> tensor<1x6x32x128xf32>
    %772 = "tosa.const"() <{value = dense<[0, 2, 1, 3]> : tensor<4xi32>}> : () -> tensor<4xi32>
    %773 = tosa.transpose %771, %772 : (tensor<1x6x32x128xf32>, tensor<4xi32>) -> tensor<1x32x6x128xf32>
    %774 = tosa.reshape %767 {new_shape = array<i64: 1, 6, 32, 128>} : (tensor<1x6x4096xf32>) -> tensor<1x6x32x128xf32>
    %775 = "tosa.const"() <{value = dense<[0, 2, 1, 3]> : tensor<4xi32>}> : () -> tensor<4xi32>
    %776 = tosa.transpose %774, %775 : (tensor<1x6x32x128xf32>, tensor<4xi32>) -> tensor<1x32x6x128xf32>
    %extracted_slice_159 = tensor.extract_slice %arg303[0, 0, 0, 0] [1, 1, 2048, 128] [1, 1, 1, 1] : tensor<1x1x2048x128xf32> to tensor<1x1x2048x128xf32>
    %extracted_slice_160 = tensor.extract_slice %extracted_slice_159[0, 0, 0, 0] [1, 1, 2048, 128] [1, 1, 1, 1] : tensor<1x1x2048x128xf32> to tensor<1x1x2048x128xf32>
    %extracted_slice_161 = tensor.extract_slice %extracted_slice_160[0, 0, 0, 0] [1, 1, 6, 128] [1, 1, 1, 1] : tensor<1x1x2048x128xf32> to tensor<1x1x6x128xf32>
    %extracted_slice_162 = tensor.extract_slice %arg304[0, 0, 0, 0] [1, 1, 2048, 128] [1, 1, 1, 1] : tensor<1x1x2048x128xf32> to tensor<1x1x2048x128xf32>
    %extracted_slice_163 = tensor.extract_slice %extracted_slice_162[0, 0, 0, 0] [1, 1, 2048, 128] [1, 1, 1, 1] : tensor<1x1x2048x128xf32> to tensor<1x1x2048x128xf32>
    %extracted_slice_164 = tensor.extract_slice %extracted_slice_163[0, 0, 0, 0] [1, 1, 6, 128] [1, 1, 1, 1] : tensor<1x1x2048x128xf32> to tensor<1x1x6x128xf32>
    %777 = tensor.empty() : tensor<1x6x128xf32>
    %778 = linalg.generic {indexing_maps = [#map8, #map5], iterator_types = ["parallel", "parallel", "parallel"]} ins(%extracted_slice_161 : tensor<1x1x6x128xf32>) outs(%777 : tensor<1x6x128xf32>) {
    ^bb0(%in: f32, %out: f32):
      linalg.yield %in : f32
    } -> tensor<1x6x128xf32>
    %779 = tensor.empty() : tensor<6x128xf32>
    %780 = linalg.generic {indexing_maps = [#map9, #map3], iterator_types = ["parallel", "parallel"]} ins(%778 : tensor<1x6x128xf32>) outs(%779 : tensor<6x128xf32>) {
    ^bb0(%in: f32, %out: f32):
      linalg.yield %in : f32
    } -> tensor<6x128xf32>
    %781 = tensor.empty() : tensor<1x6x128xf32>
    %782 = linalg.generic {indexing_maps = [#map8, #map5], iterator_types = ["parallel", "parallel", "parallel"]} ins(%extracted_slice_164 : tensor<1x1x6x128xf32>) outs(%781 : tensor<1x6x128xf32>) {
    ^bb0(%in: f32, %out: f32):
      linalg.yield %in : f32
    } -> tensor<1x6x128xf32>
    %783 = tensor.empty() : tensor<6x128xf32>
    %784 = linalg.generic {indexing_maps = [#map9, #map3], iterator_types = ["parallel", "parallel"]} ins(%782 : tensor<1x6x128xf32>) outs(%783 : tensor<6x128xf32>) {
    ^bb0(%in: f32, %out: f32):
      linalg.yield %in : f32
    } -> tensor<6x128xf32>
    %785 = tensor.empty() : tensor<1x6x128xf32>
    %786 = linalg.generic {indexing_maps = [#map2, #map5], iterator_types = ["parallel", "parallel", "parallel"]} ins(%2 : tensor<1x6xi64>) outs(%785 : tensor<1x6x128xf32>) {
    ^bb0(%in: i64, %out: f32):
      %3850 = arith.index_cast %in : i64 to index
      %3851 = linalg.index 2 : index
      %extracted = tensor.extract %780[%3850, %3851] : tensor<6x128xf32>
      linalg.yield %extracted : f32
    } -> tensor<1x6x128xf32>
    %787 = tosa.reshape %786 {new_shape = array<i64: 1, 1, 6, 128>} : (tensor<1x6x128xf32>) -> tensor<1x1x6x128xf32>
    %788 = tensor.empty() : tensor<1x6x128xf32>
    %789 = linalg.generic {indexing_maps = [#map2, #map5], iterator_types = ["parallel", "parallel", "parallel"]} ins(%2 : tensor<1x6xi64>) outs(%788 : tensor<1x6x128xf32>) {
    ^bb0(%in: i64, %out: f32):
      %3850 = arith.index_cast %in : i64 to index
      %3851 = linalg.index 2 : index
      %extracted = tensor.extract %784[%3850, %3851] : tensor<6x128xf32>
      linalg.yield %extracted : f32
    } -> tensor<1x6x128xf32>
    %790 = tosa.reshape %789 {new_shape = array<i64: 1, 1, 6, 128>} : (tensor<1x6x128xf32>) -> tensor<1x1x6x128xf32>
    %791 = tosa.mul %770, %787 {shift = 0 : i8} : (tensor<1x32x6x128xf32>, tensor<1x1x6x128xf32>) -> tensor<1x32x6x128xf32>
    %extracted_slice_165 = tensor.extract_slice %770[0, 0, 0, 0] [1, 32, 6, 64] [1, 1, 1, 1] : tensor<1x32x6x128xf32> to tensor<1x32x6x64xf32>
    %extracted_slice_166 = tensor.extract_slice %770[0, 0, 0, 64] [1, 32, 6, 64] [1, 1, 1, 1] : tensor<1x32x6x128xf32> to tensor<1x32x6x64xf32>
    %792 = tensor.empty() : tensor<1x32x6x64xf32>
    %793 = linalg.negf ins(%extracted_slice_166 : tensor<1x32x6x64xf32>) outs(%792 : tensor<1x32x6x64xf32>) -> tensor<1x32x6x64xf32>
    %794 = tensor.empty() : tensor<1x32x6x128xf32>
    %inserted_slice_167 = tensor.insert_slice %793 into %794[0, 0, 0, 0] [1, 32, 6, 64] [1, 1, 1, 1] : tensor<1x32x6x64xf32> into tensor<1x32x6x128xf32>
    %inserted_slice_168 = tensor.insert_slice %extracted_slice_165 into %inserted_slice_167[0, 0, 0, 64] [1, 32, 6, 64] [1, 1, 1, 1] : tensor<1x32x6x64xf32> into tensor<1x32x6x128xf32>
    %795 = tosa.mul %inserted_slice_168, %790 {shift = 0 : i8} : (tensor<1x32x6x128xf32>, tensor<1x1x6x128xf32>) -> tensor<1x32x6x128xf32>
    %796 = tosa.add %791, %795 : (tensor<1x32x6x128xf32>, tensor<1x32x6x128xf32>) -> tensor<1x32x6x128xf32>
    %797 = tosa.mul %773, %787 {shift = 0 : i8} : (tensor<1x32x6x128xf32>, tensor<1x1x6x128xf32>) -> tensor<1x32x6x128xf32>
    %extracted_slice_169 = tensor.extract_slice %773[0, 0, 0, 0] [1, 32, 6, 64] [1, 1, 1, 1] : tensor<1x32x6x128xf32> to tensor<1x32x6x64xf32>
    %extracted_slice_170 = tensor.extract_slice %773[0, 0, 0, 64] [1, 32, 6, 64] [1, 1, 1, 1] : tensor<1x32x6x128xf32> to tensor<1x32x6x64xf32>
    %798 = tensor.empty() : tensor<1x32x6x64xf32>
    %799 = linalg.negf ins(%extracted_slice_170 : tensor<1x32x6x64xf32>) outs(%798 : tensor<1x32x6x64xf32>) -> tensor<1x32x6x64xf32>
    %800 = tensor.empty() : tensor<1x32x6x128xf32>
    %inserted_slice_171 = tensor.insert_slice %799 into %800[0, 0, 0, 0] [1, 32, 6, 64] [1, 1, 1, 1] : tensor<1x32x6x64xf32> into tensor<1x32x6x128xf32>
    %inserted_slice_172 = tensor.insert_slice %extracted_slice_169 into %inserted_slice_171[0, 0, 0, 64] [1, 32, 6, 64] [1, 1, 1, 1] : tensor<1x32x6x64xf32> into tensor<1x32x6x128xf32>
    %801 = tosa.mul %inserted_slice_172, %790 {shift = 0 : i8} : (tensor<1x32x6x128xf32>, tensor<1x1x6x128xf32>) -> tensor<1x32x6x128xf32>
    %802 = tosa.add %797, %801 : (tensor<1x32x6x128xf32>, tensor<1x32x6x128xf32>) -> tensor<1x32x6x128xf32>
    %803 = "tosa.const"() <{value = dense<[0, 1, 3, 2]> : tensor<4xi32>}> : () -> tensor<4xi32>
    %804 = tosa.transpose %802, %803 : (tensor<1x32x6x128xf32>, tensor<4xi32>) -> tensor<1x32x128x6xf32>
    %805 = tosa.reshape %796 {new_shape = array<i64: 32, 6, 128>} : (tensor<1x32x6x128xf32>) -> tensor<32x6x128xf32>
    %806 = tosa.reshape %804 {new_shape = array<i64: 32, 128, 6>} : (tensor<1x32x128x6xf32>) -> tensor<32x128x6xf32>
    %807 = tosa.matmul %805, %806 : (tensor<32x6x128xf32>, tensor<32x128x6xf32>) -> tensor<32x6x6xf32>
    %808 = tosa.reshape %807 {new_shape = array<i64: 1, 32, 6, 6>} : (tensor<32x6x6xf32>) -> tensor<1x32x6x6xf32>
    %809 = "tosa.const"() <{value = dense<11.3137083> : tensor<1x32x6x6xf32>}> : () -> tensor<1x32x6x6xf32>
    %810 = tosa.reciprocal %809 : (tensor<1x32x6x6xf32>) -> tensor<1x32x6x6xf32>
    %811 = tosa.mul %808, %810 {shift = 0 : i8} : (tensor<1x32x6x6xf32>, tensor<1x32x6x6xf32>) -> tensor<1x32x6x6xf32>
    %812 = tosa.add %811, %27 : (tensor<1x32x6x6xf32>, tensor<1x1x6x6xf32>) -> tensor<1x32x6x6xf32>
    %813 = tosa.reduce_max %812 {axis = 3 : i32} : (tensor<1x32x6x6xf32>) -> tensor<1x32x6x1xf32>
    %814 = tosa.sub %812, %813 : (tensor<1x32x6x6xf32>, tensor<1x32x6x1xf32>) -> tensor<1x32x6x6xf32>
    %815 = tosa.exp %814 : (tensor<1x32x6x6xf32>) -> tensor<1x32x6x6xf32>
    %816 = tosa.reduce_sum %815 {axis = 3 : i32} : (tensor<1x32x6x6xf32>) -> tensor<1x32x6x1xf32>
    %817 = tosa.reciprocal %816 : (tensor<1x32x6x1xf32>) -> tensor<1x32x6x1xf32>
    %818 = tosa.mul %815, %817 {shift = 0 : i8} : (tensor<1x32x6x6xf32>, tensor<1x32x6x1xf32>) -> tensor<1x32x6x6xf32>
    %819 = tosa.reshape %818 {new_shape = array<i64: 32, 6, 6>} : (tensor<1x32x6x6xf32>) -> tensor<32x6x6xf32>
    %820 = tosa.reshape %776 {new_shape = array<i64: 32, 6, 128>} : (tensor<1x32x6x128xf32>) -> tensor<32x6x128xf32>
    %821 = tosa.matmul %819, %820 : (tensor<32x6x6xf32>, tensor<32x6x128xf32>) -> tensor<32x6x128xf32>
    %822 = tosa.reshape %821 {new_shape = array<i64: 1, 32, 6, 128>} : (tensor<32x6x128xf32>) -> tensor<1x32x6x128xf32>
    %823 = "tosa.const"() <{value = dense<[0, 2, 1, 3]> : tensor<4xi32>}> : () -> tensor<4xi32>
    %824 = tosa.transpose %822, %823 : (tensor<1x32x6x128xf32>, tensor<4xi32>) -> tensor<1x6x32x128xf32>
    %825 = tosa.identity %824 : (tensor<1x6x32x128xf32>) -> tensor<1x6x32x128xf32>
    %826 = tosa.reshape %825 {new_shape = array<i64: 1, 6, 4096>} : (tensor<1x6x32x128xf32>) -> tensor<1x6x4096xf32>
    %827 = "tosa.const"() <{value = dense<[1, 0]> : tensor<2xi32>}> : () -> tensor<2xi32>
    %828 = tosa.transpose %arg111, %827 : (tensor<4096x4096xf32>, tensor<2xi32>) -> tensor<4096x4096xf32>
    %829 = tosa.reshape %826 {new_shape = array<i64: 6, 4096>} : (tensor<1x6x4096xf32>) -> tensor<6x4096xf32>
    %cst_173 = arith.constant dense<0.000000e+00> : tensor<6x4096xf32>
    %830 = linalg.matmul {cast = #linalg.type_fn<cast_signed>} ins(%829, %828 : tensor<6x4096xf32>, tensor<4096x4096xf32>) outs(%cst_173 : tensor<6x4096xf32>) -> tensor<6x4096xf32>
    %831 = tosa.reshape %830 {new_shape = array<i64: 1, 6, 4096>} : (tensor<6x4096xf32>) -> tensor<1x6x4096xf32>
    %832 = tosa.add %741, %831 : (tensor<1x6x4096xf32>, tensor<1x6x4096xf32>) -> tensor<1x6x4096xf32>
    %833 = tensor.empty() : tensor<1x6x4096xf32>
    %c2_i32_174 = arith.constant 2 : i32
    %834 = linalg.generic {indexing_maps = [#map5, #map5], iterator_types = ["parallel", "parallel", "parallel"]} ins(%832 : tensor<1x6x4096xf32>) outs(%833 : tensor<1x6x4096xf32>) {
    ^bb0(%in: f32, %out: f32):
      %3850 = math.fpowi %in, %c2_i32_174 : f32, i32
      linalg.yield %3850 : f32
    } -> tensor<1x6x4096xf32>
    %cst_175 = arith.constant dense<0.000000e+00> : tensor<1x6x1xf32>
    %835 = linalg.generic {indexing_maps = [#map6, #map7], iterator_types = ["parallel", "parallel", "reduction", "parallel"]} ins(%834 : tensor<1x6x4096xf32>) outs(%cst_175 : tensor<1x6x1xf32>) {
    ^bb0(%in: f32, %out: f32):
      %cst_807 = arith.constant 4.096000e+03 : f32
      %3850 = arith.divf %in, %cst_807 : f32
      %3851 = arith.addf %3850, %out : f32
      linalg.yield %3851 : f32
    } -> tensor<1x6x1xf32>
    %836 = "tosa.const"() <{value = dense<9.99999997E-7> : tensor<1x6x1xf32>}> : () -> tensor<1x6x1xf32>
    %837 = tosa.add %835, %836 : (tensor<1x6x1xf32>, tensor<1x6x1xf32>) -> tensor<1x6x1xf32>
    %838 = tosa.rsqrt %837 : (tensor<1x6x1xf32>) -> tensor<1x6x1xf32>
    %839 = tosa.mul %832, %838 {shift = 0 : i8} : (tensor<1x6x4096xf32>, tensor<1x6x1xf32>) -> tensor<1x6x4096xf32>
    %840 = tosa.reshape %arg13 {new_shape = array<i64: 1, 1, 4096>} : (tensor<4096xf32>) -> tensor<1x1x4096xf32>
    %841 = tosa.mul %840, %839 {shift = 0 : i8} : (tensor<1x1x4096xf32>, tensor<1x6x4096xf32>) -> tensor<1x6x4096xf32>
    %842 = "tosa.const"() <{value = dense<[1, 0]> : tensor<2xi32>}> : () -> tensor<2xi32>
    %843 = tosa.transpose %arg112, %842 : (tensor<11008x4096xf32>, tensor<2xi32>) -> tensor<4096x11008xf32>
    %844 = tosa.reshape %841 {new_shape = array<i64: 6, 4096>} : (tensor<1x6x4096xf32>) -> tensor<6x4096xf32>
    %cst_176 = arith.constant dense<0.000000e+00> : tensor<6x11008xf32>
    %845 = linalg.matmul {cast = #linalg.type_fn<cast_signed>} ins(%844, %843 : tensor<6x4096xf32>, tensor<4096x11008xf32>) outs(%cst_176 : tensor<6x11008xf32>) -> tensor<6x11008xf32>
    %846 = tosa.reshape %845 {new_shape = array<i64: 1, 6, 11008>} : (tensor<6x11008xf32>) -> tensor<1x6x11008xf32>
    %847 = tosa.sigmoid %846 : (tensor<1x6x11008xf32>) -> tensor<1x6x11008xf32>
    %848 = tosa.mul %846, %847 {shift = 0 : i8} : (tensor<1x6x11008xf32>, tensor<1x6x11008xf32>) -> tensor<1x6x11008xf32>
    %849 = "tosa.const"() <{value = dense<[1, 0]> : tensor<2xi32>}> : () -> tensor<2xi32>
    %850 = tosa.transpose %arg113, %849 : (tensor<11008x4096xf32>, tensor<2xi32>) -> tensor<4096x11008xf32>
    %851 = tosa.reshape %841 {new_shape = array<i64: 6, 4096>} : (tensor<1x6x4096xf32>) -> tensor<6x4096xf32>
    %cst_177 = arith.constant dense<0.000000e+00> : tensor<6x11008xf32>
    %852 = linalg.matmul {cast = #linalg.type_fn<cast_signed>} ins(%851, %850 : tensor<6x4096xf32>, tensor<4096x11008xf32>) outs(%cst_177 : tensor<6x11008xf32>) -> tensor<6x11008xf32>
    %853 = tosa.reshape %852 {new_shape = array<i64: 1, 6, 11008>} : (tensor<6x11008xf32>) -> tensor<1x6x11008xf32>
    %854 = tosa.mul %848, %853 {shift = 0 : i8} : (tensor<1x6x11008xf32>, tensor<1x6x11008xf32>) -> tensor<1x6x11008xf32>
    %855 = "tosa.const"() <{value = dense<[1, 0]> : tensor<2xi32>}> : () -> tensor<2xi32>
    %856 = tosa.transpose %arg114, %855 : (tensor<4096x11008xf32>, tensor<2xi32>) -> tensor<11008x4096xf32>
    %857 = tosa.reshape %854 {new_shape = array<i64: 6, 11008>} : (tensor<1x6x11008xf32>) -> tensor<6x11008xf32>
    %cst_178 = arith.constant dense<0.000000e+00> : tensor<6x4096xf32>
    %858 = linalg.matmul {cast = #linalg.type_fn<cast_signed>} ins(%857, %856 : tensor<6x11008xf32>, tensor<11008x4096xf32>) outs(%cst_178 : tensor<6x4096xf32>) -> tensor<6x4096xf32>
    %859 = tosa.reshape %858 {new_shape = array<i64: 1, 6, 4096>} : (tensor<6x4096xf32>) -> tensor<1x6x4096xf32>
    %860 = tosa.add %832, %859 : (tensor<1x6x4096xf32>, tensor<1x6x4096xf32>) -> tensor<1x6x4096xf32>
    %861 = tensor.empty() : tensor<1x6x4096xf32>
    %c2_i32_179 = arith.constant 2 : i32
    %862 = linalg.generic {indexing_maps = [#map5, #map5], iterator_types = ["parallel", "parallel", "parallel"]} ins(%860 : tensor<1x6x4096xf32>) outs(%861 : tensor<1x6x4096xf32>) {
    ^bb0(%in: f32, %out: f32):
      %3850 = math.fpowi %in, %c2_i32_179 : f32, i32
      linalg.yield %3850 : f32
    } -> tensor<1x6x4096xf32>
    %cst_180 = arith.constant dense<0.000000e+00> : tensor<1x6x1xf32>
    %863 = linalg.generic {indexing_maps = [#map6, #map7], iterator_types = ["parallel", "parallel", "reduction", "parallel"]} ins(%862 : tensor<1x6x4096xf32>) outs(%cst_180 : tensor<1x6x1xf32>) {
    ^bb0(%in: f32, %out: f32):
      %cst_807 = arith.constant 4.096000e+03 : f32
      %3850 = arith.divf %in, %cst_807 : f32
      %3851 = arith.addf %3850, %out : f32
      linalg.yield %3851 : f32
    } -> tensor<1x6x1xf32>
    %864 = "tosa.const"() <{value = dense<9.99999997E-7> : tensor<1x6x1xf32>}> : () -> tensor<1x6x1xf32>
    %865 = tosa.add %863, %864 : (tensor<1x6x1xf32>, tensor<1x6x1xf32>) -> tensor<1x6x1xf32>
    %866 = tosa.rsqrt %865 : (tensor<1x6x1xf32>) -> tensor<1x6x1xf32>
    %867 = tosa.mul %860, %866 {shift = 0 : i8} : (tensor<1x6x4096xf32>, tensor<1x6x1xf32>) -> tensor<1x6x4096xf32>
    %868 = tosa.reshape %arg14 {new_shape = array<i64: 1, 1, 4096>} : (tensor<4096xf32>) -> tensor<1x1x4096xf32>
    %869 = tosa.mul %868, %867 {shift = 0 : i8} : (tensor<1x1x4096xf32>, tensor<1x6x4096xf32>) -> tensor<1x6x4096xf32>
    %870 = "tosa.const"() <{value = dense<[1, 0]> : tensor<2xi32>}> : () -> tensor<2xi32>
    %871 = tosa.transpose %arg115, %870 : (tensor<4096x4096xf32>, tensor<2xi32>) -> tensor<4096x4096xf32>
    %872 = tosa.reshape %869 {new_shape = array<i64: 6, 4096>} : (tensor<1x6x4096xf32>) -> tensor<6x4096xf32>
    %cst_181 = arith.constant dense<0.000000e+00> : tensor<6x4096xf32>
    %873 = linalg.matmul {cast = #linalg.type_fn<cast_signed>} ins(%872, %871 : tensor<6x4096xf32>, tensor<4096x4096xf32>) outs(%cst_181 : tensor<6x4096xf32>) -> tensor<6x4096xf32>
    %874 = tosa.reshape %873 {new_shape = array<i64: 1, 6, 4096>} : (tensor<6x4096xf32>) -> tensor<1x6x4096xf32>
    %875 = "tosa.const"() <{value = dense<[1, 0]> : tensor<2xi32>}> : () -> tensor<2xi32>
    %876 = tosa.transpose %arg116, %875 : (tensor<4096x4096xf32>, tensor<2xi32>) -> tensor<4096x4096xf32>
    %877 = tosa.reshape %869 {new_shape = array<i64: 6, 4096>} : (tensor<1x6x4096xf32>) -> tensor<6x4096xf32>
    %cst_182 = arith.constant dense<0.000000e+00> : tensor<6x4096xf32>
    %878 = linalg.matmul {cast = #linalg.type_fn<cast_signed>} ins(%877, %876 : tensor<6x4096xf32>, tensor<4096x4096xf32>) outs(%cst_182 : tensor<6x4096xf32>) -> tensor<6x4096xf32>
    %879 = tosa.identity %878 : (tensor<6x4096xf32>) -> tensor<6x4096xf32>
    %880 = tosa.reshape %878 {new_shape = array<i64: 1, 6, 4096>} : (tensor<6x4096xf32>) -> tensor<1x6x4096xf32>
    %881 = "tosa.const"() <{value = dense<[1, 0]> : tensor<2xi32>}> : () -> tensor<2xi32>
    %882 = tosa.transpose %arg117, %881 : (tensor<4096x4096xf32>, tensor<2xi32>) -> tensor<4096x4096xf32>
    %883 = tosa.reshape %869 {new_shape = array<i64: 6, 4096>} : (tensor<1x6x4096xf32>) -> tensor<6x4096xf32>
    %cst_183 = arith.constant dense<0.000000e+00> : tensor<6x4096xf32>
    %884 = linalg.matmul {cast = #linalg.type_fn<cast_signed>} ins(%883, %882 : tensor<6x4096xf32>, tensor<4096x4096xf32>) outs(%cst_183 : tensor<6x4096xf32>) -> tensor<6x4096xf32>
    %885 = tosa.identity %884 : (tensor<6x4096xf32>) -> tensor<6x4096xf32>
    %886 = tosa.reshape %884 {new_shape = array<i64: 1, 6, 4096>} : (tensor<6x4096xf32>) -> tensor<1x6x4096xf32>
    %887 = tosa.reshape %874 {new_shape = array<i64: 1, 6, 32, 128>} : (tensor<1x6x4096xf32>) -> tensor<1x6x32x128xf32>
    %888 = "tosa.const"() <{value = dense<[0, 2, 1, 3]> : tensor<4xi32>}> : () -> tensor<4xi32>
    %889 = tosa.transpose %887, %888 : (tensor<1x6x32x128xf32>, tensor<4xi32>) -> tensor<1x32x6x128xf32>
    %890 = tosa.reshape %880 {new_shape = array<i64: 1, 6, 32, 128>} : (tensor<1x6x4096xf32>) -> tensor<1x6x32x128xf32>
    %891 = "tosa.const"() <{value = dense<[0, 2, 1, 3]> : tensor<4xi32>}> : () -> tensor<4xi32>
    %892 = tosa.transpose %890, %891 : (tensor<1x6x32x128xf32>, tensor<4xi32>) -> tensor<1x32x6x128xf32>
    %893 = tosa.reshape %886 {new_shape = array<i64: 1, 6, 32, 128>} : (tensor<1x6x4096xf32>) -> tensor<1x6x32x128xf32>
    %894 = "tosa.const"() <{value = dense<[0, 2, 1, 3]> : tensor<4xi32>}> : () -> tensor<4xi32>
    %895 = tosa.transpose %893, %894 : (tensor<1x6x32x128xf32>, tensor<4xi32>) -> tensor<1x32x6x128xf32>
    %extracted_slice_184 = tensor.extract_slice %arg305[0, 0, 0, 0] [1, 1, 2048, 128] [1, 1, 1, 1] : tensor<1x1x2048x128xf32> to tensor<1x1x2048x128xf32>
    %extracted_slice_185 = tensor.extract_slice %extracted_slice_184[0, 0, 0, 0] [1, 1, 2048, 128] [1, 1, 1, 1] : tensor<1x1x2048x128xf32> to tensor<1x1x2048x128xf32>
    %extracted_slice_186 = tensor.extract_slice %extracted_slice_185[0, 0, 0, 0] [1, 1, 6, 128] [1, 1, 1, 1] : tensor<1x1x2048x128xf32> to tensor<1x1x6x128xf32>
    %extracted_slice_187 = tensor.extract_slice %arg306[0, 0, 0, 0] [1, 1, 2048, 128] [1, 1, 1, 1] : tensor<1x1x2048x128xf32> to tensor<1x1x2048x128xf32>
    %extracted_slice_188 = tensor.extract_slice %extracted_slice_187[0, 0, 0, 0] [1, 1, 2048, 128] [1, 1, 1, 1] : tensor<1x1x2048x128xf32> to tensor<1x1x2048x128xf32>
    %extracted_slice_189 = tensor.extract_slice %extracted_slice_188[0, 0, 0, 0] [1, 1, 6, 128] [1, 1, 1, 1] : tensor<1x1x2048x128xf32> to tensor<1x1x6x128xf32>
    %896 = tensor.empty() : tensor<1x6x128xf32>
    %897 = linalg.generic {indexing_maps = [#map8, #map5], iterator_types = ["parallel", "parallel", "parallel"]} ins(%extracted_slice_186 : tensor<1x1x6x128xf32>) outs(%896 : tensor<1x6x128xf32>) {
    ^bb0(%in: f32, %out: f32):
      linalg.yield %in : f32
    } -> tensor<1x6x128xf32>
    %898 = tensor.empty() : tensor<6x128xf32>
    %899 = linalg.generic {indexing_maps = [#map9, #map3], iterator_types = ["parallel", "parallel"]} ins(%897 : tensor<1x6x128xf32>) outs(%898 : tensor<6x128xf32>) {
    ^bb0(%in: f32, %out: f32):
      linalg.yield %in : f32
    } -> tensor<6x128xf32>
    %900 = tensor.empty() : tensor<1x6x128xf32>
    %901 = linalg.generic {indexing_maps = [#map8, #map5], iterator_types = ["parallel", "parallel", "parallel"]} ins(%extracted_slice_189 : tensor<1x1x6x128xf32>) outs(%900 : tensor<1x6x128xf32>) {
    ^bb0(%in: f32, %out: f32):
      linalg.yield %in : f32
    } -> tensor<1x6x128xf32>
    %902 = tensor.empty() : tensor<6x128xf32>
    %903 = linalg.generic {indexing_maps = [#map9, #map3], iterator_types = ["parallel", "parallel"]} ins(%901 : tensor<1x6x128xf32>) outs(%902 : tensor<6x128xf32>) {
    ^bb0(%in: f32, %out: f32):
      linalg.yield %in : f32
    } -> tensor<6x128xf32>
    %904 = tensor.empty() : tensor<1x6x128xf32>
    %905 = linalg.generic {indexing_maps = [#map2, #map5], iterator_types = ["parallel", "parallel", "parallel"]} ins(%2 : tensor<1x6xi64>) outs(%904 : tensor<1x6x128xf32>) {
    ^bb0(%in: i64, %out: f32):
      %3850 = arith.index_cast %in : i64 to index
      %3851 = linalg.index 2 : index
      %extracted = tensor.extract %899[%3850, %3851] : tensor<6x128xf32>
      linalg.yield %extracted : f32
    } -> tensor<1x6x128xf32>
    %906 = tosa.reshape %905 {new_shape = array<i64: 1, 1, 6, 128>} : (tensor<1x6x128xf32>) -> tensor<1x1x6x128xf32>
    %907 = tensor.empty() : tensor<1x6x128xf32>
    %908 = linalg.generic {indexing_maps = [#map2, #map5], iterator_types = ["parallel", "parallel", "parallel"]} ins(%2 : tensor<1x6xi64>) outs(%907 : tensor<1x6x128xf32>) {
    ^bb0(%in: i64, %out: f32):
      %3850 = arith.index_cast %in : i64 to index
      %3851 = linalg.index 2 : index
      %extracted = tensor.extract %903[%3850, %3851] : tensor<6x128xf32>
      linalg.yield %extracted : f32
    } -> tensor<1x6x128xf32>
    %909 = tosa.reshape %908 {new_shape = array<i64: 1, 1, 6, 128>} : (tensor<1x6x128xf32>) -> tensor<1x1x6x128xf32>
    %910 = tosa.mul %889, %906 {shift = 0 : i8} : (tensor<1x32x6x128xf32>, tensor<1x1x6x128xf32>) -> tensor<1x32x6x128xf32>
    %extracted_slice_190 = tensor.extract_slice %889[0, 0, 0, 0] [1, 32, 6, 64] [1, 1, 1, 1] : tensor<1x32x6x128xf32> to tensor<1x32x6x64xf32>
    %extracted_slice_191 = tensor.extract_slice %889[0, 0, 0, 64] [1, 32, 6, 64] [1, 1, 1, 1] : tensor<1x32x6x128xf32> to tensor<1x32x6x64xf32>
    %911 = tensor.empty() : tensor<1x32x6x64xf32>
    %912 = linalg.negf ins(%extracted_slice_191 : tensor<1x32x6x64xf32>) outs(%911 : tensor<1x32x6x64xf32>) -> tensor<1x32x6x64xf32>
…
    %3527 = tosa.reshape %3526 {new_shape = array<i64: 1, 1, 6, 128>} : (tensor<1x6x128xf32>) -> tensor<1x1x6x128xf32>
    %3528 = tosa.mul %3507, %3524 {shift = 0 : i8} : (tensor<1x32x6x128xf32>, tensor<1x1x6x128xf32>) -> tensor<1x32x6x128xf32>
    %extracted_slice_740 = tensor.extract_slice %3507[0, 0, 0, 0] [1, 32, 6, 64] [1, 1, 1, 1] : tensor<1x32x6x128xf32> to tensor<1x32x6x64xf32>
    %extracted_slice_741 = tensor.extract_slice %3507[0, 0, 0, 64] [1, 32, 6, 64] [1, 1, 1, 1] : tensor<1x32x6x128xf32> to tensor<1x32x6x64xf32>
    %3529 = tensor.empty() : tensor<1x32x6x64xf32>
    %3530 = linalg.negf ins(%extracted_slice_741 : tensor<1x32x6x64xf32>) outs(%3529 : tensor<1x32x6x64xf32>) -> tensor<1x32x6x64xf32>
    %3531 = tensor.empty() : tensor<1x32x6x128xf32>
    %inserted_slice_742 = tensor.insert_slice %3530 into %3531[0, 0, 0, 0] [1, 32, 6, 64] [1, 1, 1, 1] : tensor<1x32x6x64xf32> into tensor<1x32x6x128xf32>
    %inserted_slice_743 = tensor.insert_slice %extracted_slice_740 into %inserted_slice_742[0, 0, 0, 64] [1, 32, 6, 64] [1, 1, 1, 1] : tensor<1x32x6x64xf32> into tensor<1x32x6x128xf32>
    %3532 = tosa.mul %inserted_slice_743, %3527 {shift = 0 : i8} : (tensor<1x32x6x128xf32>, tensor<1x1x6x128xf32>) -> tensor<1x32x6x128xf32>
    %3533 = tosa.add %3528, %3532 : (tensor<1x32x6x128xf32>, tensor<1x32x6x128xf32>) -> tensor<1x32x6x128xf32>
    %3534 = tosa.mul %3510, %3524 {shift = 0 : i8} : (tensor<1x32x6x128xf32>, tensor<1x1x6x128xf32>) -> tensor<1x32x6x128xf32>
    %extracted_slice_744 = tensor.extract_slice %3510[0, 0, 0, 0] [1, 32, 6, 64] [1, 1, 1, 1] : tensor<1x32x6x128xf32> to tensor<1x32x6x64xf32>
    %extracted_slice_745 = tensor.extract_slice %3510[0, 0, 0, 64] [1, 32, 6, 64] [1, 1, 1, 1] : tensor<1x32x6x128xf32> to tensor<1x32x6x64xf32>
    %3535 = tensor.empty() : tensor<1x32x6x64xf32>
    %3536 = linalg.negf ins(%extracted_slice_745 : tensor<1x32x6x64xf32>) outs(%3535 : tensor<1x32x6x64xf32>) -> tensor<1x32x6x64xf32>
    %3537 = tensor.empty() : tensor<1x32x6x128xf32>
    %inserted_slice_746 = tensor.insert_slice %3536 into %3537[0, 0, 0, 0] [1, 32, 6, 64] [1, 1, 1, 1] : tensor<1x32x6x64xf32> into tensor<1x32x6x128xf32>
    %inserted_slice_747 = tensor.insert_slice %extracted_slice_744 into %inserted_slice_746[0, 0, 0, 64] [1, 32, 6, 64] [1, 1, 1, 1] : tensor<1x32x6x64xf32> into tensor<1x32x6x128xf32>
    %3538 = tosa.mul %inserted_slice_747, %3527 {shift = 0 : i8} : (tensor<1x32x6x128xf32>, tensor<1x1x6x128xf32>) -> tensor<1x32x6x128xf32>
    %3539 = tosa.add %3534, %3538 : (tensor<1x32x6x128xf32>, tensor<1x32x6x128xf32>) -> tensor<1x32x6x128xf32>
    %3540 = "tosa.const"() <{value = dense<[0, 1, 3, 2]> : tensor<4xi32>}> : () -> tensor<4xi32>
    %3541 = tosa.transpose %3539, %3540 : (tensor<1x32x6x128xf32>, tensor<4xi32>) -> tensor<1x32x128x6xf32>
    %3542 = tosa.reshape %3533 {new_shape = array<i64: 32, 6, 128>} : (tensor<1x32x6x128xf32>) -> tensor<32x6x128xf32>
    %3543 = tosa.reshape %3541 {new_shape = array<i64: 32, 128, 6>} : (tensor<1x32x128x6xf32>) -> tensor<32x128x6xf32>
    %3544 = tosa.matmul %3542, %3543 : (tensor<32x6x128xf32>, tensor<32x128x6xf32>) -> tensor<32x6x6xf32>
    %3545 = tosa.reshape %3544 {new_shape = array<i64: 1, 32, 6, 6>} : (tensor<32x6x6xf32>) -> tensor<1x32x6x6xf32>
    %3546 = "tosa.const"() <{value = dense<11.3137083> : tensor<1x32x6x6xf32>}> : () -> tensor<1x32x6x6xf32>
    %3547 = tosa.reciprocal %3546 : (tensor<1x32x6x6xf32>) -> tensor<1x32x6x6xf32>
    %3548 = tosa.mul %3545, %3547 {shift = 0 : i8} : (tensor<1x32x6x6xf32>, tensor<1x32x6x6xf32>) -> tensor<1x32x6x6xf32>
    %3549 = tosa.add %3548, %27 : (tensor<1x32x6x6xf32>, tensor<1x1x6x6xf32>) -> tensor<1x32x6x6xf32>
    %3550 = tosa.reduce_max %3549 {axis = 3 : i32} : (tensor<1x32x6x6xf32>) -> tensor<1x32x6x1xf32>
    %3551 = tosa.sub %3549, %3550 : (tensor<1x32x6x6xf32>, tensor<1x32x6x1xf32>) -> tensor<1x32x6x6xf32>
    %3552 = tosa.exp %3551 : (tensor<1x32x6x6xf32>) -> tensor<1x32x6x6xf32>
    %3553 = tosa.reduce_sum %3552 {axis = 3 : i32} : (tensor<1x32x6x6xf32>) -> tensor<1x32x6x1xf32>
    %3554 = tosa.reciprocal %3553 : (tensor<1x32x6x1xf32>) -> tensor<1x32x6x1xf32>
    %3555 = tosa.mul %3552, %3554 {shift = 0 : i8} : (tensor<1x32x6x6xf32>, tensor<1x32x6x1xf32>) -> tensor<1x32x6x6xf32>
    %3556 = tosa.reshape %3555 {new_shape = array<i64: 32, 6, 6>} : (tensor<1x32x6x6xf32>) -> tensor<32x6x6xf32>
    %3557 = tosa.reshape %3513 {new_shape = array<i64: 32, 6, 128>} : (tensor<1x32x6x128xf32>) -> tensor<32x6x128xf32>
    %3558 = tosa.matmul %3556, %3557 : (tensor<32x6x6xf32>, tensor<32x6x128xf32>) -> tensor<32x6x128xf32>
    %3559 = tosa.reshape %3558 {new_shape = array<i64: 1, 32, 6, 128>} : (tensor<32x6x128xf32>) -> tensor<1x32x6x128xf32>
    %3560 = "tosa.const"() <{value = dense<[0, 2, 1, 3]> : tensor<4xi32>}> : () -> tensor<4xi32>
    %3561 = tosa.transpose %3559, %3560 : (tensor<1x32x6x128xf32>, tensor<4xi32>) -> tensor<1x6x32x128xf32>
    %3562 = tosa.identity %3561 : (tensor<1x6x32x128xf32>) -> tensor<1x6x32x128xf32>
    %3563 = tosa.reshape %3562 {new_shape = array<i64: 1, 6, 4096>} : (tensor<1x6x32x128xf32>) -> tensor<1x6x4096xf32>
    %3564 = "tosa.const"() <{value = dense<[1, 0]> : tensor<2xi32>}> : () -> tensor<2xi32>
    %3565 = tosa.transpose %arg272, %3564 : (tensor<4096x4096xf32>, tensor<2xi32>) -> tensor<4096x4096xf32>
    %3566 = tosa.reshape %3563 {new_shape = array<i64: 6, 4096>} : (tensor<1x6x4096xf32>) -> tensor<6x4096xf32>
    %cst_748 = arith.constant dense<0.000000e+00> : tensor<6x4096xf32>
    %3567 = linalg.matmul {cast = #linalg.type_fn<cast_signed>} ins(%3566, %3565 : tensor<6x4096xf32>, tensor<4096x4096xf32>) outs(%cst_748 : tensor<6x4096xf32>) -> tensor<6x4096xf32>
    %3568 = tosa.reshape %3567 {new_shape = array<i64: 1, 6, 4096>} : (tensor<6x4096xf32>) -> tensor<1x6x4096xf32>
    %3569 = tosa.add %3478, %3568 : (tensor<1x6x4096xf32>, tensor<1x6x4096xf32>) -> tensor<1x6x4096xf32>
    %3570 = tensor.empty() : tensor<1x6x4096xf32>
    %c2_i32_749 = arith.constant 2 : i32
    %3571 = linalg.generic {indexing_maps = [#map5, #map5], iterator_types = ["parallel", "parallel", "parallel"]} ins(%3569 : tensor<1x6x4096xf32>) outs(%3570 : tensor<1x6x4096xf32>) {
    ^bb0(%in: f32, %out: f32):
      %3850 = math.fpowi %in, %c2_i32_749 : f32, i32
      linalg.yield %3850 : f32
    } -> tensor<1x6x4096xf32>
    %cst_750 = arith.constant dense<0.000000e+00> : tensor<1x6x1xf32>
    %3572 = linalg.generic {indexing_maps = [#map6, #map7], iterator_types = ["parallel", "parallel", "reduction", "parallel"]} ins(%3571 : tensor<1x6x4096xf32>) outs(%cst_750 : tensor<1x6x1xf32>) {
    ^bb0(%in: f32, %out: f32):
      %cst_807 = arith.constant 4.096000e+03 : f32
      %3850 = arith.divf %in, %cst_807 : f32
      %3851 = arith.addf %3850, %out : f32
      linalg.yield %3851 : f32
    } -> tensor<1x6x1xf32>
    %3573 = "tosa.const"() <{value = dense<9.99999997E-7> : tensor<1x6x1xf32>}> : () -> tensor<1x6x1xf32>
    %3574 = tosa.add %3572, %3573 : (tensor<1x6x1xf32>, tensor<1x6x1xf32>) -> tensor<1x6x1xf32>
    %3575 = tosa.rsqrt %3574 : (tensor<1x6x1xf32>) -> tensor<1x6x1xf32>
    %3576 = tosa.mul %3569, %3575 {shift = 0 : i8} : (tensor<1x6x4096xf32>, tensor<1x6x1xf32>) -> tensor<1x6x4096xf32>
    %3577 = tosa.reshape %arg59 {new_shape = array<i64: 1, 1, 4096>} : (tensor<4096xf32>) -> tensor<1x1x4096xf32>
    %3578 = tosa.mul %3577, %3576 {shift = 0 : i8} : (tensor<1x1x4096xf32>, tensor<1x6x4096xf32>) -> tensor<1x6x4096xf32>
    %3579 = "tosa.const"() <{value = dense<[1, 0]> : tensor<2xi32>}> : () -> tensor<2xi32>
    %3580 = tosa.transpose %arg273, %3579 : (tensor<11008x4096xf32>, tensor<2xi32>) -> tensor<4096x11008xf32>
    %3581 = tosa.reshape %3578 {new_shape = array<i64: 6, 4096>} : (tensor<1x6x4096xf32>) -> tensor<6x4096xf32>
    %cst_751 = arith.constant dense<0.000000e+00> : tensor<6x11008xf32>
    %3582 = linalg.matmul {cast = #linalg.type_fn<cast_signed>} ins(%3581, %3580 : tensor<6x4096xf32>, tensor<4096x11008xf32>) outs(%cst_751 : tensor<6x11008xf32>) -> tensor<6x11008xf32>
    %3583 = tosa.reshape %3582 {new_shape = array<i64: 1, 6, 11008>} : (tensor<6x11008xf32>) -> tensor<1x6x11008xf32>
    %3584 = tosa.sigmoid %3583 : (tensor<1x6x11008xf32>) -> tensor<1x6x11008xf32>
    %3585 = tosa.mul %3583, %3584 {shift = 0 : i8} : (tensor<1x6x11008xf32>, tensor<1x6x11008xf32>) -> tensor<1x6x11008xf32>
    %3586 = "tosa.const"() <{value = dense<[1, 0]> : tensor<2xi32>}> : () -> tensor<2xi32>
    %3587 = tosa.transpose %arg274, %3586 : (tensor<11008x4096xf32>, tensor<2xi32>) -> tensor<4096x11008xf32>
    %3588 = tosa.reshape %3578 {new_shape = array<i64: 6, 4096>} : (tensor<1x6x4096xf32>) -> tensor<6x4096xf32>
    %cst_752 = arith.constant dense<0.000000e+00> : tensor<6x11008xf32>
    %3589 = linalg.matmul {cast = #linalg.type_fn<cast_signed>} ins(%3588, %3587 : tensor<6x4096xf32>, tensor<4096x11008xf32>) outs(%cst_752 : tensor<6x11008xf32>) -> tensor<6x11008xf32>
    %3590 = tosa.reshape %3589 {new_shape = array<i64: 1, 6, 11008>} : (tensor<6x11008xf32>) -> tensor<1x6x11008xf32>
    %3591 = tosa.mul %3585, %3590 {shift = 0 : i8} : (tensor<1x6x11008xf32>, tensor<1x6x11008xf32>) -> tensor<1x6x11008xf32>
    %3592 = "tosa.const"() <{value = dense<[1, 0]> : tensor<2xi32>}> : () -> tensor<2xi32>
    %3593 = tosa.transpose %arg275, %3592 : (tensor<4096x11008xf32>, tensor<2xi32>) -> tensor<11008x4096xf32>
    %3594 = tosa.reshape %3591 {new_shape = array<i64: 6, 11008>} : (tensor<1x6x11008xf32>) -> tensor<6x11008xf32>
    %cst_753 = arith.constant dense<0.000000e+00> : tensor<6x4096xf32>
    %3595 = linalg.matmul {cast = #linalg.type_fn<cast_signed>} ins(%3594, %3593 : tensor<6x11008xf32>, tensor<11008x4096xf32>) outs(%cst_753 : tensor<6x4096xf32>) -> tensor<6x4096xf32>
    %3596 = tosa.reshape %3595 {new_shape = array<i64: 1, 6, 4096>} : (tensor<6x4096xf32>) -> tensor<1x6x4096xf32>
    %3597 = tosa.add %3569, %3596 : (tensor<1x6x4096xf32>, tensor<1x6x4096xf32>) -> tensor<1x6x4096xf32>
    %3598 = tensor.empty() : tensor<1x6x4096xf32>
    %c2_i32_754 = arith.constant 2 : i32
    %3599 = linalg.generic {indexing_maps = [#map5, #map5], iterator_types = ["parallel", "parallel", "parallel"]} ins(%3597 : tensor<1x6x4096xf32>) outs(%3598 : tensor<1x6x4096xf32>) {
    ^bb0(%in: f32, %out: f32):
      %3850 = math.fpowi %in, %c2_i32_754 : f32, i32
      linalg.yield %3850 : f32
    } -> tensor<1x6x4096xf32>
    %cst_755 = arith.constant dense<0.000000e+00> : tensor<1x6x1xf32>
    %3600 = linalg.generic {indexing_maps = [#map6, #map7], iterator_types = ["parallel", "parallel", "reduction", "parallel"]} ins(%3599 : tensor<1x6x4096xf32>) outs(%cst_755 : tensor<1x6x1xf32>) {
    ^bb0(%in: f32, %out: f32):
      %cst_807 = arith.constant 4.096000e+03 : f32
      %3850 = arith.divf %in, %cst_807 : f32
      %3851 = arith.addf %3850, %out : f32
      linalg.yield %3851 : f32
    } -> tensor<1x6x1xf32>
    %3601 = "tosa.const"() <{value = dense<9.99999997E-7> : tensor<1x6x1xf32>}> : () -> tensor<1x6x1xf32>
    %3602 = tosa.add %3600, %3601 : (tensor<1x6x1xf32>, tensor<1x6x1xf32>) -> tensor<1x6x1xf32>
    %3603 = tosa.rsqrt %3602 : (tensor<1x6x1xf32>) -> tensor<1x6x1xf32>
    %3604 = tosa.mul %3597, %3603 {shift = 0 : i8} : (tensor<1x6x4096xf32>, tensor<1x6x1xf32>) -> tensor<1x6x4096xf32>
    %3605 = tosa.reshape %arg60 {new_shape = array<i64: 1, 1, 4096>} : (tensor<4096xf32>) -> tensor<1x1x4096xf32>
    %3606 = tosa.mul %3605, %3604 {shift = 0 : i8} : (tensor<1x1x4096xf32>, tensor<1x6x4096xf32>) -> tensor<1x6x4096xf32>
    %3607 = "tosa.const"() <{value = dense<[1, 0]> : tensor<2xi32>}> : () -> tensor<2xi32>
    %3608 = tosa.transpose %arg276, %3607 : (tensor<4096x4096xf32>, tensor<2xi32>) -> tensor<4096x4096xf32>
    %3609 = tosa.reshape %3606 {new_shape = array<i64: 6, 4096>} : (tensor<1x6x4096xf32>) -> tensor<6x4096xf32>
    %cst_756 = arith.constant dense<0.000000e+00> : tensor<6x4096xf32>
    %3610 = linalg.matmul {cast = #linalg.type_fn<cast_signed>} ins(%3609, %3608 : tensor<6x4096xf32>, tensor<4096x4096xf32>) outs(%cst_756 : tensor<6x4096xf32>) -> tensor<6x4096xf32>
    %3611 = tosa.reshape %3610 {new_shape = array<i64: 1, 6, 4096>} : (tensor<6x4096xf32>) -> tensor<1x6x4096xf32>
    %3612 = "tosa.const"() <{value = dense<[1, 0]> : tensor<2xi32>}> : () -> tensor<2xi32>
    %3613 = tosa.transpose %arg277, %3612 : (tensor<4096x4096xf32>, tensor<2xi32>) -> tensor<4096x4096xf32>
    %3614 = tosa.reshape %3606 {new_shape = array<i64: 6, 4096>} : (tensor<1x6x4096xf32>) -> tensor<6x4096xf32>
    %cst_757 = arith.constant dense<0.000000e+00> : tensor<6x4096xf32>
    %3615 = linalg.matmul {cast = #linalg.type_fn<cast_signed>} ins(%3614, %3613 : tensor<6x4096xf32>, tensor<4096x4096xf32>) outs(%cst_757 : tensor<6x4096xf32>) -> tensor<6x4096xf32>
    %3616 = tosa.identity %3615 : (tensor<6x4096xf32>) -> tensor<6x4096xf32>
    %3617 = tosa.reshape %3615 {new_shape = array<i64: 1, 6, 4096>} : (tensor<6x4096xf32>) -> tensor<1x6x4096xf32>
    %3618 = "tosa.const"() <{value = dense<[1, 0]> : tensor<2xi32>}> : () -> tensor<2xi32>
    %3619 = tosa.transpose %arg278, %3618 : (tensor<4096x4096xf32>, tensor<2xi32>) -> tensor<4096x4096xf32>
    %3620 = tosa.reshape %3606 {new_shape = array<i64: 6, 4096>} : (tensor<1x6x4096xf32>) -> tensor<6x4096xf32>
    %cst_758 = arith.constant dense<0.000000e+00> : tensor<6x4096xf32>
    %3621 = linalg.matmul {cast = #linalg.type_fn<cast_signed>} ins(%3620, %3619 : tensor<6x4096xf32>, tensor<4096x4096xf32>) outs(%cst_758 : tensor<6x4096xf32>) -> tensor<6x4096xf32>
    %3622 = tosa.identity %3621 : (tensor<6x4096xf32>) -> tensor<6x4096xf32>
    %3623 = tosa.reshape %3621 {new_shape = array<i64: 1, 6, 4096>} : (tensor<6x4096xf32>) -> tensor<1x6x4096xf32>
    %3624 = tosa.reshape %3611 {new_shape = array<i64: 1, 6, 32, 128>} : (tensor<1x6x4096xf32>) -> tensor<1x6x32x128xf32>
    %3625 = "tosa.const"() <{value = dense<[0, 2, 1, 3]> : tensor<4xi32>}> : () -> tensor<4xi32>
    %3626 = tosa.transpose %3624, %3625 : (tensor<1x6x32x128xf32>, tensor<4xi32>) -> tensor<1x32x6x128xf32>
    %3627 = tosa.reshape %3617 {new_shape = array<i64: 1, 6, 32, 128>} : (tensor<1x6x4096xf32>) -> tensor<1x6x32x128xf32>
    %3628 = "tosa.const"() <{value = dense<[0, 2, 1, 3]> : tensor<4xi32>}> : () -> tensor<4xi32>
    %3629 = tosa.transpose %3627, %3628 : (tensor<1x6x32x128xf32>, tensor<4xi32>) -> tensor<1x32x6x128xf32>
    %3630 = tosa.reshape %3623 {new_shape = array<i64: 1, 6, 32, 128>} : (tensor<1x6x4096xf32>) -> tensor<1x6x32x128xf32>
    %3631 = "tosa.const"() <{value = dense<[0, 2, 1, 3]> : tensor<4xi32>}> : () -> tensor<4xi32>
    %3632 = tosa.transpose %3630, %3631 : (tensor<1x6x32x128xf32>, tensor<4xi32>) -> tensor<1x32x6x128xf32>
    %extracted_slice_759 = tensor.extract_slice %arg351[0, 0, 0, 0] [1, 1, 2048, 128] [1, 1, 1, 1] : tensor<1x1x2048x128xf32> to tensor<1x1x2048x128xf32>
    %extracted_slice_760 = tensor.extract_slice %extracted_slice_759[0, 0, 0, 0] [1, 1, 2048, 128] [1, 1, 1, 1] : tensor<1x1x2048x128xf32> to tensor<1x1x2048x128xf32>
    %extracted_slice_761 = tensor.extract_slice %extracted_slice_760[0, 0, 0, 0] [1, 1, 6, 128] [1, 1, 1, 1] : tensor<1x1x2048x128xf32> to tensor<1x1x6x128xf32>
    %extracted_slice_762 = tensor.extract_slice %arg352[0, 0, 0, 0] [1, 1, 2048, 128] [1, 1, 1, 1] : tensor<1x1x2048x128xf32> to tensor<1x1x2048x128xf32>
    %extracted_slice_763 = tensor.extract_slice %extracted_slice_762[0, 0, 0, 0] [1, 1, 2048, 128] [1, 1, 1, 1] : tensor<1x1x2048x128xf32> to tensor<1x1x2048x128xf32>
    %extracted_slice_764 = tensor.extract_slice %extracted_slice_763[0, 0, 0, 0] [1, 1, 6, 128] [1, 1, 1, 1] : tensor<1x1x2048x128xf32> to tensor<1x1x6x128xf32>
    %3633 = tensor.empty() : tensor<1x6x128xf32>
    %3634 = linalg.generic {indexing_maps = [#map8, #map5], iterator_types = ["parallel", "parallel", "parallel"]} ins(%extracted_slice_761 : tensor<1x1x6x128xf32>) outs(%3633 : tensor<1x6x128xf32>) {
    ^bb0(%in: f32, %out: f32):
      linalg.yield %in : f32
    } -> tensor<1x6x128xf32>
    %3635 = tensor.empty() : tensor<6x128xf32>
    %3636 = linalg.generic {indexing_maps = [#map9, #map3], iterator_types = ["parallel", "parallel"]} ins(%3634 : tensor<1x6x128xf32>) outs(%3635 : tensor<6x128xf32>) {
    ^bb0(%in: f32, %out: f32):
      linalg.yield %in : f32
    } -> tensor<6x128xf32>
    %3637 = tensor.empty() : tensor<1x6x128xf32>
    %3638 = linalg.generic {indexing_maps = [#map8, #map5], iterator_types = ["parallel", "parallel", "parallel"]} ins(%extracted_slice_764 : tensor<1x1x6x128xf32>) outs(%3637 : tensor<1x6x128xf32>) {
    ^bb0(%in: f32, %out: f32):
      linalg.yield %in : f32
    } -> tensor<1x6x128xf32>
    %3639 = tensor.empty() : tensor<6x128xf32>
    %3640 = linalg.generic {indexing_maps = [#map9, #map3], iterator_types = ["parallel", "parallel"]} ins(%3638 : tensor<1x6x128xf32>) outs(%3639 : tensor<6x128xf32>) {
    ^bb0(%in: f32, %out: f32):
      linalg.yield %in : f32
    } -> tensor<6x128xf32>
    %3641 = tensor.empty() : tensor<1x6x128xf32>
    %3642 = linalg.generic {indexing_maps = [#map2, #map5], iterator_types = ["parallel", "parallel", "parallel"]} ins(%2 : tensor<1x6xi64>) outs(%3641 : tensor<1x6x128xf32>) {
    ^bb0(%in: i64, %out: f32):
      %3850 = arith.index_cast %in : i64 to index
      %3851 = linalg.index 2 : index
      %extracted = tensor.extract %3636[%3850, %3851] : tensor<6x128xf32>
      linalg.yield %extracted : f32
    } -> tensor<1x6x128xf32>
    %3643 = tosa.reshape %3642 {new_shape = array<i64: 1, 1, 6, 128>} : (tensor<1x6x128xf32>) -> tensor<1x1x6x128xf32>
    %3644 = tensor.empty() : tensor<1x6x128xf32>
    %3645 = linalg.generic {indexing_maps = [#map2, #map5], iterator_types = ["parallel", "parallel", "parallel"]} ins(%2 : tensor<1x6xi64>) outs(%3644 : tensor<1x6x128xf32>) {
    ^bb0(%in: i64, %out: f32):
      %3850 = arith.index_cast %in : i64 to index
      %3851 = linalg.index 2 : index
      %extracted = tensor.extract %3640[%3850, %3851] : tensor<6x128xf32>
      linalg.yield %extracted : f32
    } -> tensor<1x6x128xf32>
    %3646 = tosa.reshape %3645 {new_shape = array<i64: 1, 1, 6, 128>} : (tensor<1x6x128xf32>) -> tensor<1x1x6x128xf32>
    %3647 = tosa.mul %3626, %3643 {shift = 0 : i8} : (tensor<1x32x6x128xf32>, tensor<1x1x6x128xf32>) -> tensor<1x32x6x128xf32>
    %extracted_slice_765 = tensor.extract_slice %3626[0, 0, 0, 0] [1, 32, 6, 64] [1, 1, 1, 1] : tensor<1x32x6x128xf32> to tensor<1x32x6x64xf32>
    %extracted_slice_766 = tensor.extract_slice %3626[0, 0, 0, 64] [1, 32, 6, 64] [1, 1, 1, 1] : tensor<1x32x6x128xf32> to tensor<1x32x6x64xf32>
    %3648 = tensor.empty() : tensor<1x32x6x64xf32>
    %3649 = linalg.negf ins(%extracted_slice_766 : tensor<1x32x6x64xf32>) outs(%3648 : tensor<1x32x6x64xf32>) -> tensor<1x32x6x64xf32>
    %3650 = tensor.empty() : tensor<1x32x6x128xf32>
    %inserted_slice_767 = tensor.insert_slice %3649 into %3650[0, 0, 0, 0] [1, 32, 6, 64] [1, 1, 1, 1] : tensor<1x32x6x64xf32> into tensor<1x32x6x128xf32>
    %inserted_slice_768 = tensor.insert_slice %extracted_slice_765 into %inserted_slice_767[0, 0, 0, 64] [1, 32, 6, 64] [1, 1, 1, 1] : tensor<1x32x6x64xf32> into tensor<1x32x6x128xf32>
    %3651 = tosa.mul %inserted_slice_768, %3646 {shift = 0 : i8} : (tensor<1x32x6x128xf32>, tensor<1x1x6x128xf32>) -> tensor<1x32x6x128xf32>
    %3652 = tosa.add %3647, %3651 : (tensor<1x32x6x128xf32>, tensor<1x32x6x128xf32>) -> tensor<1x32x6x128xf32>
    %3653 = tosa.mul %3629, %3643 {shift = 0 : i8} : (tensor<1x32x6x128xf32>, tensor<1x1x6x128xf32>) -> tensor<1x32x6x128xf32>
    %extracted_slice_769 = tensor.extract_slice %3629[0, 0, 0, 0] [1, 32, 6, 64] [1, 1, 1, 1] : tensor<1x32x6x128xf32> to tensor<1x32x6x64xf32>
    %extracted_slice_770 = tensor.extract_slice %3629[0, 0, 0, 64] [1, 32, 6, 64] [1, 1, 1, 1] : tensor<1x32x6x128xf32> to tensor<1x32x6x64xf32>
    %3654 = tensor.empty() : tensor<1x32x6x64xf32>
    %3655 = linalg.negf ins(%extracted_slice_770 : tensor<1x32x6x64xf32>) outs(%3654 : tensor<1x32x6x64xf32>) -> tensor<1x32x6x64xf32>
    %3656 = tensor.empty() : tensor<1x32x6x128xf32>
    %inserted_slice_771 = tensor.insert_slice %3655 into %3656[0, 0, 0, 0] [1, 32, 6, 64] [1, 1, 1, 1] : tensor<1x32x6x64xf32> into tensor<1x32x6x128xf32>
    %inserted_slice_772 = tensor.insert_slice %extracted_slice_769 into %inserted_slice_771[0, 0, 0, 64] [1, 32, 6, 64] [1, 1, 1, 1] : tensor<1x32x6x64xf32> into tensor<1x32x6x128xf32>
    %3657 = tosa.mul %inserted_slice_772, %3646 {shift = 0 : i8} : (tensor<1x32x6x128xf32>, tensor<1x1x6x128xf32>) -> tensor<1x32x6x128xf32>
    %3658 = tosa.add %3653, %3657 : (tensor<1x32x6x128xf32>, tensor<1x32x6x128xf32>) -> tensor<1x32x6x128xf32>
    %3659 = "tosa.const"() <{value = dense<[0, 1, 3, 2]> : tensor<4xi32>}> : () -> tensor<4xi32>
    %3660 = tosa.transpose %3658, %3659 : (tensor<1x32x6x128xf32>, tensor<4xi32>) -> tensor<1x32x128x6xf32>
    %3661 = tosa.reshape %3652 {new_shape = array<i64: 32, 6, 128>} : (tensor<1x32x6x128xf32>) -> tensor<32x6x128xf32>
    %3662 = tosa.reshape %3660 {new_shape = array<i64: 32, 128, 6>} : (tensor<1x32x128x6xf32>) -> tensor<32x128x6xf32>
    %3663 = tosa.matmul %3661, %3662 : (tensor<32x6x128xf32>, tensor<32x128x6xf32>) -> tensor<32x6x6xf32>
    %3664 = tosa.reshape %3663 {new_shape = array<i64: 1, 32, 6, 6>} : (tensor<32x6x6xf32>) -> tensor<1x32x6x6xf32>
    %3665 = "tosa.const"() <{value = dense<11.3137083> : tensor<1x32x6x6xf32>}> : () -> tensor<1x32x6x6xf32>
    %3666 = tosa.reciprocal %3665 : (tensor<1x32x6x6xf32>) -> tensor<1x32x6x6xf32>
    %3667 = tosa.mul %3664, %3666 {shift = 0 : i8} : (tensor<1x32x6x6xf32>, tensor<1x32x6x6xf32>) -> tensor<1x32x6x6xf32>
    %3668 = tosa.add %3667, %27 : (tensor<1x32x6x6xf32>, tensor<1x1x6x6xf32>) -> tensor<1x32x6x6xf32>
    %3669 = tosa.reduce_max %3668 {axis = 3 : i32} : (tensor<1x32x6x6xf32>) -> tensor<1x32x6x1xf32>
    %3670 = tosa.sub %3668, %3669 : (tensor<1x32x6x6xf32>, tensor<1x32x6x1xf32>) -> tensor<1x32x6x6xf32>
    %3671 = tosa.exp %3670 : (tensor<1x32x6x6xf32>) -> tensor<1x32x6x6xf32>
    %3672 = tosa.reduce_sum %3671 {axis = 3 : i32} : (tensor<1x32x6x6xf32>) -> tensor<1x32x6x1xf32>
    %3673 = tosa.reciprocal %3672 : (tensor<1x32x6x1xf32>) -> tensor<1x32x6x1xf32>
    %3674 = tosa.mul %3671, %3673 {shift = 0 : i8} : (tensor<1x32x6x6xf32>, tensor<1x32x6x1xf32>) -> tensor<1x32x6x6xf32>
    %3675 = tosa.reshape %3674 {new_shape = array<i64: 32, 6, 6>} : (tensor<1x32x6x6xf32>) -> tensor<32x6x6xf32>
    %3676 = tosa.reshape %3632 {new_shape = array<i64: 32, 6, 128>} : (tensor<1x32x6x128xf32>) -> tensor<32x6x128xf32>
    %3677 = tosa.matmul %3675, %3676 : (tensor<32x6x6xf32>, tensor<32x6x128xf32>) -> tensor<32x6x128xf32>
    %3678 = tosa.reshape %3677 {new_shape = array<i64: 1, 32, 6, 128>} : (tensor<32x6x128xf32>) -> tensor<1x32x6x128xf32>
    %3679 = "tosa.const"() <{value = dense<[0, 2, 1, 3]> : tensor<4xi32>}> : () -> tensor<4xi32>
    %3680 = tosa.transpose %3678, %3679 : (tensor<1x32x6x128xf32>, tensor<4xi32>) -> tensor<1x6x32x128xf32>
    %3681 = tosa.identity %3680 : (tensor<1x6x32x128xf32>) -> tensor<1x6x32x128xf32>
    %3682 = tosa.reshape %3681 {new_shape = array<i64: 1, 6, 4096>} : (tensor<1x6x32x128xf32>) -> tensor<1x6x4096xf32>
    %3683 = "tosa.const"() <{value = dense<[1, 0]> : tensor<2xi32>}> : () -> tensor<2xi32>
    %3684 = tosa.transpose %arg279, %3683 : (tensor<4096x4096xf32>, tensor<2xi32>) -> tensor<4096x4096xf32>
    %3685 = tosa.reshape %3682 {new_shape = array<i64: 6, 4096>} : (tensor<1x6x4096xf32>) -> tensor<6x4096xf32>
    %cst_773 = arith.constant dense<0.000000e+00> : tensor<6x4096xf32>
    %3686 = linalg.matmul {cast = #linalg.type_fn<cast_signed>} ins(%3685, %3684 : tensor<6x4096xf32>, tensor<4096x4096xf32>) outs(%cst_773 : tensor<6x4096xf32>) -> tensor<6x4096xf32>
    %3687 = tosa.reshape %3686 {new_shape = array<i64: 1, 6, 4096>} : (tensor<6x4096xf32>) -> tensor<1x6x4096xf32>
    %3688 = tosa.add %3597, %3687 : (tensor<1x6x4096xf32>, tensor<1x6x4096xf32>) -> tensor<1x6x4096xf32>
    %3689 = tensor.empty() : tensor<1x6x4096xf32>
    %c2_i32_774 = arith.constant 2 : i32
    %3690 = linalg.generic {indexing_maps = [#map5, #map5], iterator_types = ["parallel", "parallel", "parallel"]} ins(%3688 : tensor<1x6x4096xf32>) outs(%3689 : tensor<1x6x4096xf32>) {
    ^bb0(%in: f32, %out: f32):
      %3850 = math.fpowi %in, %c2_i32_774 : f32, i32
      linalg.yield %3850 : f32
    } -> tensor<1x6x4096xf32>
    %cst_775 = arith.constant dense<0.000000e+00> : tensor<1x6x1xf32>
    %3691 = linalg.generic {indexing_maps = [#map6, #map7], iterator_types = ["parallel", "parallel", "reduction", "parallel"]} ins(%3690 : tensor<1x6x4096xf32>) outs(%cst_775 : tensor<1x6x1xf32>) {
    ^bb0(%in: f32, %out: f32):
      %cst_807 = arith.constant 4.096000e+03 : f32
      %3850 = arith.divf %in, %cst_807 : f32
      %3851 = arith.addf %3850, %out : f32
      linalg.yield %3851 : f32
    } -> tensor<1x6x1xf32>
    %3692 = "tosa.const"() <{value = dense<9.99999997E-7> : tensor<1x6x1xf32>}> : () -> tensor<1x6x1xf32>
    %3693 = tosa.add %3691, %3692 : (tensor<1x6x1xf32>, tensor<1x6x1xf32>) -> tensor<1x6x1xf32>
    %3694 = tosa.rsqrt %3693 : (tensor<1x6x1xf32>) -> tensor<1x6x1xf32>
    %3695 = tosa.mul %3688, %3694 {shift = 0 : i8} : (tensor<1x6x4096xf32>, tensor<1x6x1xf32>) -> tensor<1x6x4096xf32>
    %3696 = tosa.reshape %arg61 {new_shape = array<i64: 1, 1, 4096>} : (tensor<4096xf32>) -> tensor<1x1x4096xf32>
    %3697 = tosa.mul %3696, %3695 {shift = 0 : i8} : (tensor<1x1x4096xf32>, tensor<1x6x4096xf32>) -> tensor<1x6x4096xf32>
    %3698 = "tosa.const"() <{value = dense<[1, 0]> : tensor<2xi32>}> : () -> tensor<2xi32>
    %3699 = tosa.transpose %arg280, %3698 : (tensor<11008x4096xf32>, tensor<2xi32>) -> tensor<4096x11008xf32>
    %3700 = tosa.reshape %3697 {new_shape = array<i64: 6, 4096>} : (tensor<1x6x4096xf32>) -> tensor<6x4096xf32>
    %cst_776 = arith.constant dense<0.000000e+00> : tensor<6x11008xf32>
    %3701 = linalg.matmul {cast = #linalg.type_fn<cast_signed>} ins(%3700, %3699 : tensor<6x4096xf32>, tensor<4096x11008xf32>) outs(%cst_776 : tensor<6x11008xf32>) -> tensor<6x11008xf32>
    %3702 = tosa.reshape %3701 {new_shape = array<i64: 1, 6, 11008>} : (tensor<6x11008xf32>) -> tensor<1x6x11008xf32>
    %3703 = tosa.sigmoid %3702 : (tensor<1x6x11008xf32>) -> tensor<1x6x11008xf32>
    %3704 = tosa.mul %3702, %3703 {shift = 0 : i8} : (tensor<1x6x11008xf32>, tensor<1x6x11008xf32>) -> tensor<1x6x11008xf32>
    %3705 = "tosa.const"() <{value = dense<[1, 0]> : tensor<2xi32>}> : () -> tensor<2xi32>
    %3706 = tosa.transpose %arg281, %3705 : (tensor<11008x4096xf32>, tensor<2xi32>) -> tensor<4096x11008xf32>
    %3707 = tosa.reshape %3697 {new_shape = array<i64: 6, 4096>} : (tensor<1x6x4096xf32>) -> tensor<6x4096xf32>
    %cst_777 = arith.constant dense<0.000000e+00> : tensor<6x11008xf32>
    %3708 = linalg.matmul {cast = #linalg.type_fn<cast_signed>} ins(%3707, %3706 : tensor<6x4096xf32>, tensor<4096x11008xf32>) outs(%cst_777 : tensor<6x11008xf32>) -> tensor<6x11008xf32>
    %3709 = tosa.reshape %3708 {new_shape = array<i64: 1, 6, 11008>} : (tensor<6x11008xf32>) -> tensor<1x6x11008xf32>
    %3710 = tosa.mul %3704, %3709 {shift = 0 : i8} : (tensor<1x6x11008xf32>, tensor<1x6x11008xf32>) -> tensor<1x6x11008xf32>
    %3711 = "tosa.const"() <{value = dense<[1, 0]> : tensor<2xi32>}> : () -> tensor<2xi32>
    %3712 = tosa.transpose %arg282, %3711 : (tensor<4096x11008xf32>, tensor<2xi32>) -> tensor<11008x4096xf32>
    %3713 = tosa.reshape %3710 {new_shape = array<i64: 6, 11008>} : (tensor<1x6x11008xf32>) -> tensor<6x11008xf32>
    %cst_778 = arith.constant dense<0.000000e+00> : tensor<6x4096xf32>
    %3714 = linalg.matmul {cast = #linalg.type_fn<cast_signed>} ins(%3713, %3712 : tensor<6x11008xf32>, tensor<11008x4096xf32>) outs(%cst_778 : tensor<6x4096xf32>) -> tensor<6x4096xf32>
    %3715 = tosa.reshape %3714 {new_shape = array<i64: 1, 6, 4096>} : (tensor<6x4096xf32>) -> tensor<1x6x4096xf32>
    %3716 = tosa.add %3688, %3715 : (tensor<1x6x4096xf32>, tensor<1x6x4096xf32>) -> tensor<1x6x4096xf32>
    %3717 = tensor.empty() : tensor<1x6x4096xf32>
    %c2_i32_779 = arith.constant 2 : i32
    %3718 = linalg.generic {indexing_maps = [#map5, #map5], iterator_types = ["parallel", "parallel", "parallel"]} ins(%3716 : tensor<1x6x4096xf32>) outs(%3717 : tensor<1x6x4096xf32>) {
    ^bb0(%in: f32, %out: f32):
      %3850 = math.fpowi %in, %c2_i32_779 : f32, i32
      linalg.yield %3850 : f32
    } -> tensor<1x6x4096xf32>
    %cst_780 = arith.constant dense<0.000000e+00> : tensor<1x6x1xf32>
    %3719 = linalg.generic {indexing_maps = [#map6, #map7], iterator_types = ["parallel", "parallel", "reduction", "parallel"]} ins(%3718 : tensor<1x6x4096xf32>) outs(%cst_780 : tensor<1x6x1xf32>) {
    ^bb0(%in: f32, %out: f32):
      %cst_807 = arith.constant 4.096000e+03 : f32
      %3850 = arith.divf %in, %cst_807 : f32
      %3851 = arith.addf %3850, %out : f32
      linalg.yield %3851 : f32
    } -> tensor<1x6x1xf32>
    %3720 = "tosa.const"() <{value = dense<9.99999997E-7> : tensor<1x6x1xf32>}> : () -> tensor<1x6x1xf32>
    %3721 = tosa.add %3719, %3720 : (tensor<1x6x1xf32>, tensor<1x6x1xf32>) -> tensor<1x6x1xf32>
    %3722 = tosa.rsqrt %3721 : (tensor<1x6x1xf32>) -> tensor<1x6x1xf32>
    %3723 = tosa.mul %3716, %3722 {shift = 0 : i8} : (tensor<1x6x4096xf32>, tensor<1x6x1xf32>) -> tensor<1x6x4096xf32>
    %3724 = tosa.reshape %arg62 {new_shape = array<i64: 1, 1, 4096>} : (tensor<4096xf32>) -> tensor<1x1x4096xf32>
    %3725 = tosa.mul %3724, %3723 {shift = 0 : i8} : (tensor<1x1x4096xf32>, tensor<1x6x4096xf32>) -> tensor<1x6x4096xf32>
    %3726 = "tosa.const"() <{value = dense<[1, 0]> : tensor<2xi32>}> : () -> tensor<2xi32>
    %3727 = tosa.transpose %arg283, %3726 : (tensor<4096x4096xf32>, tensor<2xi32>) -> tensor<4096x4096xf32>
    %3728 = tosa.reshape %3725 {new_shape = array<i64: 6, 4096>} : (tensor<1x6x4096xf32>) -> tensor<6x4096xf32>
    %cst_781 = arith.constant dense<0.000000e+00> : tensor<6x4096xf32>
    %3729 = linalg.matmul {cast = #linalg.type_fn<cast_signed>} ins(%3728, %3727 : tensor<6x4096xf32>, tensor<4096x4096xf32>) outs(%cst_781 : tensor<6x4096xf32>) -> tensor<6x4096xf32>
    %3730 = tosa.reshape %3729 {new_shape = array<i64: 1, 6, 4096>} : (tensor<6x4096xf32>) -> tensor<1x6x4096xf32>
    %3731 = "tosa.const"() <{value = dense<[1, 0]> : tensor<2xi32>}> : () -> tensor<2xi32>
    %3732 = tosa.transpose %arg284, %3731 : (tensor<4096x4096xf32>, tensor<2xi32>) -> tensor<4096x4096xf32>
    %3733 = tosa.reshape %3725 {new_shape = array<i64: 6, 4096>} : (tensor<1x6x4096xf32>) -> tensor<6x4096xf32>
    %cst_782 = arith.constant dense<0.000000e+00> : tensor<6x4096xf32>
    %3734 = linalg.matmul {cast = #linalg.type_fn<cast_signed>} ins(%3733, %3732 : tensor<6x4096xf32>, tensor<4096x4096xf32>) outs(%cst_782 : tensor<6x4096xf32>) -> tensor<6x4096xf32>
    %3735 = tosa.identity %3734 : (tensor<6x4096xf32>) -> tensor<6x4096xf32>
    %3736 = tosa.reshape %3734 {new_shape = array<i64: 1, 6, 4096>} : (tensor<6x4096xf32>) -> tensor<1x6x4096xf32>
    %3737 = "tosa.const"() <{value = dense<[1, 0]> : tensor<2xi32>}> : () -> tensor<2xi32>
    %3738 = tosa.transpose %arg285, %3737 : (tensor<4096x4096xf32>, tensor<2xi32>) -> tensor<4096x4096xf32>
    %3739 = tosa.reshape %3725 {new_shape = array<i64: 6, 4096>} : (tensor<1x6x4096xf32>) -> tensor<6x4096xf32>
    %cst_783 = arith.constant dense<0.000000e+00> : tensor<6x4096xf32>
    %3740 = linalg.matmul {cast = #linalg.type_fn<cast_signed>} ins(%3739, %3738 : tensor<6x4096xf32>, tensor<4096x4096xf32>) outs(%cst_783 : tensor<6x4096xf32>) -> tensor<6x4096xf32>
    %3741 = tosa.identity %3740 : (tensor<6x4096xf32>) -> tensor<6x4096xf32>
    %3742 = tosa.reshape %3740 {new_shape = array<i64: 1, 6, 4096>} : (tensor<6x4096xf32>) -> tensor<1x6x4096xf32>
    %3743 = tosa.reshape %3730 {new_shape = array<i64: 1, 6, 32, 128>} : (tensor<1x6x4096xf32>) -> tensor<1x6x32x128xf32>
    %3744 = "tosa.const"() <{value = dense<[0, 2, 1, 3]> : tensor<4xi32>}> : () -> tensor<4xi32>
    %3745 = tosa.transpose %3743, %3744 : (tensor<1x6x32x128xf32>, tensor<4xi32>) -> tensor<1x32x6x128xf32>
    %3746 = tosa.reshape %3736 {new_shape = array<i64: 1, 6, 32, 128>} : (tensor<1x6x4096xf32>) -> tensor<1x6x32x128xf32>
    %3747 = "tosa.const"() <{value = dense<[0, 2, 1, 3]> : tensor<4xi32>}> : () -> tensor<4xi32>
    %3748 = tosa.transpose %3746, %3747 : (tensor<1x6x32x128xf32>, tensor<4xi32>) -> tensor<1x32x6x128xf32>
    %3749 = tosa.reshape %3742 {new_shape = array<i64: 1, 6, 32, 128>} : (tensor<1x6x4096xf32>) -> tensor<1x6x32x128xf32>
    %3750 = "tosa.const"() <{value = dense<[0, 2, 1, 3]> : tensor<4xi32>}> : () -> tensor<4xi32>
    %3751 = tosa.transpose %3749, %3750 : (tensor<1x6x32x128xf32>, tensor<4xi32>) -> tensor<1x32x6x128xf32>
    %extracted_slice_784 = tensor.extract_slice %arg353[0, 0, 0, 0] [1, 1, 2048, 128] [1, 1, 1, 1] : tensor<1x1x2048x128xf32> to tensor<1x1x2048x128xf32>
    %extracted_slice_785 = tensor.extract_slice %extracted_slice_784[0, 0, 0, 0] [1, 1, 2048, 128] [1, 1, 1, 1] : tensor<1x1x2048x128xf32> to tensor<1x1x2048x128xf32>
    %extracted_slice_786 = tensor.extract_slice %extracted_slice_785[0, 0, 0, 0] [1, 1, 6, 128] [1, 1, 1, 1] : tensor<1x1x2048x128xf32> to tensor<1x1x6x128xf32>
    %extracted_slice_787 = tensor.extract_slice %arg354[0, 0, 0, 0] [1, 1, 2048, 128] [1, 1, 1, 1] : tensor<1x1x2048x128xf32> to tensor<1x1x2048x128xf32>
    %extracted_slice_788 = tensor.extract_slice %extracted_slice_787[0, 0, 0, 0] [1, 1, 2048, 128] [1, 1, 1, 1] : tensor<1x1x2048x128xf32> to tensor<1x1x2048x128xf32>
    %extracted_slice_789 = tensor.extract_slice %extracted_slice_788[0, 0, 0, 0] [1, 1, 6, 128] [1, 1, 1, 1] : tensor<1x1x2048x128xf32> to tensor<1x1x6x128xf32>
    %3752 = tensor.empty() : tensor<1x6x128xf32>
    %3753 = linalg.generic {indexing_maps = [#map8, #map5], iterator_types = ["parallel", "parallel", "parallel"]} ins(%extracted_slice_786 : tensor<1x1x6x128xf32>) outs(%3752 : tensor<1x6x128xf32>) {
    ^bb0(%in: f32, %out: f32):
      linalg.yield %in : f32
    } -> tensor<1x6x128xf32>
    %3754 = tensor.empty() : tensor<6x128xf32>
    %3755 = linalg.generic {indexing_maps = [#map9, #map3], iterator_types = ["parallel", "parallel"]} ins(%3753 : tensor<1x6x128xf32>) outs(%3754 : tensor<6x128xf32>) {
    ^bb0(%in: f32, %out: f32):
      linalg.yield %in : f32
    } -> tensor<6x128xf32>
    %3756 = tensor.empty() : tensor<1x6x128xf32>
    %3757 = linalg.generic {indexing_maps = [#map8, #map5], iterator_types = ["parallel", "parallel", "parallel"]} ins(%extracted_slice_789 : tensor<1x1x6x128xf32>) outs(%3756 : tensor<1x6x128xf32>) {
    ^bb0(%in: f32, %out: f32):
      linalg.yield %in : f32
    } -> tensor<1x6x128xf32>
    %3758 = tensor.empty() : tensor<6x128xf32>
    %3759 = linalg.generic {indexing_maps = [#map9, #map3], iterator_types = ["parallel", "parallel"]} ins(%3757 : tensor<1x6x128xf32>) outs(%3758 : tensor<6x128xf32>) {
    ^bb0(%in: f32, %out: f32):
      linalg.yield %in : f32
    } -> tensor<6x128xf32>
    %3760 = tensor.empty() : tensor<1x6x128xf32>
    %3761 = linalg.generic {indexing_maps = [#map2, #map5], iterator_types = ["parallel", "parallel", "parallel"]} ins(%2 : tensor<1x6xi64>) outs(%3760 : tensor<1x6x128xf32>) {
    ^bb0(%in: i64, %out: f32):
      %3850 = arith.index_cast %in : i64 to index
      %3851 = linalg.index 2 : index
      %extracted = tensor.extract %3755[%3850, %3851] : tensor<6x128xf32>
      linalg.yield %extracted : f32
    } -> tensor<1x6x128xf32>
    %3762 = tosa.reshape %3761 {new_shape = array<i64: 1, 1, 6, 128>} : (tensor<1x6x128xf32>) -> tensor<1x1x6x128xf32>
    %3763 = tensor.empty() : tensor<1x6x128xf32>
    %3764 = linalg.generic {indexing_maps = [#map2, #map5], iterator_types = ["parallel", "parallel", "parallel"]} ins(%2 : tensor<1x6xi64>) outs(%3763 : tensor<1x6x128xf32>) {
    ^bb0(%in: i64, %out: f32):
      %3850 = arith.index_cast %in : i64 to index
      %3851 = linalg.index 2 : index
      %extracted = tensor.extract %3759[%3850, %3851] : tensor<6x128xf32>
      linalg.yield %extracted : f32
    } -> tensor<1x6x128xf32>
    %3765 = tosa.reshape %3764 {new_shape = array<i64: 1, 1, 6, 128>} : (tensor<1x6x128xf32>) -> tensor<1x1x6x128xf32>
    %3766 = tosa.mul %3745, %3762 {shift = 0 : i8} : (tensor<1x32x6x128xf32>, tensor<1x1x6x128xf32>) -> tensor<1x32x6x128xf32>
    %extracted_slice_790 = tensor.extract_slice %3745[0, 0, 0, 0] [1, 32, 6, 64] [1, 1, 1, 1] : tensor<1x32x6x128xf32> to tensor<1x32x6x64xf32>
    %extracted_slice_791 = tensor.extract_slice %3745[0, 0, 0, 64] [1, 32, 6, 64] [1, 1, 1, 1] : tensor<1x32x6x128xf32> to tensor<1x32x6x64xf32>
    %3767 = tensor.empty() : tensor<1x32x6x64xf32>
    %3768 = linalg.negf ins(%extracted_slice_791 : tensor<1x32x6x64xf32>) outs(%3767 : tensor<1x32x6x64xf32>) -> tensor<1x32x6x64xf32>
    %3769 = tensor.empty() : tensor<1x32x6x128xf32>
    %inserted_slice_792 = tensor.insert_slice %3768 into %3769[0, 0, 0, 0] [1, 32, 6, 64] [1, 1, 1, 1] : tensor<1x32x6x64xf32> into tensor<1x32x6x128xf32>
    %inserted_slice_793 = tensor.insert_slice %extracted_slice_790 into %inserted_slice_792[0, 0, 0, 64] [1, 32, 6, 64] [1, 1, 1, 1] : tensor<1x32x6x64xf32> into tensor<1x32x6x128xf32>
    %3770 = tosa.mul %inserted_slice_793, %3765 {shift = 0 : i8} : (tensor<1x32x6x128xf32>, tensor<1x1x6x128xf32>) -> tensor<1x32x6x128xf32>
    %3771 = tosa.add %3766, %3770 : (tensor<1x32x6x128xf32>, tensor<1x32x6x128xf32>) -> tensor<1x32x6x128xf32>
    %3772 = tosa.mul %3748, %3762 {shift = 0 : i8} : (tensor<1x32x6x128xf32>, tensor<1x1x6x128xf32>) -> tensor<1x32x6x128xf32>
    %extracted_slice_794 = tensor.extract_slice %3748[0, 0, 0, 0] [1, 32, 6, 64] [1, 1, 1, 1] : tensor<1x32x6x128xf32> to tensor<1x32x6x64xf32>
    %extracted_slice_795 = tensor.extract_slice %3748[0, 0, 0, 64] [1, 32, 6, 64] [1, 1, 1, 1] : tensor<1x32x6x128xf32> to tensor<1x32x6x64xf32>
    %3773 = tensor.empty() : tensor<1x32x6x64xf32>
    %3774 = linalg.negf ins(%extracted_slice_795 : tensor<1x32x6x64xf32>) outs(%3773 : tensor<1x32x6x64xf32>) -> tensor<1x32x6x64xf32>
    %3775 = tensor.empty() : tensor<1x32x6x128xf32>
    %inserted_slice_796 = tensor.insert_slice %3774 into %3775[0, 0, 0, 0] [1, 32, 6, 64] [1, 1, 1, 1] : tensor<1x32x6x64xf32> into tensor<1x32x6x128xf32>
    %inserted_slice_797 = tensor.insert_slice %extracted_slice_794 into %inserted_slice_796[0, 0, 0, 64] [1, 32, 6, 64] [1, 1, 1, 1] : tensor<1x32x6x64xf32> into tensor<1x32x6x128xf32>
    %3776 = tosa.mul %inserted_slice_797, %3765 {shift = 0 : i8} : (tensor<1x32x6x128xf32>, tensor<1x1x6x128xf32>) -> tensor<1x32x6x128xf32>
    %3777 = tosa.add %3772, %3776 : (tensor<1x32x6x128xf32>, tensor<1x32x6x128xf32>) -> tensor<1x32x6x128xf32>
    %3778 = "tosa.const"() <{value = dense<[0, 1, 3, 2]> : tensor<4xi32>}> : () -> tensor<4xi32>
    %3779 = tosa.transpose %3777, %3778 : (tensor<1x32x6x128xf32>, tensor<4xi32>) -> tensor<1x32x128x6xf32>
    %3780 = tosa.reshape %3771 {new_shape = array<i64: 32, 6, 128>} : (tensor<1x32x6x128xf32>) -> tensor<32x6x128xf32>
    %3781 = tosa.reshape %3779 {new_shape = array<i64: 32, 128, 6>} : (tensor<1x32x128x6xf32>) -> tensor<32x128x6xf32>
    %3782 = tosa.matmul %3780, %3781 : (tensor<32x6x128xf32>, tensor<32x128x6xf32>) -> tensor<32x6x6xf32>
    %3783 = tosa.reshape %3782 {new_shape = array<i64: 1, 32, 6, 6>} : (tensor<32x6x6xf32>) -> tensor<1x32x6x6xf32>
    %3784 = "tosa.const"() <{value = dense<11.3137083> : tensor<1x32x6x6xf32>}> : () -> tensor<1x32x6x6xf32>
    %3785 = tosa.reciprocal %3784 : (tensor<1x32x6x6xf32>) -> tensor<1x32x6x6xf32>
    %3786 = tosa.mul %3783, %3785 {shift = 0 : i8} : (tensor<1x32x6x6xf32>, tensor<1x32x6x6xf32>) -> tensor<1x32x6x6xf32>
    %3787 = tosa.add %3786, %27 : (tensor<1x32x6x6xf32>, tensor<1x1x6x6xf32>) -> tensor<1x32x6x6xf32>
    %3788 = tosa.reduce_max %3787 {axis = 3 : i32} : (tensor<1x32x6x6xf32>) -> tensor<1x32x6x1xf32>
    %3789 = tosa.sub %3787, %3788 : (tensor<1x32x6x6xf32>, tensor<1x32x6x1xf32>) -> tensor<1x32x6x6xf32>
    %3790 = tosa.exp %3789 : (tensor<1x32x6x6xf32>) -> tensor<1x32x6x6xf32>
    %3791 = tosa.reduce_sum %3790 {axis = 3 : i32} : (tensor<1x32x6x6xf32>) -> tensor<1x32x6x1xf32>
    %3792 = tosa.reciprocal %3791 : (tensor<1x32x6x1xf32>) -> tensor<1x32x6x1xf32>
    %3793 = tosa.mul %3790, %3792 {shift = 0 : i8} : (tensor<1x32x6x6xf32>, tensor<1x32x6x1xf32>) -> tensor<1x32x6x6xf32>
    %3794 = tosa.reshape %3793 {new_shape = array<i64: 32, 6, 6>} : (tensor<1x32x6x6xf32>) -> tensor<32x6x6xf32>
    %3795 = tosa.reshape %3751 {new_shape = array<i64: 32, 6, 128>} : (tensor<1x32x6x128xf32>) -> tensor<32x6x128xf32>
    %3796 = tosa.matmul %3794, %3795 : (tensor<32x6x6xf32>, tensor<32x6x128xf32>) -> tensor<32x6x128xf32>
    %3797 = tosa.reshape %3796 {new_shape = array<i64: 1, 32, 6, 128>} : (tensor<32x6x128xf32>) -> tensor<1x32x6x128xf32>
    %3798 = "tosa.const"() <{value = dense<[0, 2, 1, 3]> : tensor<4xi32>}> : () -> tensor<4xi32>
    %3799 = tosa.transpose %3797, %3798 : (tensor<1x32x6x128xf32>, tensor<4xi32>) -> tensor<1x6x32x128xf32>
    %3800 = tosa.identity %3799 : (tensor<1x6x32x128xf32>) -> tensor<1x6x32x128xf32>
    %3801 = tosa.reshape %3800 {new_shape = array<i64: 1, 6, 4096>} : (tensor<1x6x32x128xf32>) -> tensor<1x6x4096xf32>
    %3802 = "tosa.const"() <{value = dense<[1, 0]> : tensor<2xi32>}> : () -> tensor<2xi32>
    %3803 = tosa.transpose %arg286, %3802 : (tensor<4096x4096xf32>, tensor<2xi32>) -> tensor<4096x4096xf32>
    %3804 = tosa.reshape %3801 {new_shape = array<i64: 6, 4096>} : (tensor<1x6x4096xf32>) -> tensor<6x4096xf32>
    %cst_798 = arith.constant dense<0.000000e+00> : tensor<6x4096xf32>
    %3805 = linalg.matmul {cast = #linalg.type_fn<cast_signed>} ins(%3804, %3803 : tensor<6x4096xf32>, tensor<4096x4096xf32>) outs(%cst_798 : tensor<6x4096xf32>) -> tensor<6x4096xf32>
    %3806 = tosa.reshape %3805 {new_shape = array<i64: 1, 6, 4096>} : (tensor<6x4096xf32>) -> tensor<1x6x4096xf32>
    %3807 = tosa.add %3716, %3806 : (tensor<1x6x4096xf32>, tensor<1x6x4096xf32>) -> tensor<1x6x4096xf32>
    %3808 = tensor.empty() : tensor<1x6x4096xf32>
    %c2_i32_799 = arith.constant 2 : i32
    %3809 = linalg.generic {indexing_maps = [#map5, #map5], iterator_types = ["parallel", "parallel", "parallel"]} ins(%3807 : tensor<1x6x4096xf32>) outs(%3808 : tensor<1x6x4096xf32>) {
    ^bb0(%in: f32, %out: f32):
      %3850 = math.fpowi %in, %c2_i32_799 : f32, i32
      linalg.yield %3850 : f32
    } -> tensor<1x6x4096xf32>
    %cst_800 = arith.constant dense<0.000000e+00> : tensor<1x6x1xf32>
    %3810 = linalg.generic {indexing_maps = [#map6, #map7], iterator_types = ["parallel", "parallel", "reduction", "parallel"]} ins(%3809 : tensor<1x6x4096xf32>) outs(%cst_800 : tensor<1x6x1xf32>) {
    ^bb0(%in: f32, %out: f32):
      %cst_807 = arith.constant 4.096000e+03 : f32
      %3850 = arith.divf %in, %cst_807 : f32
      %3851 = arith.addf %3850, %out : f32
      linalg.yield %3851 : f32
    } -> tensor<1x6x1xf32>
    %3811 = "tosa.const"() <{value = dense<9.99999997E-7> : tensor<1x6x1xf32>}> : () -> tensor<1x6x1xf32>
    %3812 = tosa.add %3810, %3811 : (tensor<1x6x1xf32>, tensor<1x6x1xf32>) -> tensor<1x6x1xf32>
    %3813 = tosa.rsqrt %3812 : (tensor<1x6x1xf32>) -> tensor<1x6x1xf32>
    %3814 = tosa.mul %3807, %3813 {shift = 0 : i8} : (tensor<1x6x4096xf32>, tensor<1x6x1xf32>) -> tensor<1x6x4096xf32>
    %3815 = tosa.reshape %arg63 {new_shape = array<i64: 1, 1, 4096>} : (tensor<4096xf32>) -> tensor<1x1x4096xf32>
    %3816 = tosa.mul %3815, %3814 {shift = 0 : i8} : (tensor<1x1x4096xf32>, tensor<1x6x4096xf32>) -> tensor<1x6x4096xf32>
    %3817 = "tosa.const"() <{value = dense<[1, 0]> : tensor<2xi32>}> : () -> tensor<2xi32>
    %3818 = tosa.transpose %arg287, %3817 : (tensor<11008x4096xf32>, tensor<2xi32>) -> tensor<4096x11008xf32>
    %3819 = tosa.reshape %3816 {new_shape = array<i64: 6, 4096>} : (tensor<1x6x4096xf32>) -> tensor<6x4096xf32>
    %cst_801 = arith.constant dense<0.000000e+00> : tensor<6x11008xf32>
    %3820 = linalg.matmul {cast = #linalg.type_fn<cast_signed>} ins(%3819, %3818 : tensor<6x4096xf32>, tensor<4096x11008xf32>) outs(%cst_801 : tensor<6x11008xf32>) -> tensor<6x11008xf32>
    %3821 = tosa.reshape %3820 {new_shape = array<i64: 1, 6, 11008>} : (tensor<6x11008xf32>) -> tensor<1x6x11008xf32>
    %3822 = tosa.sigmoid %3821 : (tensor<1x6x11008xf32>) -> tensor<1x6x11008xf32>
    %3823 = tosa.mul %3821, %3822 {shift = 0 : i8} : (tensor<1x6x11008xf32>, tensor<1x6x11008xf32>) -> tensor<1x6x11008xf32>
    %3824 = "tosa.const"() <{value = dense<[1, 0]> : tensor<2xi32>}> : () -> tensor<2xi32>
    %3825 = tosa.transpose %arg288, %3824 : (tensor<11008x4096xf32>, tensor<2xi32>) -> tensor<4096x11008xf32>
    %3826 = tosa.reshape %3816 {new_shape = array<i64: 6, 4096>} : (tensor<1x6x4096xf32>) -> tensor<6x4096xf32>
    %cst_802 = arith.constant dense<0.000000e+00> : tensor<6x11008xf32>
    %3827 = linalg.matmul {cast = #linalg.type_fn<cast_signed>} ins(%3826, %3825 : tensor<6x4096xf32>, tensor<4096x11008xf32>) outs(%cst_802 : tensor<6x11008xf32>) -> tensor<6x11008xf32>
    %3828 = tosa.reshape %3827 {new_shape = array<i64: 1, 6, 11008>} : (tensor<6x11008xf32>) -> tensor<1x6x11008xf32>
    %3829 = tosa.mul %3823, %3828 {shift = 0 : i8} : (tensor<1x6x11008xf32>, tensor<1x6x11008xf32>) -> tensor<1x6x11008xf32>
    %3830 = "tosa.const"() <{value = dense<[1, 0]> : tensor<2xi32>}> : () -> tensor<2xi32>
    %3831 = tosa.transpose %arg289, %3830 : (tensor<4096x11008xf32>, tensor<2xi32>) -> tensor<11008x4096xf32>
    %3832 = tosa.reshape %3829 {new_shape = array<i64: 6, 11008>} : (tensor<1x6x11008xf32>) -> tensor<6x11008xf32>
    %cst_803 = arith.constant dense<0.000000e+00> : tensor<6x4096xf32>
    %3833 = linalg.matmul {cast = #linalg.type_fn<cast_signed>} ins(%3832, %3831 : tensor<6x11008xf32>, tensor<11008x4096xf32>) outs(%cst_803 : tensor<6x4096xf32>) -> tensor<6x4096xf32>
    %3834 = tosa.reshape %3833 {new_shape = array<i64: 1, 6, 4096>} : (tensor<6x4096xf32>) -> tensor<1x6x4096xf32>
    %3835 = tosa.add %3807, %3834 : (tensor<1x6x4096xf32>, tensor<1x6x4096xf32>) -> tensor<1x6x4096xf32>
    %3836 = tensor.empty() : tensor<1x6x4096xf32>
    %c2_i32_804 = arith.constant 2 : i32
    %3837 = linalg.generic {indexing_maps = [#map5, #map5], iterator_types = ["parallel", "parallel", "parallel"]} ins(%3835 : tensor<1x6x4096xf32>) outs(%3836 : tensor<1x6x4096xf32>) {
    ^bb0(%in: f32, %out: f32):
      %3850 = math.fpowi %in, %c2_i32_804 : f32, i32
      linalg.yield %3850 : f32
    } -> tensor<1x6x4096xf32>
    %cst_805 = arith.constant dense<0.000000e+00> : tensor<1x6x1xf32>
    %3838 = linalg.generic {indexing_maps = [#map6, #map7], iterator_types = ["parallel", "parallel", "reduction", "parallel"]} ins(%3837 : tensor<1x6x4096xf32>) outs(%cst_805 : tensor<1x6x1xf32>) {
    ^bb0(%in: f32, %out: f32):
      %cst_807 = arith.constant 4.096000e+03 : f32
      %3850 = arith.divf %in, %cst_807 : f32
      %3851 = arith.addf %3850, %out : f32
      linalg.yield %3851 : f32
    } -> tensor<1x6x1xf32>
    %3839 = "tosa.const"() <{value = dense<9.99999997E-7> : tensor<1x6x1xf32>}> : () -> tensor<1x6x1xf32>
    %3840 = tosa.add %3838, %3839 : (tensor<1x6x1xf32>, tensor<1x6x1xf32>) -> tensor<1x6x1xf32>
    %3841 = tosa.rsqrt %3840 : (tensor<1x6x1xf32>) -> tensor<1x6x1xf32>
    %3842 = tosa.mul %3835, %3841 {shift = 0 : i8} : (tensor<1x6x4096xf32>, tensor<1x6x1xf32>) -> tensor<1x6x4096xf32>
    %3843 = tosa.reshape %arg64 {new_shape = array<i64: 1, 1, 4096>} : (tensor<4096xf32>) -> tensor<1x1x4096xf32>
    %3844 = tosa.mul %3843, %3842 {shift = 0 : i8} : (tensor<1x1x4096xf32>, tensor<1x6x4096xf32>) -> tensor<1x6x4096xf32>
    %3845 = "tosa.const"() <{value = dense<[1, 0]> : tensor<2xi32>}> : () -> tensor<2xi32>
    %3846 = tosa.transpose %arg290, %3845 : (tensor<32000x4096xf32>, tensor<2xi32>) -> tensor<4096x32000xf32>
    %3847 = tosa.reshape %3844 {new_shape = array<i64: 6, 4096>} : (tensor<1x6x4096xf32>) -> tensor<6x4096xf32>
    %cst_806 = arith.constant dense<0.000000e+00> : tensor<6x32000xf32>
    %3848 = linalg.matmul {cast = #linalg.type_fn<cast_signed>} ins(%3847, %3846 : tensor<6x4096xf32>, tensor<4096x32000xf32>) outs(%cst_806 : tensor<6x32000xf32>) -> tensor<6x32000xf32>
    %3849 = tosa.reshape %3848 {new_shape = array<i64: 1, 6, 32000>} : (tensor<6x32000xf32>) -> tensor<1x6x32000xf32>
    return %3849, %3844, %46, %52, %165, %171, %284, %290, %403, %409, %522, %528, %641, %647, %760, %766, %879, %885, %998, %1004, %1117, %1123, %1236, %1242, %1355, %1361, %1474, %1480, %1593, %1599, %1712, %1718, %1831, %1837, %1950, %1956, %2069, %2075, %2188, %2194, %2307, %2313, %2426, %2432, %2545, %2551, %2664, %2670, %2783, %2789, %2902, %2908, %3021, %3027, %3140, %3146, %3259, %3265, %3378, %3384, %3497, %3503, %3616, %3622, %3735, %3741 : tensor<1x6x32000xf32>, tensor<1x6x4096xf32>, tensor<6x4096xf32>, tensor<6x4096xf32>, tensor<6x4096xf32>, tensor<6x4096xf32>, tensor<6x4096xf32>, tensor<6x4096xf32>, tensor<6x4096xf32>, tensor<6x4096xf32>, tensor<6x4096xf32>, tensor<6x4096xf32>, tensor<6x4096xf32>, tensor<6x4096xf32>, tensor<6x4096xf32>, tensor<6x4096xf32>, tensor<6x4096xf32>, tensor<6x4096xf32>, tensor<6x4096xf32>, tensor<6x4096xf32>, tensor<6x4096xf32>, tensor<6x4096xf32>, tensor<6x4096xf32>, tensor<6x4096xf32>, tensor<6x4096xf32>, tensor<6x4096xf32>, tensor<6x4096xf32>, tensor<6x4096xf32>, tensor<6x4096xf32>, tensor<6x4096xf32>, tensor<6x4096xf32>, tensor<6x4096xf32>, tensor<6x4096xf32>, tensor<6x4096xf32>, tensor<6x4096xf32>, tensor<6x4096xf32>, tensor<6x4096xf32>, tensor<6x4096xf32>, tensor<6x4096xf32>, tensor<6x4096xf32>, tensor<6x4096xf32>, tensor<6x4096xf32>, tensor<6x4096xf32>, tensor<6x4096xf32>, tensor<6x4096xf32>, tensor<6x4096xf32>, tensor<6x4096xf32>, tensor<6x4096xf32>, tensor<6x4096xf32>, tensor<6x4096xf32>, tensor<6x4096xf32>, tensor<6x4096xf32>, tensor<6x4096xf32>, tensor<6x4096xf32>, tensor<6x4096xf32>, tensor<6x4096xf32>, tensor<6x4096xf32>, tensor<6x4096xf32>, tensor<6x4096xf32>, tensor<6x4096xf32>, tensor<6x4096xf32>, tensor<6x4096xf32>, tensor<6x4096xf32>, tensor<6x4096xf32>, tensor<6x4096xf32>, tensor<6x4096xf32>
  }
}

