#map = affine_map<(d0, d1, d2) -> (d1)>
#map1 = affine_map<(d0, d1, d2) -> (d0, d2)>
#map2 = affine_map<(d0, d1, d2) -> (d0, d1)>
#map3 = affine_map<(d0, d1) -> (d0, d1)>
#map4 = affine_map<(d0, d1, d2, d3) -> (d0, d1, d2, d3)>
#map5 = affine_map<(d0, d1, d2) -> (d0, d1, d2)>
#map6 = affine_map<(d0, d1, d2, d3) -> (d0, d1, d2)>
#map7 = affine_map<(d0, d1, d2, d3) -> (d0, d1, d3)>
#map8 = affine_map<(d0, d1, d2) -> (d0, 0, d1, d2)>
#map9 = affine_map<(d0, d1) -> (0, d0, d1)>
"builtin.module"() ({
  "func.func"() <{function_type = (tensor<4096xf32>, tensor<4096xf32>, tensor<4096xf32>, tensor<4096xf32>, tensor<4096xf32>, tensor<4096xf32>, tensor<4096xf32>, tensor<4096xf32>, tensor<4096xf32>, tensor<4096xf32>, tensor<4096xf32>, tensor<4096xf32>, tensor<4096xf32>, tensor<4096xf32>, tensor<4096xf32>, tensor<4096xf32>, tensor<4096xf32>, tensor<4096xf32>, tensor<4096xf32>, tensor<4096xf32>, tensor<4096xf32>, tensor<4096xf32>, tensor<4096xf32>, tensor<4096xf32>, tensor<4096xf32>, tensor<4096xf32>, tensor<4096xf32>, tensor<4096xf32>, tensor<4096xf32>, tensor<4096xf32>, tensor<4096xf32>, tensor<4096xf32>, tensor<4096xf32>, tensor<4096xf32>, tensor<4096xf32>, tensor<4096xf32>, tensor<4096xf32>, tensor<4096xf32>, tensor<4096xf32>, tensor<4096xf32>, tensor<4096xf32>, tensor<4096xf32>, tensor<4096xf32>, tensor<4096xf32>, tensor<4096xf32>, tensor<4096xf32>, tensor<4096xf32>, tensor<4096xf32>, tensor<4096xf32>, tensor<4096xf32>, tensor<4096xf32>, tensor<4096xf32>, tensor<4096xf32>, tensor<4096xf32>, tensor<4096xf32>, tensor<4096xf32>, tensor<4096xf32>, tensor<4096xf32>, tensor<4096xf32>, tensor<4096xf32>, tensor<4096xf32>, tensor<4096xf32>, tensor<4096xf32>, tensor<4096xf32>, tensor<4096xf32>, tensor<32000x4096xf32>, tensor<4096x4096xf32>, tensor<4096x4096xf32>, tensor<4096x4096xf32>, tensor<4096x4096xf32>, tensor<11008x4096xf32>, tensor<11008x4096xf32>, tensor<4096x11008xf32>, tensor<4096x4096xf32>, tensor<4096x4096xf32>, tensor<4096x4096xf32>, tensor<4096x4096xf32>, tensor<11008x4096xf32>, tensor<11008x4096xf32>, tensor<4096x11008xf32>, tensor<4096x4096xf32>, tensor<4096x4096xf32>, tensor<4096x4096xf32>, tensor<4096x4096xf32>, tensor<11008x4096xf32>, tensor<11008x4096xf32>, tensor<4096x11008xf32>, tensor<4096x4096xf32>, tensor<4096x4096xf32>, tensor<4096x4096xf32>, tensor<4096x4096xf32>, tensor<11008x4096xf32>, tensor<11008x4096xf32>, tensor<4096x11008xf32>, tensor<4096x4096xf32>, tensor<4096x4096xf32>, tensor<4096x4096xf32>, tensor<4096x4096xf32>, tensor<11008x4096xf32>, tensor<11008x4096xf32>, tensor<4096x11008xf32>, tensor<4096x4096xf32>, tensor<4096x4096xf32>, tensor<4096x4096xf32>, tensor<4096x4096xf32>, tensor<11008x4096xf32>, tensor<11008x4096xf32>, tensor<4096x11008xf32>, tensor<4096x4096xf32>, tensor<4096x4096xf32>, tensor<4096x4096xf32>, tensor<4096x4096xf32>, tensor<11008x4096xf32>, tensor<11008x4096xf32>, tensor<4096x11008xf32>, tensor<4096x4096xf32>, tensor<4096x4096xf32>, tensor<4096x4096xf32>, tensor<4096x4096xf32>, tensor<11008x4096xf32>, tensor<11008x4096xf32>, tensor<4096x11008xf32>, tensor<4096x4096xf32>, tensor<4096x4096xf32>, tensor<4096x4096xf32>, tensor<4096x4096xf32>, tensor<11008x4096xf32>, tensor<11008x4096xf32>, tensor<4096x11008xf32>, tensor<4096x4096xf32>, tensor<4096x4096xf32>, tensor<4096x4096xf32>, tensor<4096x4096xf32>, tensor<11008x4096xf32>, tensor<11008x4096xf32>, tensor<4096x11008xf32>, tensor<4096x4096xf32>, tensor<4096x4096xf32>, tensor<4096x4096xf32>, tensor<4096x4096xf32>, tensor<11008x4096xf32>, tensor<11008x4096xf32>, tensor<4096x11008xf32>, tensor<4096x4096xf32>, tensor<4096x4096xf32>, tensor<4096x4096xf32>, tensor<4096x4096xf32>, tensor<11008x4096xf32>, tensor<11008x4096xf32>, tensor<4096x11008xf32>, tensor<4096x4096xf32>, tensor<4096x4096xf32>, tensor<4096x4096xf32>, tensor<4096x4096xf32>, tensor<11008x4096xf32>, tensor<11008x4096xf32>, tensor<4096x11008xf32>, tensor<4096x4096xf32>, tensor<4096x4096xf32>, tensor<4096x4096xf32>, tensor<4096x4096xf32>, tensor<11008x4096xf32>, tensor<11008x4096xf32>, tensor<4096x11008xf32>, tensor<4096x4096xf32>, tensor<4096x4096xf32>, tensor<4096x4096xf32>, tensor<4096x4096xf32>, tensor<11008x4096xf32>, tensor<11008x4096xf32>, tensor<4096x11008xf32>, tensor<4096x4096xf32>, tensor<4096x4096xf32>, tensor<4096x4096xf32>, tensor<4096x4096xf32>, tensor<11008x4096xf32>, tensor<11008x4096xf32>, tensor<4096x11008xf32>, tensor<4096x4096xf32>, tensor<4096x4096xf32>, tensor<4096x4096xf32>, tensor<4096x4096xf32>, tensor<11008x4096xf32>, tensor<11008x4096xf32>, tensor<4096x11008xf32>, tensor<4096x4096xf32>, tensor<4096x4096xf32>, tensor<4096x4096xf32>, tensor<4096x4096xf32>, tensor<11008x4096xf32>, tensor<11008x4096xf32>, tensor<4096x11008xf32>, tensor<4096x4096xf32>, tensor<4096x4096xf32>, tensor<4096x4096xf32>, tensor<4096x4096xf32>, tensor<11008x4096xf32>, tensor<11008x4096xf32>, tensor<4096x11008xf32>, tensor<4096x4096xf32>, tensor<4096x4096xf32>, tensor<4096x4096xf32>, tensor<4096x4096xf32>, tensor<11008x4096xf32>, tensor<11008x4096xf32>, tensor<4096x11008xf32>, tensor<4096x4096xf32>, tensor<4096x4096xf32>, tensor<4096x4096xf32>, tensor<4096x4096xf32>, tensor<11008x4096xf32>, tensor<11008x4096xf32>, tensor<4096x11008xf32>, tensor<4096x4096xf32>, tensor<4096x4096xf32>, tensor<4096x4096xf32>, tensor<4096x4096xf32>, tensor<11008x4096xf32>, tensor<11008x4096xf32>, tensor<4096x11008xf32>, tensor<4096x4096xf32>, tensor<4096x4096xf32>, tensor<4096x4096xf32>, tensor<4096x4096xf32>, tensor<11008x4096xf32>, tensor<11008x4096xf32>, tensor<4096x11008xf32>, tensor<4096x4096xf32>, tensor<4096x4096xf32>, tensor<4096x4096xf32>, tensor<4096x4096xf32>, tensor<11008x4096xf32>, tensor<11008x4096xf32>, tensor<4096x11008xf32>, tensor<4096x4096xf32>, tensor<4096x4096xf32>, tensor<4096x4096xf32>, tensor<4096x4096xf32>, tensor<11008x4096xf32>, tensor<11008x4096xf32>, tensor<4096x11008xf32>, tensor<4096x4096xf32>, tensor<4096x4096xf32>, tensor<4096x4096xf32>, tensor<4096x4096xf32>, tensor<11008x4096xf32>, tensor<11008x4096xf32>, tensor<4096x11008xf32>, tensor<4096x4096xf32>, tensor<4096x4096xf32>, tensor<4096x4096xf32>, tensor<4096x4096xf32>, tensor<11008x4096xf32>, tensor<11008x4096xf32>, tensor<4096x11008xf32>, tensor<4096x4096xf32>, tensor<4096x4096xf32>, tensor<4096x4096xf32>, tensor<4096x4096xf32>, tensor<11008x4096xf32>, tensor<11008x4096xf32>, tensor<4096x11008xf32>, tensor<4096x4096xf32>, tensor<4096x4096xf32>, tensor<4096x4096xf32>, tensor<4096x4096xf32>, tensor<11008x4096xf32>, tensor<11008x4096xf32>, tensor<4096x11008xf32>, tensor<4096x4096xf32>, tensor<4096x4096xf32>, tensor<4096x4096xf32>, tensor<4096x4096xf32>, tensor<11008x4096xf32>, tensor<11008x4096xf32>, tensor<4096x11008xf32>, tensor<4096x4096xf32>, tensor<4096x4096xf32>, tensor<4096x4096xf32>, tensor<4096x4096xf32>, tensor<11008x4096xf32>, tensor<11008x4096xf32>, tensor<4096x11008xf32>, tensor<4096x4096xf32>, tensor<4096x4096xf32>, tensor<4096x4096xf32>, tensor<4096x4096xf32>, tensor<11008x4096xf32>, tensor<11008x4096xf32>, tensor<4096x11008xf32>, tensor<32000x4096xf32>, tensor<1x1x2048x128xf32>, tensor<1x1x2048x128xf32>, tensor<1x1x2048x128xf32>, tensor<1x1x2048x128xf32>, tensor<1x1x2048x128xf32>, tensor<1x1x2048x128xf32>, tensor<1x1x2048x128xf32>, tensor<1x1x2048x128xf32>, tensor<1x1x2048x128xf32>, tensor<1x1x2048x128xf32>, tensor<1x1x2048x128xf32>, tensor<1x1x2048x128xf32>, tensor<1x1x2048x128xf32>, tensor<1x1x2048x128xf32>, tensor<1x1x2048x128xf32>, tensor<1x1x2048x128xf32>, tensor<1x1x2048x128xf32>, tensor<1x1x2048x128xf32>, tensor<1x1x2048x128xf32>, tensor<1x1x2048x128xf32>, tensor<1x1x2048x128xf32>, tensor<1x1x2048x128xf32>, tensor<1x1x2048x128xf32>, tensor<1x1x2048x128xf32>, tensor<1x1x2048x128xf32>, tensor<1x1x2048x128xf32>, tensor<1x1x2048x128xf32>, tensor<1x1x2048x128xf32>, tensor<1x1x2048x128xf32>, tensor<1x1x2048x128xf32>, tensor<1x1x2048x128xf32>, tensor<1x1x2048x128xf32>, tensor<1x1x2048x128xf32>, tensor<1x1x2048x128xf32>, tensor<1x1x2048x128xf32>, tensor<1x1x2048x128xf32>, tensor<1x1x2048x128xf32>, tensor<1x1x2048x128xf32>, tensor<1x1x2048x128xf32>, tensor<1x1x2048x128xf32>, tensor<1x1x2048x128xf32>, tensor<1x1x2048x128xf32>, tensor<1x1x2048x128xf32>, tensor<1x1x2048x128xf32>, tensor<1x1x2048x128xf32>, tensor<1x1x2048x128xf32>, tensor<1x1x2048x128xf32>, tensor<1x1x2048x128xf32>, tensor<1x1x2048x128xf32>, tensor<1x1x2048x128xf32>, tensor<1x1x2048x128xf32>, tensor<1x1x2048x128xf32>, tensor<1x1x2048x128xf32>, tensor<1x1x2048x128xf32>, tensor<1x1x2048x128xf32>, tensor<1x1x2048x128xf32>, tensor<1x1x2048x128xf32>, tensor<1x1x2048x128xf32>, tensor<1x1x2048x128xf32>, tensor<1x1x2048x128xf32>, tensor<1x1x2048x128xf32>, tensor<1x1x2048x128xf32>, tensor<1x1x2048x128xf32>, tensor<1x1x2048x128xf32>, tensor<1x1xi64>, tensor<7x4096xf32>, tensor<7x4096xf32>, tensor<7x4096xf32>, tensor<7x4096xf32>, tensor<7x4096xf32>, tensor<7x4096xf32>, tensor<7x4096xf32>, tensor<7x4096xf32>, tensor<7x4096xf32>, tensor<7x4096xf32>, tensor<7x4096xf32>, tensor<7x4096xf32>, tensor<7x4096xf32>, tensor<7x4096xf32>, tensor<7x4096xf32>, tensor<7x4096xf32>, tensor<7x4096xf32>, tensor<7x4096xf32>, tensor<7x4096xf32>, tensor<7x4096xf32>, tensor<7x4096xf32>, tensor<7x4096xf32>, tensor<7x4096xf32>, tensor<7x4096xf32>, tensor<7x4096xf32>, tensor<7x4096xf32>, tensor<7x4096xf32>, tensor<7x4096xf32>, tensor<7x4096xf32>, tensor<7x4096xf32>, tensor<7x4096xf32>, tensor<7x4096xf32>, tensor<7x4096xf32>, tensor<7x4096xf32>, tensor<7x4096xf32>, tensor<7x4096xf32>, tensor<7x4096xf32>, tensor<7x4096xf32>, tensor<7x4096xf32>, tensor<7x4096xf32>, tensor<7x4096xf32>, tensor<7x4096xf32>, tensor<7x4096xf32>, tensor<7x4096xf32>, tensor<7x4096xf32>, tensor<7x4096xf32>, tensor<7x4096xf32>, tensor<7x4096xf32>, tensor<7x4096xf32>, tensor<7x4096xf32>, tensor<7x4096xf32>, tensor<7x4096xf32>, tensor<7x4096xf32>, tensor<7x4096xf32>, tensor<7x4096xf32>, tensor<7x4096xf32>, tensor<7x4096xf32>, tensor<7x4096xf32>, tensor<7x4096xf32>, tensor<7x4096xf32>, tensor<7x4096xf32>, tensor<7x4096xf32>, tensor<7x4096xf32>, tensor<7x4096xf32>) -> (tensor<1x7x32000xf32>, tensor<1x7x4096xf32>, tensor<7x4096xf32>, tensor<7x4096xf32>, tensor<7x4096xf32>, tensor<7x4096xf32>, tensor<7x4096xf32>, tensor<7x4096xf32>, tensor<7x4096xf32>, tensor<7x4096xf32>, tensor<7x4096xf32>, tensor<7x4096xf32>, tensor<7x4096xf32>, tensor<7x4096xf32>, tensor<7x4096xf32>, tensor<7x4096xf32>, tensor<7x4096xf32>, tensor<7x4096xf32>, tensor<7x4096xf32>, tensor<7x4096xf32>, tensor<7x4096xf32>, tensor<7x4096xf32>, tensor<7x4096xf32>, tensor<7x4096xf32>, tensor<7x4096xf32>, tensor<7x4096xf32>, tensor<7x4096xf32>, tensor<7x4096xf32>, tensor<7x4096xf32>, tensor<7x4096xf32>, tensor<7x4096xf32>, tensor<7x4096xf32>, tensor<7x4096xf32>, tensor<7x4096xf32>, tensor<7x4096xf32>, tensor<7x4096xf32>, tensor<7x4096xf32>, tensor<7x4096xf32>, tensor<7x4096xf32>, tensor<7x4096xf32>, tensor<7x4096xf32>, tensor<7x4096xf32>, tensor<7x4096xf32>, tensor<7x4096xf32>, tensor<7x4096xf32>, tensor<7x4096xf32>, tensor<7x4096xf32>, tensor<7x4096xf32>, tensor<7x4096xf32>, tensor<7x4096xf32>, tensor<7x4096xf32>, tensor<7x4096xf32>, tensor<7x4096xf32>, tensor<7x4096xf32>, tensor<7x4096xf32>, tensor<7x4096xf32>, tensor<7x4096xf32>, tensor<7x4096xf32>, tensor<7x4096xf32>, tensor<7x4096xf32>, tensor<7x4096xf32>, tensor<7x4096xf32>, tensor<7x4096xf32>, tensor<7x4096xf32>, tensor<7x4096xf32>, tensor<7x4096xf32>), sym_name = "decode_7_forward"}> ({
  ^bb0(%arg0: tensor<4096xf32>, %arg1: tensor<4096xf32>, %arg2: tensor<4096xf32>, %arg3: tensor<4096xf32>, %arg4: tensor<4096xf32>, %arg5: tensor<4096xf32>, %arg6: tensor<4096xf32>, %arg7: tensor<4096xf32>, %arg8: tensor<4096xf32>, %arg9: tensor<4096xf32>, %arg10: tensor<4096xf32>, %arg11: tensor<4096xf32>, %arg12: tensor<4096xf32>, %arg13: tensor<4096xf32>, %arg14: tensor<4096xf32>, %arg15: tensor<4096xf32>, %arg16: tensor<4096xf32>, %arg17: tensor<4096xf32>, %arg18: tensor<4096xf32>, %arg19: tensor<4096xf32>, %arg20: tensor<4096xf32>, %arg21: tensor<4096xf32>, %arg22: tensor<4096xf32>, %arg23: tensor<4096xf32>, %arg24: tensor<4096xf32>, %arg25: tensor<4096xf32>, %arg26: tensor<4096xf32>, %arg27: tensor<4096xf32>, %arg28: tensor<4096xf32>, %arg29: tensor<4096xf32>, %arg30: tensor<4096xf32>, %arg31: tensor<4096xf32>, %arg32: tensor<4096xf32>, %arg33: tensor<4096xf32>, %arg34: tensor<4096xf32>, %arg35: tensor<4096xf32>, %arg36: tensor<4096xf32>, %arg37: tensor<4096xf32>, %arg38: tensor<4096xf32>, %arg39: tensor<4096xf32>, %arg40: tensor<4096xf32>, %arg41: tensor<4096xf32>, %arg42: tensor<4096xf32>, %arg43: tensor<4096xf32>, %arg44: tensor<4096xf32>, %arg45: tensor<4096xf32>, %arg46: tensor<4096xf32>, %arg47: tensor<4096xf32>, %arg48: tensor<4096xf32>, %arg49: tensor<4096xf32>, %arg50: tensor<4096xf32>, %arg51: tensor<4096xf32>, %arg52: tensor<4096xf32>, %arg53: tensor<4096xf32>, %arg54: tensor<4096xf32>, %arg55: tensor<4096xf32>, %arg56: tensor<4096xf32>, %arg57: tensor<4096xf32>, %arg58: tensor<4096xf32>, %arg59: tensor<4096xf32>, %arg60: tensor<4096xf32>, %arg61: tensor<4096xf32>, %arg62: tensor<4096xf32>, %arg63: tensor<4096xf32>, %arg64: tensor<4096xf32>, %arg65: tensor<32000x4096xf32>, %arg66: tensor<4096x4096xf32>, %arg67: tensor<4096x4096xf32>, %arg68: tensor<4096x4096xf32>, %arg69: tensor<4096x4096xf32>, %arg70: tensor<11008x4096xf32>, %arg71: tensor<11008x4096xf32>, %arg72: tensor<4096x11008xf32>, %arg73: tensor<4096x4096xf32>, %arg74: tensor<4096x4096xf32>, %arg75: tensor<4096x4096xf32>, %arg76: tensor<4096x4096xf32>, %arg77: tensor<11008x4096xf32>, %arg78: tensor<11008x4096xf32>, %arg79: tensor<4096x11008xf32>, %arg80: tensor<4096x4096xf32>, %arg81: tensor<4096x4096xf32>, %arg82: tensor<4096x4096xf32>, %arg83: tensor<4096x4096xf32>, %arg84: tensor<11008x4096xf32>, %arg85: tensor<11008x4096xf32>, %arg86: tensor<4096x11008xf32>, %arg87: tensor<4096x4096xf32>, %arg88: tensor<4096x4096xf32>, %arg89: tensor<4096x4096xf32>, %arg90: tensor<4096x4096xf32>, %arg91: tensor<11008x4096xf32>, %arg92: tensor<11008x4096xf32>, %arg93: tensor<4096x11008xf32>, %arg94: tensor<4096x4096xf32>, %arg95: tensor<4096x4096xf32>, %arg96: tensor<4096x4096xf32>, %arg97: tensor<4096x4096xf32>, %arg98: tensor<11008x4096xf32>, %arg99: tensor<11008x4096xf32>, %arg100: tensor<4096x11008xf32>, %arg101: tensor<4096x4096xf32>, %arg102: tensor<4096x4096xf32>, %arg103: tensor<4096x4096xf32>, %arg104: tensor<4096x4096xf32>, %arg105: tensor<11008x4096xf32>, %arg106: tensor<11008x4096xf32>, %arg107: tensor<4096x11008xf32>, %arg108: tensor<4096x4096xf32>, %arg109: tensor<4096x4096xf32>, %arg110: tensor<4096x4096xf32>, %arg111: tensor<4096x4096xf32>, %arg112: tensor<11008x4096xf32>, %arg113: tensor<11008x4096xf32>, %arg114: tensor<4096x11008xf32>, %arg115: tensor<4096x4096xf32>, %arg116: tensor<4096x4096xf32>, %arg117: tensor<4096x4096xf32>, %arg118: tensor<4096x4096xf32>, %arg119: tensor<11008x4096xf32>, %arg120: tensor<11008x4096xf32>, %arg121: tensor<4096x11008xf32>, %arg122: tensor<4096x4096xf32>, %arg123: tensor<4096x4096xf32>, %arg124: tensor<4096x4096xf32>, %arg125: tensor<4096x4096xf32>, %arg126: tensor<11008x4096xf32>, %arg127: tensor<11008x4096xf32>, %arg128: tensor<4096x11008xf32>, %arg129: tensor<4096x4096xf32>, %arg130: tensor<4096x4096xf32>, %arg131: tensor<4096x4096xf32>, %arg132: tensor<4096x4096xf32>, %arg133: tensor<11008x4096xf32>, %arg134: tensor<11008x4096xf32>, %arg135: tensor<4096x11008xf32>, %arg136: tensor<4096x4096xf32>, %arg137: tensor<4096x4096xf32>, %arg138: tensor<4096x4096xf32>, %arg139: tensor<4096x4096xf32>, %arg140: tensor<11008x4096xf32>, %arg141: tensor<11008x4096xf32>, %arg142: tensor<4096x11008xf32>, %arg143: tensor<4096x4096xf32>, %arg144: tensor<4096x4096xf32>, %arg145: tensor<4096x4096xf32>, %arg146: tensor<4096x4096xf32>, %arg147: tensor<11008x4096xf32>, %arg148: tensor<11008x4096xf32>, %arg149: tensor<4096x11008xf32>, %arg150: tensor<4096x4096xf32>, %arg151: tensor<4096x4096xf32>, %arg152: tensor<4096x4096xf32>, %arg153: tensor<4096x4096xf32>, %arg154: tensor<11008x4096xf32>, %arg155: tensor<11008x4096xf32>, %arg156: tensor<4096x11008xf32>, %arg157: tensor<4096x4096xf32>, %arg158: tensor<4096x4096xf32>, %arg159: tensor<4096x4096xf32>, %arg160: tensor<4096x4096xf32>, %arg161: tensor<11008x4096xf32>, %arg162: tensor<11008x4096xf32>, %arg163: tensor<4096x11008xf32>, %arg164: tensor<4096x4096xf32>, %arg165: tensor<4096x4096xf32>, %arg166: tensor<4096x4096xf32>, %arg167: tensor<4096x4096xf32>, %arg168: tensor<11008x4096xf32>, %arg169: tensor<11008x4096xf32>, %arg170: tensor<4096x11008xf32>, %arg171: tensor<4096x4096xf32>, %arg172: tensor<4096x4096xf32>, %arg173: tensor<4096x4096xf32>, %arg174: tensor<4096x4096xf32>, %arg175: tensor<11008x4096xf32>, %arg176: tensor<11008x4096xf32>, %arg177: tensor<4096x11008xf32>, %arg178: tensor<4096x4096xf32>, %arg179: tensor<4096x4096xf32>, %arg180: tensor<4096x4096xf32>, %arg181: tensor<4096x4096xf32>, %arg182: tensor<11008x4096xf32>, %arg183: tensor<11008x4096xf32>, %arg184: tensor<4096x11008xf32>, %arg185: tensor<4096x4096xf32>, %arg186: tensor<4096x4096xf32>, %arg187: tensor<4096x4096xf32>, %arg188: tensor<4096x4096xf32>, %arg189: tensor<11008x4096xf32>, %arg190: tensor<11008x4096xf32>, %arg191: tensor<4096x11008xf32>, %arg192: tensor<4096x4096xf32>, %arg193: tensor<4096x4096xf32>, %arg194: tensor<4096x4096xf32>, %arg195: tensor<4096x4096xf32>, %arg196: tensor<11008x4096xf32>, %arg197: tensor<11008x4096xf32>, %arg198: tensor<4096x11008xf32>, %arg199: tensor<4096x4096xf32>, %arg200: tensor<4096x4096xf32>, %arg201: tensor<4096x4096xf32>, %arg202: tensor<4096x4096xf32>, %arg203: tensor<11008x4096xf32>, %arg204: tensor<11008x4096xf32>, %arg205: tensor<4096x11008xf32>, %arg206: tensor<4096x4096xf32>, %arg207: tensor<4096x4096xf32>, %arg208: tensor<4096x4096xf32>, %arg209: tensor<4096x4096xf32>, %arg210: tensor<11008x4096xf32>, %arg211: tensor<11008x4096xf32>, %arg212: tensor<4096x11008xf32>, %arg213: tensor<4096x4096xf32>, %arg214: tensor<4096x4096xf32>, %arg215: tensor<4096x4096xf32>, %arg216: tensor<4096x4096xf32>, %arg217: tensor<11008x4096xf32>, %arg218: tensor<11008x4096xf32>, %arg219: tensor<4096x11008xf32>, %arg220: tensor<4096x4096xf32>, %arg221: tensor<4096x4096xf32>, %arg222: tensor<4096x4096xf32>, %arg223: tensor<4096x4096xf32>, %arg224: tensor<11008x4096xf32>, %arg225: tensor<11008x4096xf32>, %arg226: tensor<4096x11008xf32>, %arg227: tensor<4096x4096xf32>, %arg228: tensor<4096x4096xf32>, %arg229: tensor<4096x4096xf32>, %arg230: tensor<4096x4096xf32>, %arg231: tensor<11008x4096xf32>, %arg232: tensor<11008x4096xf32>, %arg233: tensor<4096x11008xf32>, %arg234: tensor<4096x4096xf32>, %arg235: tensor<4096x4096xf32>, %arg236: tensor<4096x4096xf32>, %arg237: tensor<4096x4096xf32>, %arg238: tensor<11008x4096xf32>, %arg239: tensor<11008x4096xf32>, %arg240: tensor<4096x11008xf32>, %arg241: tensor<4096x4096xf32>, %arg242: tensor<4096x4096xf32>, %arg243: tensor<4096x4096xf32>, %arg244: tensor<4096x4096xf32>, %arg245: tensor<11008x4096xf32>, %arg246: tensor<11008x4096xf32>, %arg247: tensor<4096x11008xf32>, %arg248: tensor<4096x4096xf32>, %arg249: tensor<4096x4096xf32>, %arg250: tensor<4096x4096xf32>, %arg251: tensor<4096x4096xf32>, %arg252: tensor<11008x4096xf32>, %arg253: tensor<11008x4096xf32>, %arg254: tensor<4096x11008xf32>, %arg255: tensor<4096x4096xf32>, %arg256: tensor<4096x4096xf32>, %arg257: tensor<4096x4096xf32>, %arg258: tensor<4096x4096xf32>, %arg259: tensor<11008x4096xf32>, %arg260: tensor<11008x4096xf32>, %arg261: tensor<4096x11008xf32>, %arg262: tensor<4096x4096xf32>, %arg263: tensor<4096x4096xf32>, %arg264: tensor<4096x4096xf32>, %arg265: tensor<4096x4096xf32>, %arg266: tensor<11008x4096xf32>, %arg267: tensor<11008x4096xf32>, %arg268: tensor<4096x11008xf32>, %arg269: tensor<4096x4096xf32>, %arg270: tensor<4096x4096xf32>, %arg271: tensor<4096x4096xf32>, %arg272: tensor<4096x4096xf32>, %arg273: tensor<11008x4096xf32>, %arg274: tensor<11008x4096xf32>, %arg275: tensor<4096x11008xf32>, %arg276: tensor<4096x4096xf32>, %arg277: tensor<4096x4096xf32>, %arg278: tensor<4096x4096xf32>, %arg279: tensor<4096x4096xf32>, %arg280: tensor<11008x4096xf32>, %arg281: tensor<11008x4096xf32>, %arg282: tensor<4096x11008xf32>, %arg283: tensor<4096x4096xf32>, %arg284: tensor<4096x4096xf32>, %arg285: tensor<4096x4096xf32>, %arg286: tensor<4096x4096xf32>, %arg287: tensor<11008x4096xf32>, %arg288: tensor<11008x4096xf32>, %arg289: tensor<4096x11008xf32>, %arg290: tensor<32000x4096xf32>, %arg291: tensor<1x1x2048x128xf32>, %arg292: tensor<1x1x2048x128xf32>, %arg293: tensor<1x1x2048x128xf32>, %arg294: tensor<1x1x2048x128xf32>, %arg295: tensor<1x1x2048x128xf32>, %arg296: tensor<1x1x2048x128xf32>, %arg297: tensor<1x1x2048x128xf32>, %arg298: tensor<1x1x2048x128xf32>, %arg299: tensor<1x1x2048x128xf32>, %arg300: tensor<1x1x2048x128xf32>, %arg301: tensor<1x1x2048x128xf32>, %arg302: tensor<1x1x2048x128xf32>, %arg303: tensor<1x1x2048x128xf32>, %arg304: tensor<1x1x2048x128xf32>, %arg305: tensor<1x1x2048x128xf32>, %arg306: tensor<1x1x2048x128xf32>, %arg307: tensor<1x1x2048x128xf32>, %arg308: tensor<1x1x2048x128xf32>, %arg309: tensor<1x1x2048x128xf32>, %arg310: tensor<1x1x2048x128xf32>, %arg311: tensor<1x1x2048x128xf32>, %arg312: tensor<1x1x2048x128xf32>, %arg313: tensor<1x1x2048x128xf32>, %arg314: tensor<1x1x2048x128xf32>, %arg315: tensor<1x1x2048x128xf32>, %arg316: tensor<1x1x2048x128xf32>, %arg317: tensor<1x1x2048x128xf32>, %arg318: tensor<1x1x2048x128xf32>, %arg319: tensor<1x1x2048x128xf32>, %arg320: tensor<1x1x2048x128xf32>, %arg321: tensor<1x1x2048x128xf32>, %arg322: tensor<1x1x2048x128xf32>, %arg323: tensor<1x1x2048x128xf32>, %arg324: tensor<1x1x2048x128xf32>, %arg325: tensor<1x1x2048x128xf32>, %arg326: tensor<1x1x2048x128xf32>, %arg327: tensor<1x1x2048x128xf32>, %arg328: tensor<1x1x2048x128xf32>, %arg329: tensor<1x1x2048x128xf32>, %arg330: tensor<1x1x2048x128xf32>, %arg331: tensor<1x1x2048x128xf32>, %arg332: tensor<1x1x2048x128xf32>, %arg333: tensor<1x1x2048x128xf32>, %arg334: tensor<1x1x2048x128xf32>, %arg335: tensor<1x1x2048x128xf32>, %arg336: tensor<1x1x2048x128xf32>, %arg337: tensor<1x1x2048x128xf32>, %arg338: tensor<1x1x2048x128xf32>, %arg339: tensor<1x1x2048x128xf32>, %arg340: tensor<1x1x2048x128xf32>, %arg341: tensor<1x1x2048x128xf32>, %arg342: tensor<1x1x2048x128xf32>, %arg343: tensor<1x1x2048x128xf32>, %arg344: tensor<1x1x2048x128xf32>, %arg345: tensor<1x1x2048x128xf32>, %arg346: tensor<1x1x2048x128xf32>, %arg347: tensor<1x1x2048x128xf32>, %arg348: tensor<1x1x2048x128xf32>, %arg349: tensor<1x1x2048x128xf32>, %arg350: tensor<1x1x2048x128xf32>, %arg351: tensor<1x1x2048x128xf32>, %arg352: tensor<1x1x2048x128xf32>, %arg353: tensor<1x1x2048x128xf32>, %arg354: tensor<1x1x2048x128xf32>, %arg355: tensor<1x1xi64>, %arg356: tensor<7x4096xf32>, %arg357: tensor<7x4096xf32>, %arg358: tensor<7x4096xf32>, %arg359: tensor<7x4096xf32>, %arg360: tensor<7x4096xf32>, %arg361: tensor<7x4096xf32>, %arg362: tensor<7x4096xf32>, %arg363: tensor<7x4096xf32>, %arg364: tensor<7x4096xf32>, %arg365: tensor<7x4096xf32>, %arg366: tensor<7x4096xf32>, %arg367: tensor<7x4096xf32>, %arg368: tensor<7x4096xf32>, %arg369: tensor<7x4096xf32>, %arg370: tensor<7x4096xf32>, %arg371: tensor<7x4096xf32>, %arg372: tensor<7x4096xf32>, %arg373: tensor<7x4096xf32>, %arg374: tensor<7x4096xf32>, %arg375: tensor<7x4096xf32>, %arg376: tensor<7x4096xf32>, %arg377: tensor<7x4096xf32>, %arg378: tensor<7x4096xf32>, %arg379: tensor<7x4096xf32>, %arg380: tensor<7x4096xf32>, %arg381: tensor<7x4096xf32>, %arg382: tensor<7x4096xf32>, %arg383: tensor<7x4096xf32>, %arg384: tensor<7x4096xf32>, %arg385: tensor<7x4096xf32>, %arg386: tensor<7x4096xf32>, %arg387: tensor<7x4096xf32>, %arg388: tensor<7x4096xf32>, %arg389: tensor<7x4096xf32>, %arg390: tensor<7x4096xf32>, %arg391: tensor<7x4096xf32>, %arg392: tensor<7x4096xf32>, %arg393: tensor<7x4096xf32>, %arg394: tensor<7x4096xf32>, %arg395: tensor<7x4096xf32>, %arg396: tensor<7x4096xf32>, %arg397: tensor<7x4096xf32>, %arg398: tensor<7x4096xf32>, %arg399: tensor<7x4096xf32>, %arg400: tensor<7x4096xf32>, %arg401: tensor<7x4096xf32>, %arg402: tensor<7x4096xf32>, %arg403: tensor<7x4096xf32>, %arg404: tensor<7x4096xf32>, %arg405: tensor<7x4096xf32>, %arg406: tensor<7x4096xf32>, %arg407: tensor<7x4096xf32>, %arg408: tensor<7x4096xf32>, %arg409: tensor<7x4096xf32>, %arg410: tensor<7x4096xf32>, %arg411: tensor<7x4096xf32>, %arg412: tensor<7x4096xf32>, %arg413: tensor<7x4096xf32>, %arg414: tensor<7x4096xf32>, %arg415: tensor<7x4096xf32>, %arg416: tensor<7x4096xf32>, %arg417: tensor<7x4096xf32>, %arg418: tensor<7x4096xf32>, %arg419: tensor<7x4096xf32>):
    %0 = "tosa.const"() <{value = dense<[0, 1, 2, 3, 4, 5, 6]> : tensor<7xi64>}> : () -> tensor<7xi64>
    %1 = "tosa.reshape"(%0) <{new_shape = array<i64: 1, 7>}> : (tensor<7xi64>) -> tensor<1x7xi64>
    %2 = "tosa.reshape"(%1) <{new_shape = array<i64: 1, 7>}> : (tensor<1x7xi64>) -> tensor<1x7xi64>
    %3 = "tosa.cast"(%arg355) : (tensor<1x1xi64>) -> tensor<1x1xi32>
    %4 = "tosa.reshape"(%arg65) <{new_shape = array<i64: 1, 32000, 4096>}> : (tensor<32000x4096xf32>) -> tensor<1x32000x4096xf32>
    %5 = "tosa.gather"(%4, %3) : (tensor<1x32000x4096xf32>, tensor<1x1xi32>) -> tensor<1x1x4096xf32>
    %6 = "tosa.reshape"(%5) <{new_shape = array<i64: 1, 1, 4096>}> : (tensor<1x1x4096xf32>) -> tensor<1x1x4096xf32>
    %7 = "arith.constant"() <{value = dense<true> : tensor<1x7xi1>}> : () -> tensor<1x7xi1>
    %8 = "arith.constant"() <{value = dense<-3.40282347E+38> : tensor<7x7xf32>}> : () -> tensor<7x7xf32>
    %9 = "tosa.const"() <{value = dense<[0, 1, 2, 3, 4, 5, 6]> : tensor<7xi64>}> : () -> tensor<7xi64>
    %10 = "tosa.const"() <{value = dense<1> : tensor<7xi64>}> : () -> tensor<7xi64>
    %11 = "tosa.add"(%9, %10) : (tensor<7xi64>, tensor<7xi64>) -> tensor<7xi64>
    %12 = "tosa.reshape"(%11) <{new_shape = array<i64: 7, 1>}> : (tensor<7xi64>) -> tensor<7x1xi64>
    %13 = "tensor.empty"() : () -> tensor<7x7xi1>
    %14 = "linalg.generic"(%9, %12, %13) <{indexing_maps = [#map, #map1, #map2], iterator_types = [#linalg.iterator_type<parallel>, #linalg.iterator_type<parallel>, #linalg.iterator_type<reduction>], operandSegmentSizes = array<i32: 2, 1>}> ({
    ^bb0(%arg420: i64, %arg421: i64, %arg422: i1):
      %4789 = "arith.cmpi"(%arg420, %arg421) <{predicate = 2 : i64}> : (i64, i64) -> i1
      "linalg.yield"(%4789) : (i1) -> ()
    }) : (tensor<7xi64>, tensor<7x1xi64>, tensor<7x7xi1>) -> tensor<7x7xi1>
    %15 = "arith.constant"() <{value = 0.000000e+00 : f32}> : () -> f32
    %16 = "tensor.empty"() : () -> tensor<7x7xf32>
    %17 = "linalg.generic"(%14, %8, %16) <{indexing_maps = [#map3, #map3, #map3], iterator_types = [#linalg.iterator_type<parallel>, #linalg.iterator_type<parallel>], operandSegmentSizes = array<i32: 2, 1>}> ({
    ^bb0(%arg420: i1, %arg421: f32, %arg422: f32):
      %4789 = "arith.select"(%arg420, %15, %arg421) : (i1, f32, f32) -> f32
      "linalg.yield"(%4789) : (f32) -> ()
    }) : (tensor<7x7xi1>, tensor<7x7xf32>, tensor<7x7xf32>) -> tensor<7x7xf32>
    %18 = "tensor.extract_slice"(%7) <{operandSegmentSizes = array<i32: 1, 0, 0, 0>, static_offsets = array<i64: 0, 0>, static_sizes = array<i64: 1, 7>, static_strides = array<i64: 1, 1>}> : (tensor<1x7xi1>) -> tensor<1x7xi1>
    %19 = "tosa.reshape"(%18) <{new_shape = array<i64: 1, 1, 7>}> : (tensor<1x7xi1>) -> tensor<1x1x7xi1>
    %20 = "tosa.reshape"(%19) <{new_shape = array<i64: 1, 1, 1, 7>}> : (tensor<1x1x7xi1>) -> tensor<1x1x1x7xi1>
    %21 = "tensor.extract_slice"(%20) <{operandSegmentSizes = array<i32: 1, 0, 0, 0>, static_offsets = array<i64: 0, 0, 0, 0>, static_sizes = array<i64: 1, 1, 1, 7>, static_strides = array<i64: 1, 1, 1, 1>}> : (tensor<1x1x1x7xi1>) -> tensor<1x1x1x7xi1>
    %22 = "tosa.const"() <{value = dense<false> : tensor<1x1x7x7xi1>}> : () -> tensor<1x1x7x7xi1>
    %23 = "tosa.add"(%21, %22) : (tensor<1x1x1x7xi1>, tensor<1x1x7x7xi1>) -> tensor<1x1x7x7xi1>
    %24 = "tosa.cast"(%23) : (tensor<1x1x7x7xi1>) -> tensor<1x1x7x7xf32>
    %25 = "tosa.const"() <{value = dense<1.000000e+00> : tensor<1x1x7x7xf32>}> : () -> tensor<1x1x7x7xf32>
    %26 = "tosa.sub"(%25, %24) : (tensor<1x1x7x7xf32>, tensor<1x1x7x7xf32>) -> tensor<1x1x7x7xf32>
    %27 = "tosa.cast"(%26) : (tensor<1x1x7x7xf32>) -> tensor<1x1x7x7xi1>
    %28 = "arith.constant"() <{value = -3.40282347E+38 : f32}> : () -> f32
    %29 = "tensor.empty"() : () -> tensor<1x1x7x7xf32>
    %30 = "linalg.generic"(%27, %26, %29) <{indexing_maps = [#map4, #map4, #map4], iterator_types = [#linalg.iterator_type<parallel>, #linalg.iterator_type<parallel>, #linalg.iterator_type<parallel>, #linalg.iterator_type<parallel>], operandSegmentSizes = array<i32: 2, 1>}> ({
    ^bb0(%arg420: i1, %arg421: f32, %arg422: f32):
      %4789 = "arith.select"(%arg420, %28, %arg421) : (i1, f32, f32) -> f32
      "linalg.yield"(%4789) : (f32) -> ()
    }) : (tensor<1x1x7x7xi1>, tensor<1x1x7x7xf32>, tensor<1x1x7x7xf32>) -> tensor<1x1x7x7xf32>
    %31 = "tosa.reshape"(%17) <{new_shape = array<i64: 1, 7, 7>}> : (tensor<7x7xf32>) -> tensor<1x7x7xf32>
    %32 = "tosa.reshape"(%31) <{new_shape = array<i64: 1, 1, 7, 7>}> : (tensor<1x7x7xf32>) -> tensor<1x1x7x7xf32>
    %33 = "tensor.extract_slice"(%32) <{operandSegmentSizes = array<i32: 1, 0, 0, 0>, static_offsets = array<i64: 0, 0, 0, 0>, static_sizes = array<i64: 1, 1, 7, 7>, static_strides = array<i64: 1, 1, 1, 1>}> : (tensor<1x1x7x7xf32>) -> tensor<1x1x7x7xf32>
    %34 = "tensor.extract_slice"(%33) <{operandSegmentSizes = array<i32: 1, 0, 0, 0>, static_offsets = array<i64: 0, 0, 0, 0>, static_sizes = array<i64: 1, 1, 7, 7>, static_strides = array<i64: 1, 1, 1, 1>}> : (tensor<1x1x7x7xf32>) -> tensor<1x1x7x7xf32>
    %35 = "tosa.add"(%30, %34) : (tensor<1x1x7x7xf32>, tensor<1x1x7x7xf32>) -> tensor<1x1x7x7xf32>
    %36 = "tensor.empty"() : () -> tensor<1x7x4096xf32>
    %37 = "arith.constant"() <{value = 2 : i32}> : () -> i32
    %38 = "linalg.generic"(%6, %36) <{indexing_maps = [#map5, #map5], iterator_types = [#linalg.iterator_type<parallel>, #linalg.iterator_type<parallel>, #linalg.iterator_type<parallel>], operandSegmentSizes = array<i32: 1, 1>}> ({
    ^bb0(%arg420: f32, %arg421: f32):
      %4789 = "math.fpowi"(%arg420, %37) <{fastmath = #arith.fastmath<none>}> : (f32, i32) -> f32
      "linalg.yield"(%4789) : (f32) -> ()
    }) : (tensor<1x1x4096xf32>, tensor<1x7x4096xf32>) -> tensor<1x7x4096xf32>
    %39 = "arith.constant"() <{value = dense<0.000000e+00> : tensor<1x7x1xf32>}> : () -> tensor<1x7x1xf32>
    %40 = "linalg.generic"(%38, %39) <{indexing_maps = [#map6, #map7], iterator_types = [#linalg.iterator_type<parallel>, #linalg.iterator_type<parallel>, #linalg.iterator_type<reduction>, #linalg.iterator_type<parallel>], operandSegmentSizes = array<i32: 1, 1>}> ({
    ^bb0(%arg420: f32, %arg421: f32):
      %4789 = "arith.constant"() <{value = 4.096000e+03 : f32}> : () -> f32
      %4790 = "arith.divf"(%arg420, %4789) <{fastmath = #arith.fastmath<none>}> : (f32, f32) -> f32
      %4791 = "arith.addf"(%4790, %arg421) <{fastmath = #arith.fastmath<none>}> : (f32, f32) -> f32
      "linalg.yield"(%4791) : (f32) -> ()
    }) : (tensor<1x7x4096xf32>, tensor<1x7x1xf32>) -> tensor<1x7x1xf32>
    %41 = "tosa.const"() <{value = dense<9.99999997E-7> : tensor<1x7x1xf32>}> : () -> tensor<1x7x1xf32>
    %42 = "tosa.add"(%40, %41) : (tensor<1x7x1xf32>, tensor<1x7x1xf32>) -> tensor<1x7x1xf32>
    %43 = "tosa.rsqrt"(%42) : (tensor<1x7x1xf32>) -> tensor<1x7x1xf32>
    %44 = "tosa.mul"(%6, %43) <{shift = 0 : i8}> : (tensor<1x1x4096xf32>, tensor<1x7x1xf32>) -> tensor<1x7x4096xf32>
    %45 = "tosa.reshape"(%arg0) <{new_shape = array<i64: 1, 1, 4096>}> : (tensor<4096xf32>) -> tensor<1x1x4096xf32>
    %46 = "tosa.mul"(%45, %44) <{shift = 0 : i8}> : (tensor<1x1x4096xf32>, tensor<1x7x4096xf32>) -> tensor<1x7x4096xf32>
    %47 = "tosa.const"() <{value = dense<[1, 0]> : tensor<2xi32>}> : () -> tensor<2xi32>
    %48 = "tosa.transpose"(%arg66, %47) : (tensor<4096x4096xf32>, tensor<2xi32>) -> tensor<4096x4096xf32>
    %49 = "tosa.reshape"(%46) <{new_shape = array<i64: 7, 4096>}> : (tensor<1x7x4096xf32>) -> tensor<7x4096xf32>
    %50 = "arith.constant"() <{value = dense<0.000000e+00> : tensor<7x4096xf32>}> : () -> tensor<7x4096xf32>
    %51 = "linalg.matmul"(%49, %48, %50) <{cast = #linalg.type_fn<cast_signed>, operandSegmentSizes = array<i32: 2, 1>}> ({
    ^bb0(%arg420: f32, %arg421: f32, %arg422: f32):
      %4789 = "arith.mulf"(%arg420, %arg421) <{fastmath = #arith.fastmath<none>}> : (f32, f32) -> f32
      %4790 = "arith.addf"(%arg422, %4789) <{fastmath = #arith.fastmath<none>}> : (f32, f32) -> f32
      "linalg.yield"(%4790) : (f32) -> ()
    }) : (tensor<7x4096xf32>, tensor<4096x4096xf32>, tensor<7x4096xf32>) -> tensor<7x4096xf32>
    %52 = "tosa.reshape"(%51) <{new_shape = array<i64: 1, 7, 4096>}> : (tensor<7x4096xf32>) -> tensor<1x7x4096xf32>
    %53 = "tosa.const"() <{value = dense<[1, 0]> : tensor<2xi32>}> : () -> tensor<2xi32>
    %54 = "tosa.transpose"(%arg67, %53) : (tensor<4096x4096xf32>, tensor<2xi32>) -> tensor<4096x4096xf32>
    %55 = "tosa.reshape"(%46) <{new_shape = array<i64: 7, 4096>}> : (tensor<1x7x4096xf32>) -> tensor<7x4096xf32>
    %56 = "arith.constant"() <{value = dense<0.000000e+00> : tensor<1x4096xf32>}> : () -> tensor<1x4096xf32>
    %57 = "linalg.matmul"(%55, %54, %56) <{cast = #linalg.type_fn<cast_signed>, operandSegmentSizes = array<i32: 2, 1>}> ({
    ^bb0(%arg420: f32, %arg421: f32, %arg422: f32):
      %4789 = "arith.mulf"(%arg420, %arg421) <{fastmath = #arith.fastmath<none>}> : (f32, f32) -> f32
      %4790 = "arith.addf"(%arg422, %4789) <{fastmath = #arith.fastmath<none>}> : (f32, f32) -> f32
      "linalg.yield"(%4790) : (f32) -> ()
    }) : (tensor<7x4096xf32>, tensor<4096x4096xf32>, tensor<1x4096xf32>) -> tensor<1x4096xf32>
    %58 = "tensor.empty"() : () -> tensor<7x4096xf32>
    %59 = "tensor.insert_slice"(%57, %58) <{operandSegmentSizes = array<i32: 1, 1, 0, 0, 0>, static_offsets = array<i64: 0, 0>, static_sizes = array<i64: 1, 4096>, static_strides = array<i64: 1, 1>}> : (tensor<1x4096xf32>, tensor<7x4096xf32>) -> tensor<7x4096xf32>
    %60 = "tensor.insert_slice"(%arg356, %59) <{operandSegmentSizes = array<i32: 1, 1, 0, 0, 0>, static_offsets = array<i64: 1, 0>, static_sizes = array<i64: 7, 4096>, static_strides = array<i64: 1, 1>}> : (tensor<7x4096xf32>, tensor<7x4096xf32>) -> tensor<7x4096xf32>
    %61 = "tosa.reshape"(%60) <{new_shape = array<i64: 1, 7, 4096>}> : (tensor<7x4096xf32>) -> tensor<1x7x4096xf32>
    %62 = "tosa.const"() <{value = dense<[1, 0]> : tensor<2xi32>}> : () -> tensor<2xi32>
    %63 = "tosa.transpose"(%arg68, %62) : (tensor<4096x4096xf32>, tensor<2xi32>) -> tensor<4096x4096xf32>
    %64 = "tosa.reshape"(%46) <{new_shape = array<i64: 7, 4096>}> : (tensor<1x7x4096xf32>) -> tensor<7x4096xf32>
    %65 = "arith.constant"() <{value = dense<0.000000e+00> : tensor<1x4096xf32>}> : () -> tensor<1x4096xf32>
    %66 = "linalg.matmul"(%64, %63, %65) <{cast = #linalg.type_fn<cast_signed>, operandSegmentSizes = array<i32: 2, 1>}> ({
    ^bb0(%arg420: f32, %arg421: f32, %arg422: f32):
      %4789 = "arith.mulf"(%arg420, %arg421) <{fastmath = #arith.fastmath<none>}> : (f32, f32) -> f32
      %4790 = "arith.addf"(%arg422, %4789) <{fastmath = #arith.fastmath<none>}> : (f32, f32) -> f32
      "linalg.yield"(%4790) : (f32) -> ()
    }) : (tensor<7x4096xf32>, tensor<4096x4096xf32>, tensor<1x4096xf32>) -> tensor<1x4096xf32>
    %67 = "tensor.empty"() : () -> tensor<7x4096xf32>
    %68 = "tensor.insert_slice"(%66, %67) <{operandSegmentSizes = array<i32: 1, 1, 0, 0, 0>, static_offsets = array<i64: 0, 0>, static_sizes = array<i64: 1, 4096>, static_strides = array<i64: 1, 1>}> : (tensor<1x4096xf32>, tensor<7x4096xf32>) -> tensor<7x4096xf32>
    %69 = "tensor.insert_slice"(%arg356, %68) <{operandSegmentSizes = array<i32: 1, 1, 0, 0, 0>, static_offsets = array<i64: 1, 0>, static_sizes = array<i64: 7, 4096>, static_strides = array<i64: 1, 1>}> : (tensor<7x4096xf32>, tensor<7x4096xf32>) -> tensor<7x4096xf32>
    %70 = "tosa.reshape"(%69) <{new_shape = array<i64: 1, 7, 4096>}> : (tensor<7x4096xf32>) -> tensor<1x7x4096xf32>
    %71 = "tosa.reshape"(%52) <{new_shape = array<i64: 1, 7, 32, 128>}> : (tensor<1x7x4096xf32>) -> tensor<1x7x32x128xf32>
    %72 = "tosa.const"() <{value = dense<[0, 2, 1, 3]> : tensor<4xi32>}> : () -> tensor<4xi32>
    %73 = "tosa.transpose"(%71, %72) : (tensor<1x7x32x128xf32>, tensor<4xi32>) -> tensor<1x32x7x128xf32>
    %74 = "tosa.reshape"(%61) <{new_shape = array<i64: 1, 7, 32, 128>}> : (tensor<1x7x4096xf32>) -> tensor<1x7x32x128xf32>
    %75 = "tosa.const"() <{value = dense<[0, 2, 1, 3]> : tensor<4xi32>}> : () -> tensor<4xi32>
    %76 = "tosa.transpose"(%74, %75) : (tensor<1x7x32x128xf32>, tensor<4xi32>) -> tensor<1x32x7x128xf32>
    %77 = "tosa.reshape"(%70) <{new_shape = array<i64: 1, 7, 32, 128>}> : (tensor<1x7x4096xf32>) -> tensor<1x7x32x128xf32>
    %78 = "tosa.const"() <{value = dense<[0, 2, 1, 3]> : tensor<4xi32>}> : () -> tensor<4xi32>
    %79 = "tosa.transpose"(%77, %78) : (tensor<1x7x32x128xf32>, tensor<4xi32>) -> tensor<1x32x7x128xf32>
    %80 = "tensor.extract_slice"(%arg291) <{operandSegmentSizes = array<i32: 1, 0, 0, 0>, static_offsets = array<i64: 0, 0, 0, 0>, static_sizes = array<i64: 1, 1, 2048, 128>, static_strides = array<i64: 1, 1, 1, 1>}> : (tensor<1x1x2048x128xf32>) -> tensor<1x1x2048x128xf32>
    %81 = "tensor.extract_slice"(%80) <{operandSegmentSizes = array<i32: 1, 0, 0, 0>, static_offsets = array<i64: 0, 0, 0, 0>, static_sizes = array<i64: 1, 1, 2048, 128>, static_strides = array<i64: 1, 1, 1, 1>}> : (tensor<1x1x2048x128xf32>) -> tensor<1x1x2048x128xf32>
    %82 = "tensor.extract_slice"(%81) <{operandSegmentSizes = array<i32: 1, 0, 0, 0>, static_offsets = array<i64: 0, 0, 0, 0>, static_sizes = array<i64: 1, 1, 7, 128>, static_strides = array<i64: 1, 1, 1, 1>}> : (tensor<1x1x2048x128xf32>) -> tensor<1x1x7x128xf32>
    %83 = "tensor.extract_slice"(%arg292) <{operandSegmentSizes = array<i32: 1, 0, 0, 0>, static_offsets = array<i64: 0, 0, 0, 0>, static_sizes = array<i64: 1, 1, 2048, 128>, static_strides = array<i64: 1, 1, 1, 1>}> : (tensor<1x1x2048x128xf32>) -> tensor<1x1x2048x128xf32>
    %84 = "tensor.extract_slice"(%83) <{operandSegmentSizes = array<i32: 1, 0, 0, 0>, static_offsets = array<i64: 0, 0, 0, 0>, static_sizes = array<i64: 1, 1, 2048, 128>, static_strides = array<i64: 1, 1, 1, 1>}> : (tensor<1x1x2048x128xf32>) -> tensor<1x1x2048x128xf32>
    %85 = "tensor.extract_slice"(%84) <{operandSegmentSizes = array<i32: 1, 0, 0, 0>, static_offsets = array<i64: 0, 0, 0, 0>, static_sizes = array<i64: 1, 1, 7, 128>, static_strides = array<i64: 1, 1, 1, 1>}> : (tensor<1x1x2048x128xf32>) -> tensor<1x1x7x128xf32>
    %86 = "tensor.empty"() : () -> tensor<1x7x128xf32>
    %87 = "linalg.generic"(%82, %86) <{indexing_maps = [#map8, #map5], iterator_types = [#linalg.iterator_type<parallel>, #linalg.iterator_type<parallel>, #linalg.iterator_type<parallel>], operandSegmentSizes = array<i32: 1, 1>}> ({
    ^bb0(%arg420: f32, %arg421: f32):
      "linalg.yield"(%arg420) : (f32) -> ()
    }) : (tensor<1x1x7x128xf32>, tensor<1x7x128xf32>) -> tensor<1x7x128xf32>
    %88 = "tensor.empty"() : () -> tensor<7x128xf32>
    %89 = "linalg.generic"(%87, %88) <{indexing_maps = [#map9, #map3], iterator_types = [#linalg.iterator_type<parallel>, #linalg.iterator_type<parallel>], operandSegmentSizes = array<i32: 1, 1>}> ({
    ^bb0(%arg420: f32, %arg421: f32):
      "linalg.yield"(%arg420) : (f32) -> ()
    }) : (tensor<1x7x128xf32>, tensor<7x128xf32>) -> tensor<7x128xf32>
    %90 = "tensor.empty"() : () -> tensor<1x7x128xf32>
    %91 = "linalg.generic"(%85, %90) <{indexing_maps = [#map8, #map5], iterator_types = [#linalg.iterator_type<parallel>, #linalg.iterator_type<parallel>, #linalg.iterator_type<parallel>], operandSegmentSizes = array<i32: 1, 1>}> ({
    ^bb0(%arg420: f32, %arg421: f32):
      "linalg.yield"(%arg420) : (f32) -> ()
    }) : (tensor<1x1x7x128xf32>, tensor<1x7x128xf32>) -> tensor<1x7x128xf32>
    %92 = "tensor.empty"() : () -> tensor<7x128xf32>
    %93 = "linalg.generic"(%91, %92) <{indexing_maps = [#map9, #map3], iterator_types = [#linalg.iterator_type<parallel>, #linalg.iterator_type<parallel>], operandSegmentSizes = array<i32: 1, 1>}> ({
    ^bb0(%arg420: f32, %arg421: f32):
      "linalg.yield"(%arg420) : (f32) -> ()
    }) : (tensor<1x7x128xf32>, tensor<7x128xf32>) -> tensor<7x128xf32>
    %94 = "tensor.empty"() : () -> tensor<1x7x128xf32>
    %95 = "linalg.generic"(%2, %94) <{indexing_maps = [#map2, #map5], iterator_types = [#linalg.iterator_type<parallel>, #linalg.iterator_type<parallel>, #linalg.iterator_type<parallel>], operandSegmentSizes = array<i32: 1, 1>}> ({
    ^bb0(%arg420: i64, %arg421: f32):
      %4789 = "arith.index_cast"(%arg420) : (i64) -> index
      %4790 = "linalg.index"() <{dim = 2 : i64}> : () -> index
      %4791 = "tensor.extract"(%89, %4789, %4790) : (tensor<7x128xf32>, index, index) -> f32
      "linalg.yield"(%4791) : (f32) -> ()
    }) : (tensor<1x7xi64>, tensor<1x7x128xf32>) -> tensor<1x7x128xf32>
    %96 = "tosa.reshape"(%95) <{new_shape = array<i64: 1, 1, 7, 128>}> : (tensor<1x7x128xf32>) -> tensor<1x1x7x128xf32>
    %97 = "tensor.empty"() : () -> tensor<1x7x128xf32>
    %98 = "linalg.generic"(%2, %97) <{indexing_maps = [#map2, #map5], iterator_types = [#linalg.iterator_type<parallel>, #linalg.iterator_type<parallel>, #linalg.iterator_type<parallel>], operandSegmentSizes = array<i32: 1, 1>}> ({
    ^bb0(%arg420: i64, %arg421: f32):
      %4789 = "arith.index_cast"(%arg420) : (i64) -> index
      %4790 = "linalg.index"() <{dim = 2 : i64}> : () -> index
      %4791 = "tensor.extract"(%93, %4789, %4790) : (tensor<7x128xf32>, index, index) -> f32
      "linalg.yield"(%4791) : (f32) -> ()
    }) : (tensor<1x7xi64>, tensor<1x7x128xf32>) -> tensor<1x7x128xf32>
    %99 = "tosa.reshape"(%98) <{new_shape = array<i64: 1, 1, 7, 128>}> : (tensor<1x7x128xf32>) -> tensor<1x1x7x128xf32>
    %100 = "tosa.mul"(%73, %96) <{shift = 0 : i8}> : (tensor<1x32x7x128xf32>, tensor<1x1x7x128xf32>) -> tensor<1x32x7x128xf32>
    %101 = "tensor.extract_slice"(%73) <{operandSegmentSizes = array<i32: 1, 0, 0, 0>, static_offsets = array<i64: 0, 0, 0, 0>, static_sizes = array<i64: 1, 32, 7, 64>, static_strides = array<i64: 1, 1, 1, 1>}> : (tensor<1x32x7x128xf32>) -> tensor<1x32x7x64xf32>
    %102 = "tensor.extract_slice"(%73) <{operandSegmentSizes = array<i32: 1, 0, 0, 0>, static_offsets = array<i64: 0, 0, 0, 64>, static_sizes = array<i64: 1, 32, 7, 64>, static_strides = array<i64: 1, 1, 1, 1>}> : (tensor<1x32x7x128xf32>) -> tensor<1x32x7x64xf32>
    %103 = "tensor.empty"() : () -> tensor<1x32x7x64xf32>
    %104 = "linalg.negf"(%102, %103) <{operandSegmentSizes = array<i32: 1, 1>}> ({
    ^bb0(%arg420: f32, %arg421: f32):
      %4789 = "arith.negf"(%arg420) <{fastmath = #arith.fastmath<none>}> : (f32) -> f32
      "linalg.yield"(%4789) : (f32) -> ()
    }) : (tensor<1x32x7x64xf32>, tensor<1x32x7x64xf32>) -> tensor<1x32x7x64xf32>
    %105 = "tensor.empty"() : () -> tensor<1x32x7x128xf32>
    %106 = "tensor.insert_slice"(%104, %105) <{operandSegmentSizes = array<i32: 1, 1, 0, 0, 0>, static_offsets = array<i64: 0, 0, 0, 0>, static_sizes = array<i64: 1, 32, 7, 64>, static_strides = array<i64: 1, 1, 1, 1>}> : (tensor<1x32x7x64xf32>, tensor<1x32x7x128xf32>) -> tensor<1x32x7x128xf32>
    %107 = "tensor.insert_slice"(%101, %106) <{operandSegmentSizes = array<i32: 1, 1, 0, 0, 0>, static_offsets = array<i64: 0, 0, 0, 64>, static_sizes = array<i64: 1, 32, 7, 64>, static_strides = array<i64: 1, 1, 1, 1>}> : (tensor<1x32x7x64xf32>, tensor<1x32x7x128xf32>) -> tensor<1x32x7x128xf32>
    %108 = "tosa.mul"(%107, %99) <{shift = 0 : i8}> : (tensor<1x32x7x128xf32>, tensor<1x1x7x128xf32>) -> tensor<1x32x7x128xf32>
    %109 = "tosa.add"(%100, %108) : (tensor<1x32x7x128xf32>, tensor<1x32x7x128xf32>) -> tensor<1x32x7x128xf32>
    %110 = "tosa.mul"(%76, %96) <{shift = 0 : i8}> : (tensor<1x32x7x128xf32>, tensor<1x1x7x128xf32>) -> tensor<1x32x7x128xf32>
    %111 = "tensor.extract_slice"(%76) <{operandSegmentSizes = array<i32: 1, 0, 0, 0>, static_offsets = array<i64: 0, 0, 0, 0>, static_sizes = array<i64: 1, 32, 7, 64>, static_strides = array<i64: 1, 1, 1, 1>}> : (tensor<1x32x7x128xf32>) -> tensor<1x32x7x64xf32>
    %112 = "tensor.extract_slice"(%76) <{operandSegmentSizes = array<i32: 1, 0, 0, 0>, static_offsets = array<i64: 0, 0, 0, 64>, static_sizes = array<i64: 1, 32, 7, 64>, static_strides = array<i64: 1, 1, 1, 1>}> : (tensor<1x32x7x128xf32>) -> tensor<1x32x7x64xf32>
    %113 = "tensor.empty"() : () -> tensor<1x32x7x64xf32>
    %114 = "linalg.negf"(%112, %113) <{operandSegmentSizes = array<i32: 1, 1>}> ({
    ^bb0(%arg420: f32, %arg421: f32):
      %4789 = "arith.negf"(%arg420) <{fastmath = #arith.fastmath<none>}> : (f32) -> f32
      "linalg.yield"(%4789) : (f32) -> ()
    }) : (tensor<1x32x7x64xf32>, tensor<1x32x7x64xf32>) -> tensor<1x32x7x64xf32>
    %115 = "tensor.empty"() : () -> tensor<1x32x7x128xf32>
    %116 = "tensor.insert_slice"(%114, %115) <{operandSegmentSizes = array<i32: 1, 1, 0, 0, 0>, static_offsets = array<i64: 0, 0, 0, 0>, static_sizes = array<i64: 1, 32, 7, 64>, static_strides = array<i64: 1, 1, 1, 1>}> : (tensor<1x32x7x64xf32>, tensor<1x32x7x128xf32>) -> tensor<1x32x7x128xf32>
    %117 = "tensor.insert_slice"(%111, %116) <{operandSegmentSizes = array<i32: 1, 1, 0, 0, 0>, static_offsets = array<i64: 0, 0, 0, 64>, static_sizes = array<i64: 1, 32, 7, 64>, static_strides = array<i64: 1, 1, 1, 1>}> : (tensor<1x32x7x64xf32>, tensor<1x32x7x128xf32>) -> tensor<1x32x7x128xf32>
    %118 = "tosa.mul"(%117, %99) <{shift = 0 : i8}> : (tensor<1x32x7x128xf32>, tensor<1x1x7x128xf32>) -> tensor<1x32x7x128xf32>
    %119 = "tosa.add"(%110, %118) : (tensor<1x32x7x128xf32>, tensor<1x32x7x128xf32>) -> tensor<1x32x7x128xf32>
    %120 = "tosa.const"() <{value = dense<[0, 1, 3, 2]> : tensor<4xi32>}> : () -> tensor<4xi32>
    %121 = "tosa.transpose"(%119, %120) : (tensor<1x32x7x128xf32>, tensor<4xi32>) -> tensor<1x32x128x7xf32>
    %122 = "tosa.reshape"(%109) <{new_shape = array<i64: 32, 7, 128>}> : (tensor<1x32x7x128xf32>) -> tensor<32x7x128xf32>
    %123 = "tosa.reshape"(%121) <{new_shape = array<i64: 32, 128, 7>}> : (tensor<1x32x128x7xf32>) -> tensor<32x128x7xf32>
    %124 = "tosa.matmul"(%122, %123) : (tensor<32x7x128xf32>, tensor<32x128x7xf32>) -> tensor<32x7x7xf32>
    %125 = "tosa.reshape"(%124) <{new_shape = array<i64: 1, 32, 7, 7>}> : (tensor<32x7x7xf32>) -> tensor<1x32x7x7xf32>
    %126 = "tosa.const"() <{value = dense<11.3137083> : tensor<1x32x7x7xf32>}> : () -> tensor<1x32x7x7xf32>
    %127 = "tosa.reciprocal"(%126) : (tensor<1x32x7x7xf32>) -> tensor<1x32x7x7xf32>
    %128 = "tosa.mul"(%125, %127) <{shift = 0 : i8}> : (tensor<1x32x7x7xf32>, tensor<1x32x7x7xf32>) -> tensor<1x32x7x7xf32>
    %129 = "tosa.add"(%128, %35) : (tensor<1x32x7x7xf32>, tensor<1x1x7x7xf32>) -> tensor<1x32x7x7xf32>
    %130 = "tosa.reduce_max"(%129) <{axis = 3 : i32}> : (tensor<1x32x7x7xf32>) -> tensor<1x32x7x1xf32>
    %131 = "tosa.sub"(%129, %130) : (tensor<1x32x7x7xf32>, tensor<1x32x7x1xf32>) -> tensor<1x32x7x7xf32>
    %132 = "tosa.exp"(%131) : (tensor<1x32x7x7xf32>) -> tensor<1x32x7x7xf32>
    %133 = "tosa.reduce_sum"(%132) <{axis = 3 : i32}> : (tensor<1x32x7x7xf32>) -> tensor<1x32x7x1xf32>
    %134 = "tosa.reciprocal"(%133) : (tensor<1x32x7x1xf32>) -> tensor<1x32x7x1xf32>
    %135 = "tosa.mul"(%132, %134) <{shift = 0 : i8}> : (tensor<1x32x7x7xf32>, tensor<1x32x7x1xf32>) -> tensor<1x32x7x7xf32>
    %136 = "tosa.reshape"(%135) <{new_shape = array<i64: 32, 7, 7>}> : (tensor<1x32x7x7xf32>) -> tensor<32x7x7xf32>
    %137 = "tosa.reshape"(%79) <{new_shape = array<i64: 32, 7, 128>}> : (tensor<1x32x7x128xf32>) -> tensor<32x7x128xf32>
    %138 = "tosa.matmul"(%136, %137) : (tensor<32x7x7xf32>, tensor<32x7x128xf32>) -> tensor<32x7x128xf32>
    %139 = "tosa.reshape"(%138) <{new_shape = array<i64: 1, 32, 7, 128>}> : (tensor<32x7x128xf32>) -> tensor<1x32x7x128xf32>
    %140 = "tosa.const"() <{value = dense<[0, 2, 1, 3]> : tensor<4xi32>}> : () -> tensor<4xi32>
    %141 = "tosa.transpose"(%139, %140) : (tensor<1x32x7x128xf32>, tensor<4xi32>) -> tensor<1x7x32x128xf32>
    %142 = "tosa.identity"(%141) : (tensor<1x7x32x128xf32>) -> tensor<1x7x32x128xf32>
    %143 = "tosa.reshape"(%142) <{new_shape = array<i64: 1, 7, 4096>}> : (tensor<1x7x32x128xf32>) -> tensor<1x7x4096xf32>
    %144 = "tosa.const"() <{value = dense<[1, 0]> : tensor<2xi32>}> : () -> tensor<2xi32>
    %145 = "tosa.transpose"(%arg69, %144) : (tensor<4096x4096xf32>, tensor<2xi32>) -> tensor<4096x4096xf32>
    %146 = "tosa.reshape"(%143) <{new_shape = array<i64: 7, 4096>}> : (tensor<1x7x4096xf32>) -> tensor<7x4096xf32>
    %147 = "arith.constant"() <{value = dense<0.000000e+00> : tensor<7x4096xf32>}> : () -> tensor<7x4096xf32>
    %148 = "linalg.matmul"(%146, %145, %147) <{cast = #linalg.type_fn<cast_signed>, operandSegmentSizes = array<i32: 2, 1>}> ({
    ^bb0(%arg420: f32, %arg421: f32, %arg422: f32):
      %4789 = "arith.mulf"(%arg420, %arg421) <{fastmath = #arith.fastmath<none>}> : (f32, f32) -> f32
      %4790 = "arith.addf"(%arg422, %4789) <{fastmath = #arith.fastmath<none>}> : (f32, f32) -> f32
      "linalg.yield"(%4790) : (f32) -> ()
    }) : (tensor<7x4096xf32>, tensor<4096x4096xf32>, tensor<7x4096xf32>) -> tensor<7x4096xf32>
    %149 = "tosa.reshape"(%148) <{new_shape = array<i64: 1, 7, 4096>}> : (tensor<7x4096xf32>) -> tensor<1x7x4096xf32>
    %150 = "tosa.add"(%6, %149) : (tensor<1x1x4096xf32>, tensor<1x7x4096xf32>) -> tensor<1x7x4096xf32>
    %151 = "tensor.empty"() : () -> tensor<1x7x4096xf32>
    %152 = "arith.constant"() <{value = 2 : i32}> : () -> i32
    %153 = "linalg.generic"(%150, %151) <{indexing_maps = [#map5, #map5], iterator_types = [#linalg.iterator_type<parallel>, #linalg.iterator_type<parallel>, #linalg.iterator_type<parallel>], operandSegmentSizes = array<i32: 1, 1>}> ({
    ^bb0(%arg420: f32, %arg421: f32):
      %4789 = "math.fpowi"(%arg420, %152) <{fastmath = #arith.fastmath<none>}> : (f32, i32) -> f32
      "linalg.yield"(%4789) : (f32) -> ()
    }) : (tensor<1x7x4096xf32>, tensor<1x7x4096xf32>) -> tensor<1x7x4096xf32>
    %154 = "arith.constant"() <{value = dense<0.000000e+00> : tensor<1x7x1xf32>}> : () -> tensor<1x7x1xf32>
    %155 = "linalg.generic"(%153, %154) <{indexing_maps = [#map6, #map7], iterator_types = [#linalg.iterator_type<parallel>, #linalg.iterator_type<parallel>, #linalg.iterator_type<reduction>, #linalg.iterator_type<parallel>], operandSegmentSizes = array<i32: 1, 1>}> ({
    ^bb0(%arg420: f32, %arg421: f32):
      %4789 = "arith.constant"() <{value = 4.096000e+03 : f32}> : () -> f32
      %4790 = "arith.divf"(%arg420, %4789) <{fastmath = #arith.fastmath<none>}> : (f32, f32) -> f32
      %4791 = "arith.addf"(%4790, %arg421) <{fastmath = #arith.fastmath<none>}> : (f32, f32) -> f32
      "linalg.yield"(%4791) : (f32) -> ()
    }) : (tensor<1x7x4096xf32>, tensor<1x7x1xf32>) -> tensor<1x7x1xf32>
    %156 = "tosa.const"() <{value = dense<9.99999997E-7> : tensor<1x7x1xf32>}> : () -> tensor<1x7x1xf32>
    %157 = "tosa.add"(%155, %156) : (tensor<1x7x1xf32>, tensor<1x7x1xf32>) -> tensor<1x7x1xf32>
    %158 = "tosa.rsqrt"(%157) : (tensor<1x7x1xf32>) -> tensor<1x7x1xf32>
    %159 = "tosa.mul"(%150, %158) <{shift = 0 : i8}> : (tensor<1x7x4096xf32>, tensor<1x7x1xf32>) -> tensor<1x7x4096xf32>
    %160 = "tosa.reshape"(%arg1) <{new_shape = array<i64: 1, 1, 4096>}> : (tensor<4096xf32>) -> tensor<1x1x4096xf32>
    %161 = "tosa.mul"(%160, %159) <{shift = 0 : i8}> : (tensor<1x1x4096xf32>, tensor<1x7x4096xf32>) -> tensor<1x7x4096xf32>
    %162 = "tosa.const"() <{value = dense<[1, 0]> : tensor<2xi32>}> : () -> tensor<2xi32>
    %163 = "tosa.transpose"(%arg70, %162) : (tensor<11008x4096xf32>, tensor<2xi32>) -> tensor<4096x11008xf32>
    %164 = "tosa.reshape"(%161) <{new_shape = array<i64: 7, 4096>}> : (tensor<1x7x4096xf32>) -> tensor<7x4096xf32>
    %165 = "arith.constant"() <{value = dense<0.000000e+00> : tensor<7x11008xf32>}> : () -> tensor<7x11008xf32>
    %166 = "linalg.matmul"(%164, %163, %165) <{cast = #linalg.type_fn<cast_signed>, operandSegmentSizes = array<i32: 2, 1>}> ({
    ^bb0(%arg420: f32, %arg421: f32, %arg422: f32):
      %4789 = "arith.mulf"(%arg420, %arg421) <{fastmath = #arith.fastmath<none>}> : (f32, f32) -> f32
      %4790 = "arith.addf"(%arg422, %4789) <{fastmath = #arith.fastmath<none>}> : (f32, f32) -> f32
      "linalg.yield"(%4790) : (f32) -> ()
    }) : (tensor<7x4096xf32>, tensor<4096x11008xf32>, tensor<7x11008xf32>) -> tensor<7x11008xf32>
    %167 = "tosa.reshape"(%166) <{new_shape = array<i64: 1, 7, 11008>}> : (tensor<7x11008xf32>) -> tensor<1x7x11008xf32>
    %168 = "tosa.sigmoid"(%167) : (tensor<1x7x11008xf32>) -> tensor<1x7x11008xf32>
    %169 = "tosa.mul"(%167, %168) <{shift = 0 : i8}> : (tensor<1x7x11008xf32>, tensor<1x7x11008xf32>) -> tensor<1x7x11008xf32>
    %170 = "tosa.const"() <{value = dense<[1, 0]> : tensor<2xi32>}> : () -> tensor<2xi32>
    %171 = "tosa.transpose"(%arg71, %170) : (tensor<11008x4096xf32>, tensor<2xi32>) -> tensor<4096x11008xf32>
    %172 = "tosa.reshape"(%161) <{new_shape = array<i64: 7, 4096>}> : (tensor<1x7x4096xf32>) -> tensor<7x4096xf32>
    %173 = "arith.constant"() <{value = dense<0.000000e+00> : tensor<7x11008xf32>}> : () -> tensor<7x11008xf32>
    %174 = "linalg.matmul"(%172, %171, %173) <{cast = #linalg.type_fn<cast_signed>, operandSegmentSizes = array<i32: 2, 1>}> ({
    ^bb0(%arg420: f32, %arg421: f32, %arg422: f32):
      %4789 = "arith.mulf"(%arg420, %arg421) <{fastmath = #arith.fastmath<none>}> : (f32, f32) -> f32
      %4790 = "arith.addf"(%arg422, %4789) <{fastmath = #arith.fastmath<none>}> : (f32, f32) -> f32
      "linalg.yield"(%4790) : (f32) -> ()
    }) : (tensor<7x4096xf32>, tensor<4096x11008xf32>, tensor<7x11008xf32>) -> tensor<7x11008xf32>
    %175 = "tosa.reshape"(%174) <{new_shape = array<i64: 1, 7, 11008>}> : (tensor<7x11008xf32>) -> tensor<1x7x11008xf32>
    %176 = "tosa.mul"(%169, %175) <{shift = 0 : i8}> : (tensor<1x7x11008xf32>, tensor<1x7x11008xf32>) -> tensor<1x7x11008xf32>
    %177 = "tosa.const"() <{value = dense<[1, 0]> : tensor<2xi32>}> : () -> tensor<2xi32>
    %178 = "tosa.transpose"(%arg72, %177) : (tensor<4096x11008xf32>, tensor<2xi32>) -> tensor<11008x4096xf32>
    %179 = "tosa.reshape"(%176) <{new_shape = array<i64: 7, 11008>}> : (tensor<1x7x11008xf32>) -> tensor<7x11008xf32>
    %180 = "arith.constant"() <{value = dense<0.000000e+00> : tensor<7x4096xf32>}> : () -> tensor<7x4096xf32>
    %181 = "linalg.matmul"(%179, %178, %180) <{cast = #linalg.type_fn<cast_signed>, operandSegmentSizes = array<i32: 2, 1>}> ({
    ^bb0(%arg420: f32, %arg421: f32, %arg422: f32):
      %4789 = "arith.mulf"(%arg420, %arg421) <{fastmath = #arith.fastmath<none>}> : (f32, f32) -> f32
      %4790 = "arith.addf"(%arg422, %4789) <{fastmath = #arith.fastmath<none>}> : (f32, f32) -> f32
      "linalg.yield"(%4790) : (f32) -> ()
    }) : (tensor<7x11008xf32>, tensor<11008x4096xf32>, tensor<7x4096xf32>) -> tensor<7x4096xf32>
    %182 = "tosa.reshape"(%181) <{new_shape = array<i64: 1, 7, 4096>}> : (tensor<7x4096xf32>) -> tensor<1x7x4096xf32>
    %183 = "tosa.add"(%150, %182) : (tensor<1x7x4096xf32>, tensor<1x7x4096xf32>) -> tensor<1x7x4096xf32>
    %184 = "tensor.empty"() : () -> tensor<1x7x4096xf32>
    %185 = "arith.constant"() <{value = 2 : i32}> : () -> i32
    %186 = "linalg.generic"(%183, %184) <{indexing_maps = [#map5, #map5], iterator_types = [#linalg.iterator_type<parallel>, #linalg.iterator_type<parallel>, #linalg.iterator_type<parallel>], operandSegmentSizes = array<i32: 1, 1>}> ({
    ^bb0(%arg420: f32, %arg421: f32):
      %4789 = "math.fpowi"(%arg420, %185) <{fastmath = #arith.fastmath<none>}> : (f32, i32) -> f32
      "linalg.yield"(%4789) : (f32) -> ()
    }) : (tensor<1x7x4096xf32>, tensor<1x7x4096xf32>) -> tensor<1x7x4096xf32>
    %187 = "arith.constant"() <{value = dense<0.000000e+00> : tensor<1x7x1xf32>}> : () -> tensor<1x7x1xf32>
    %188 = "linalg.generic"(%186, %187) <{indexing_maps = [#map6, #map7], iterator_types = [#linalg.iterator_type<parallel>, #linalg.iterator_type<parallel>, #linalg.iterator_type<reduction>, #linalg.iterator_type<parallel>], operandSegmentSizes = array<i32: 1, 1>}> ({
    ^bb0(%arg420: f32, %arg421: f32):
      %4789 = "arith.constant"() <{value = 4.096000e+03 : f32}> : () -> f32
      %4790 = "arith.divf"(%arg420, %4789) <{fastmath = #arith.fastmath<none>}> : (f32, f32) -> f32
      %4791 = "arith.addf"(%4790, %arg421) <{fastmath = #arith.fastmath<none>}> : (f32, f32) -> f32
      "linalg.yield"(%4791) : (f32) -> ()
    }) : (tensor<1x7x4096xf32>, tensor<1x7x1xf32>) -> tensor<1x7x1xf32>
    %189 = "tosa.const"() <{value = dense<9.99999997E-7> : tensor<1x7x1xf32>}> : () -> tensor<1x7x1xf32>
    %190 = "tosa.add"(%188, %189) : (tensor<1x7x1xf32>, tensor<1x7x1xf32>) -> tensor<1x7x1xf32>
    %191 = "tosa.rsqrt"(%190) : (tensor<1x7x1xf32>) -> tensor<1x7x1xf32>
    %192 = "tosa.mul"(%183, %191) <{shift = 0 : i8}> : (tensor<1x7x4096xf32>, tensor<1x7x1xf32>) -> tensor<1x7x4096xf32>
    %193 = "tosa.reshape"(%arg2) <{new_shape = array<i64: 1, 1, 4096>}> : (tensor<4096xf32>) -> tensor<1x1x4096xf32>
    %194 = "tosa.mul"(%193, %192) <{shift = 0 : i8}> : (tensor<1x1x4096xf32>, tensor<1x7x4096xf32>) -> tensor<1x7x4096xf32>
    %195 = "tosa.const"() <{value = dense<[1, 0]> : tensor<2xi32>}> : () -> tensor<2xi32>
    %196 = "tosa.transpose"(%arg73, %195) : (tensor<4096x4096xf32>, tensor<2xi32>) -> tensor<4096x4096xf32>
    %197 = "tosa.reshape"(%194) <{new_shape = array<i64: 7, 4096>}> : (tensor<1x7x4096xf32>) -> tensor<7x4096xf32>
    %198 = "arith.constant"() <{value = dense<0.000000e+00> : tensor<7x4096xf32>}> : () -> tensor<7x4096xf32>
    %199 = "linalg.matmul"(%197, %196, %198) <{cast = #linalg.type_fn<cast_signed>, operandSegmentSizes = array<i32: 2, 1>}> ({
    ^bb0(%arg420: f32, %arg421: f32, %arg422: f32):
      %4789 = "arith.mulf"(%arg420, %arg421) <{fastmath = #arith.fastmath<none>}> : (f32, f32) -> f32
      %4790 = "arith.addf"(%arg422, %4789) <{fastmath = #arith.fastmath<none>}> : (f32, f32) -> f32
      "linalg.yield"(%4790) : (f32) -> ()
    }) : (tensor<7x4096xf32>, tensor<4096x4096xf32>, tensor<7x4096xf32>) -> tensor<7x4096xf32>
    %200 = "tosa.reshape"(%199) <{new_shape = array<i64: 1, 7, 4096>}> : (tensor<7x4096xf32>) -> tensor<1x7x4096xf32>
    %201 = "tosa.const"() <{value = dense<[1, 0]> : tensor<2xi32>}> : () -> tensor<2xi32>
    %202 = "tosa.transpose"(%arg74, %201) : (tensor<4096x4096xf32>, tensor<2xi32>) -> tensor<4096x4096xf32>
    %203 = "tosa.reshape"(%194) <{new_shape = array<i64: 7, 4096>}> : (tensor<1x7x4096xf32>) -> tensor<7x4096xf32>
    %204 = "arith.constant"() <{value = dense<0.000000e+00> : tensor<1x4096xf32>}> : () -> tensor<1x4096xf32>
    %205 = "linalg.matmul"(%203, %202, %204) <{cast = #linalg.type_fn<cast_signed>, operandSegmentSizes = array<i32: 2, 1>}> ({
    ^bb0(%arg420: f32, %arg421: f32, %arg422: f32):
      %4789 = "arith.mulf"(%arg420, %arg421) <{fastmath = #arith.fastmath<none>}> : (f32, f32) -> f32
      %4790 = "arith.addf"(%arg422, %4789) <{fastmath = #arith.fastmath<none>}> : (f32, f32) -> f32
      "linalg.yield"(%4790) : (f32) -> ()
    }) : (tensor<7x4096xf32>, tensor<4096x4096xf32>, tensor<1x4096xf32>) -> tensor<1x4096xf32>
    %206 = "tensor.empty"() : () -> tensor<7x4096xf32>
    %207 = "tensor.insert_slice"(%205, %206) <{operandSegmentSizes = array<i32: 1, 1, 0, 0, 0>, static_offsets = array<i64: 0, 0>, static_sizes = array<i64: 1, 4096>, static_strides = array<i64: 1, 1>}> : (tensor<1x4096xf32>, tensor<7x4096xf32>) -> tensor<7x4096xf32>
    %208 = "tensor.insert_slice"(%arg356, %207) <{operandSegmentSizes = array<i32: 1, 1, 0, 0, 0>, static_offsets = array<i64: 1, 0>, static_sizes = array<i64: 7, 4096>, static_strides = array<i64: 1, 1>}> : (tensor<7x4096xf32>, tensor<7x4096xf32>) -> tensor<7x4096xf32>
    %209 = "tosa.reshape"(%208) <{new_shape = array<i64: 1, 7, 4096>}> : (tensor<7x4096xf32>) -> tensor<1x7x4096xf32>
    %210 = "tosa.const"() <{value = dense<[1, 0]> : tensor<2xi32>}> : () -> tensor<2xi32>
    %211 = "tosa.transpose"(%arg75, %210) : (tensor<4096x4096xf32>, tensor<2xi32>) -> tensor<4096x4096xf32>
    %212 = "tosa.reshape"(%194) <{new_shape = array<i64: 7, 4096>}> : (tensor<1x7x4096xf32>) -> tensor<7x4096xf32>
    %213 = "arith.constant"() <{value = dense<0.000000e+00> : tensor<1x4096xf32>}> : () -> tensor<1x4096xf32>
    %214 = "linalg.matmul"(%212, %211, %213) <{cast = #linalg.type_fn<cast_signed>, operandSegmentSizes = array<i32: 2, 1>}> ({
    ^bb0(%arg420: f32, %arg421: f32, %arg422: f32):
      %4789 = "arith.mulf"(%arg420, %arg421) <{fastmath = #arith.fastmath<none>}> : (f32, f32) -> f32
      %4790 = "arith.addf"(%arg422, %4789) <{fastmath = #arith.fastmath<none>}> : (f32, f32) -> f32
      "linalg.yield"(%4790) : (f32) -> ()
    }) : (tensor<7x4096xf32>, tensor<4096x4096xf32>, tensor<1x4096xf32>) -> tensor<1x4096xf32>
    %215 = "tensor.empty"() : () -> tensor<7x4096xf32>
    %216 = "tensor.insert_slice"(%214, %215) <{operandSegmentSizes = array<i32: 1, 1, 0, 0, 0>, static_offsets = array<i64: 0, 0>, static_sizes = array<i64: 1, 4096>, static_strides = array<i64: 1, 1>}> : (tensor<1x4096xf32>, tensor<7x4096xf32>) -> tensor<7x4096xf32>
    %217 = "tensor.insert_slice"(%arg356, %216) <{operandSegmentSizes = array<i32: 1, 1, 0, 0, 0>, static_offsets = array<i64: 1, 0>, static_sizes = array<i64: 7, 4096>, static_strides = array<i64: 1, 1>}> : (tensor<7x4096xf32>, tensor<7x4096xf32>) -> tensor<7x4096xf32>
    %218 = "tosa.reshape"(%217) <{new_shape = array<i64: 1, 7, 4096>}> : (tensor<7x4096xf32>) -> tensor<1x7x4096xf32>
    %219 = "tosa.reshape"(%200) <{new_shape = array<i64: 1, 7, 32, 128>}> : (tensor<1x7x4096xf32>) -> tensor<1x7x32x128xf32>
    %220 = "tosa.const"() <{value = dense<[0, 2, 1, 3]> : tensor<4xi32>}> : () -> tensor<4xi32>
    %221 = "tosa.transpose"(%219, %220) : (tensor<1x7x32x128xf32>, tensor<4xi32>) -> tensor<1x32x7x128xf32>
    %222 = "tosa.reshape"(%209) <{new_shape = array<i64: 1, 7, 32, 128>}> : (tensor<1x7x4096xf32>) -> tensor<1x7x32x128xf32>
    %223 = "tosa.const"() <{value = dense<[0, 2, 1, 3]> : tensor<4xi32>}> : () -> tensor<4xi32>
    %224 = "tosa.transpose"(%222, %223) : (tensor<1x7x32x128xf32>, tensor<4xi32>) -> tensor<1x32x7x128xf32>
    %225 = "tosa.reshape"(%218) <{new_shape = array<i64: 1, 7, 32, 128>}> : (tensor<1x7x4096xf32>) -> tensor<1x7x32x128xf32>
    %226 = "tosa.const"() <{value = dense<[0, 2, 1, 3]> : tensor<4xi32>}> : () -> tensor<4xi32>
    %227 = "tosa.transpose"(%225, %226) : (tensor<1x7x32x128xf32>, tensor<4xi32>) -> tensor<1x32x7x128xf32>
    %228 = "tensor.extract_slice"(%arg293) <{operandSegmentSizes = array<i32: 1, 0, 0, 0>, static_offsets = array<i64: 0, 0, 0, 0>, static_sizes = array<i64: 1, 1, 2048, 128>, static_strides = array<i64: 1, 1, 1, 1>}> : (tensor<1x1x2048x128xf32>) -> tensor<1x1x2048x128xf32>
    %229 = "tensor.extract_slice"(%228) <{operandSegmentSizes = array<i32: 1, 0, 0, 0>, static_offsets = array<i64: 0, 0, 0, 0>, static_sizes = array<i64: 1, 1, 2048, 128>, static_strides = array<i64: 1, 1, 1, 1>}> : (tensor<1x1x2048x128xf32>) -> tensor<1x1x2048x128xf32>
    %230 = "tensor.extract_slice"(%229) <{operandSegmentSizes = array<i32: 1, 0, 0, 0>, static_offsets = array<i64: 0, 0, 0, 0>, static_sizes = array<i64: 1, 1, 7, 128>, static_strides = array<i64: 1, 1, 1, 1>}> : (tensor<1x1x2048x128xf32>) -> tensor<1x1x7x128xf32>
    %231 = "tensor.extract_slice"(%arg294) <{operandSegmentSizes = array<i32: 1, 0, 0, 0>, static_offsets = array<i64: 0, 0, 0, 0>, static_sizes = array<i64: 1, 1, 2048, 128>, static_strides = array<i64: 1, 1, 1, 1>}> : (tensor<1x1x2048x128xf32>) -> tensor<1x1x2048x128xf32>
    %232 = "tensor.extract_slice"(%231) <{operandSegmentSizes = array<i32: 1, 0, 0, 0>, static_offsets = array<i64: 0, 0, 0, 0>, static_sizes = array<i64: 1, 1, 2048, 128>, static_strides = array<i64: 1, 1, 1, 1>}> : (tensor<1x1x2048x128xf32>) -> tensor<1x1x2048x128xf32>
    %233 = "tensor.extract_slice"(%232) <{operandSegmentSizes = array<i32: 1, 0, 0, 0>, static_offsets = array<i64: 0, 0, 0, 0>, static_sizes = array<i64: 1, 1, 7, 128>, static_strides = array<i64: 1, 1, 1, 1>}> : (tensor<1x1x2048x128xf32>) -> tensor<1x1x7x128xf32>
    %234 = "tensor.empty"() : () -> tensor<1x7x128xf32>
    %235 = "linalg.generic"(%230, %234) <{indexing_maps = [#map8, #map5], iterator_types = [#linalg.iterator_type<parallel>, #linalg.iterator_type<parallel>, #linalg.iterator_type<parallel>], operandSegmentSizes = array<i32: 1, 1>}> ({
    ^bb0(%arg420: f32, %arg421: f32):
      "linalg.yield"(%arg420) : (f32) -> ()
    }) : (tensor<1x1x7x128xf32>, tensor<1x7x128xf32>) -> tensor<1x7x128xf32>
    %236 = "tensor.empty"() : () -> tensor<7x128xf32>
    %237 = "linalg.generic"(%235, %236) <{indexing_maps = [#map9, #map3], iterator_types = [#linalg.iterator_type<parallel>, #linalg.iterator_type<parallel>], operandSegmentSizes = array<i32: 1, 1>}> ({
    ^bb0(%arg420: f32, %arg421: f32):
      "linalg.yield"(%arg420) : (f32) -> ()
    }) : (tensor<1x7x128xf32>, tensor<7x128xf32>) -> tensor<7x128xf32>
    %238 = "tensor.empty"() : () -> tensor<1x7x128xf32>
    %239 = "linalg.generic"(%233, %238) <{indexing_maps = [#map8, #map5], iterator_types = [#linalg.iterator_type<parallel>, #linalg.iterator_type<parallel>, #linalg.iterator_type<parallel>], operandSegmentSizes = array<i32: 1, 1>}> ({
    ^bb0(%arg420: f32, %arg421: f32):
      "linalg.yield"(%arg420) : (f32) -> ()
    }) : (tensor<1x1x7x128xf32>, tensor<1x7x128xf32>) -> tensor<1x7x128xf32>
    %240 = "tensor.empty"() : () -> tensor<7x128xf32>
    %241 = "linalg.generic"(%239, %240) <{indexing_maps = [#map9, #map3], iterator_types = [#linalg.iterator_type<parallel>, #linalg.iterator_type<parallel>], operandSegmentSizes = array<i32: 1, 1>}> ({
    ^bb0(%arg420: f32, %arg421: f32):
      "linalg.yield"(%arg420) : (f32) -> ()
    }) : (tensor<1x7x128xf32>, tensor<7x128xf32>) -> tensor<7x128xf32>
    %242 = "tensor.empty"() : () -> tensor<1x7x128xf32>
    %243 = "linalg.generic"(%2, %242) <{indexing_maps = [#map2, #map5], iterator_types = [#linalg.iterator_type<parallel>, #linalg.iterator_type<parallel>, #linalg.iterator_type<parallel>], operandSegmentSizes = array<i32: 1, 1>}> ({
    ^bb0(%arg420: i64, %arg421: f32):
      %4789 = "arith.index_cast"(%arg420) : (i64) -> index
      %4790 = "linalg.index"() <{dim = 2 : i64}> : () -> index
      %4791 = "tensor.extract"(%237, %4789, %4790) : (tensor<7x128xf32>, index, index) -> f32
      "linalg.yield"(%4791) : (f32) -> ()
    }) : (tensor<1x7xi64>, tensor<1x7x128xf32>) -> tensor<1x7x128xf32>
    %244 = "tosa.reshape"(%243) <{new_shape = array<i64: 1, 1, 7, 128>}> : (tensor<1x7x128xf32>) -> tensor<1x1x7x128xf32>
    %245 = "tensor.empty"() : () -> tensor<1x7x128xf32>
    %246 = "linalg.generic"(%2, %245) <{indexing_maps = [#map2, #map5], iterator_types = [#linalg.iterator_type<parallel>, #linalg.iterator_type<parallel>, #linalg.iterator_type<parallel>], operandSegmentSizes = array<i32: 1, 1>}> ({
    ^bb0(%arg420: i64, %arg421: f32):
      %4789 = "arith.index_cast"(%arg420) : (i64) -> index
      %4790 = "linalg.index"() <{dim = 2 : i64}> : () -> index
      %4791 = "tensor.extract"(%241, %4789, %4790) : (tensor<7x128xf32>, index, index) -> f32
      "linalg.yield"(%4791) : (f32) -> ()
    }) : (tensor<1x7xi64>, tensor<1x7x128xf32>) -> tensor<1x7x128xf32>
    %247 = "tosa.reshape"(%246) <{new_shape = array<i64: 1, 1, 7, 128>}> : (tensor<1x7x128xf32>) -> tensor<1x1x7x128xf32>
    %248 = "tosa.mul"(%221, %244) <{shift = 0 : i8}> : (tensor<1x32x7x128xf32>, tensor<1x1x7x128xf32>) -> tensor<1x32x7x128xf32>
    %249 = "tensor.extract_slice"(%221) <{operandSegmentSizes = array<i32: 1, 0, 0, 0>, static_offsets = array<i64: 0, 0, 0, 0>, static_sizes = array<i64: 1, 32, 7, 64>, static_strides = array<i64: 1, 1, 1, 1>}> : (tensor<1x32x7x128xf32>) -> tensor<1x32x7x64xf32>
    %250 = "tensor.extract_slice"(%221) <{operandSegmentSizes = array<i32: 1, 0, 0, 0>, static_offsets = array<i64: 0, 0, 0, 64>, static_sizes = array<i64: 1, 32, 7, 64>, static_strides = array<i64: 1, 1, 1, 1>}> : (tensor<1x32x7x128xf32>) -> tensor<1x32x7x64xf32>
    %251 = "tensor.empty"() : () -> tensor<1x32x7x64xf32>
    %252 = "linalg.negf"(%250, %251) <{operandSegmentSizes = array<i32: 1, 1>}> ({
    ^bb0(%arg420: f32, %arg421: f32):
      %4789 = "arith.negf"(%arg420) <{fastmath = #arith.fastmath<none>}> : (f32) -> f32
      "linalg.yield"(%4789) : (f32) -> ()
    }) : (tensor<1x32x7x64xf32>, tensor<1x32x7x64xf32>) -> tensor<1x32x7x64xf32>
    %253 = "tensor.empty"() : () -> tensor<1x32x7x128xf32>
    %254 = "tensor.insert_slice"(%252, %253) <{operandSegmentSizes = array<i32: 1, 1, 0, 0, 0>, static_offsets = array<i64: 0, 0, 0, 0>, static_sizes = array<i64: 1, 32, 7, 64>, static_strides = array<i64: 1, 1, 1, 1>}> : (tensor<1x32x7x64xf32>, tensor<1x32x7x128xf32>) -> tensor<1x32x7x128xf32>
    %255 = "tensor.insert_slice"(%249, %254) <{operandSegmentSizes = array<i32: 1, 1, 0, 0, 0>, static_offsets = array<i64: 0, 0, 0, 64>, static_sizes = array<i64: 1, 32, 7, 64>, static_strides = array<i64: 1, 1, 1, 1>}> : (tensor<1x32x7x64xf32>, tensor<1x32x7x128xf32>) -> tensor<1x32x7x128xf32>
    %256 = "tosa.mul"(%255, %247) <{shift = 0 : i8}> : (tensor<1x32x7x128xf32>, tensor<1x1x7x128xf32>) -> tensor<1x32x7x128xf32>
    %257 = "tosa.add"(%248, %256) : (tensor<1x32x7x128xf32>, tensor<1x32x7x128xf32>) -> tensor<1x32x7x128xf32>
    %258 = "tosa.mul"(%224, %244) <{shift = 0 : i8}> : (tensor<1x32x7x128xf32>, tensor<1x1x7x128xf32>) -> tensor<1x32x7x128xf32>
    %259 = "tensor.extract_slice"(%224) <{operandSegmentSizes = array<i32: 1, 0, 0, 0>, static_offsets = array<i64: 0, 0, 0, 0>, static_sizes = array<i64: 1, 32, 7, 64>, static_strides = array<i64: 1, 1, 1, 1>}> : (tensor<1x32x7x128xf32>) -> tensor<1x32x7x64xf32>
    %260 = "tensor.extract_slice"(%224) <{operandSegmentSizes = array<i32: 1, 0, 0, 0>, static_offsets = array<i64: 0, 0, 0, 64>, static_sizes = array<i64: 1, 32, 7, 64>, static_strides = array<i64: 1, 1, 1, 1>}> : (tensor<1x32x7x128xf32>) -> tensor<1x32x7x64xf32>
    %261 = "tensor.empty"() : () -> tensor<1x32x7x64xf32>
    %262 = "linalg.negf"(%260, %261) <{operandSegmentSizes = array<i32: 1, 1>}> ({
    ^bb0(%arg420: f32, %arg421: f32):
      %4789 = "arith.negf"(%arg420) <{fastmath = #arith.fastmath<none>}> : (f32) -> f32
      "linalg.yield"(%4789) : (f32) -> ()
    }) : (tensor<1x32x7x64xf32>, tensor<1x32x7x64xf32>) -> tensor<1x32x7x64xf32>
    %263 = "tensor.empty"() : () -> tensor<1x32x7x128xf32>
    %264 = "tensor.insert_slice"(%262, %263) <{operandSegmentSizes = array<i32: 1, 1, 0, 0, 0>, static_offsets = array<i64: 0, 0, 0, 0>, static_sizes = array<i64: 1, 32, 7, 64>, static_strides = array<i64: 1, 1, 1, 1>}> : (tensor<1x32x7x64xf32>, tensor<1x32x7x128xf32>) -> tensor<1x32x7x128xf32>
    %265 = "tensor.insert_slice"(%259, %264) <{operandSegmentSizes = array<i32: 1, 1, 0, 0, 0>, static_offsets = array<i64: 0, 0, 0, 64>, static_sizes = array<i64: 1, 32, 7, 64>, static_strides = array<i64: 1, 1, 1, 1>}> : (tensor<1x32x7x64xf32>, tensor<1x32x7x128xf32>) -> tensor<1x32x7x128xf32>
    %266 = "tosa.mul"(%265, %247) <{shift = 0 : i8}> : (tensor<1x32x7x128xf32>, tensor<1x1x7x128xf32>) -> tensor<1x32x7x128xf32>
    %267 = "tosa.add"(%258, %266) : (tensor<1x32x7x128xf32>, tensor<1x32x7x128xf32>) -> tensor<1x32x7x128xf32>
    %268 = "tosa.const"() <{value = dense<[0, 1, 3, 2]> : tensor<4xi32>}> : () -> tensor<4xi32>
    %269 = "tosa.transpose"(%267, %268) : (tensor<1x32x7x128xf32>, tensor<4xi32>) -> tensor<1x32x128x7xf32>
    %270 = "tosa.reshape"(%257) <{new_shape = array<i64: 32, 7, 128>}> : (tensor<1x32x7x128xf32>) -> tensor<32x7x128xf32>
    %271 = "tosa.reshape"(%269) <{new_shape = array<i64: 32, 128, 7>}> : (tensor<1x32x128x7xf32>) -> tensor<32x128x7xf32>
    %272 = "tosa.matmul"(%270, %271) : (tensor<32x7x128xf32>, tensor<32x128x7xf32>) -> tensor<32x7x7xf32>
    %273 = "tosa.reshape"(%272) <{new_shape = array<i64: 1, 32, 7, 7>}> : (tensor<32x7x7xf32>) -> tensor<1x32x7x7xf32>
    %274 = "tosa.const"() <{value = dense<11.3137083> : tensor<1x32x7x7xf32>}> : () -> tensor<1x32x7x7xf32>
    %275 = "tosa.reciprocal"(%274) : (tensor<1x32x7x7xf32>) -> tensor<1x32x7x7xf32>
    %276 = "tosa.mul"(%273, %275) <{shift = 0 : i8}> : (tensor<1x32x7x7xf32>, tensor<1x32x7x7xf32>) -> tensor<1x32x7x7xf32>
    %277 = "tosa.add"(%276, %35) : (tensor<1x32x7x7xf32>, tensor<1x1x7x7xf32>) -> tensor<1x32x7x7xf32>
    %278 = "tosa.reduce_max"(%277) <{axis = 3 : i32}> : (tensor<1x32x7x7xf32>) -> tensor<1x32x7x1xf32>
    %279 = "tosa.sub"(%277, %278) : (tensor<1x32x7x7xf32>, tensor<1x32x7x1xf32>) -> tensor<1x32x7x7xf32>
    %280 = "tosa.exp"(%279) : (tensor<1x32x7x7xf32>) -> tensor<1x32x7x7xf32>
    %281 = "tosa.reduce_sum"(%280) <{axis = 3 : i32}> : (tensor<1x32x7x7xf32>) -> tensor<1x32x7x1xf32>
    %282 = "tosa.reciprocal"(%281) : (tensor<1x32x7x1xf32>) -> tensor<1x32x7x1xf32>
    %283 = "tosa.mul"(%280, %282) <{shift = 0 : i8}> : (tensor<1x32x7x7xf32>, tensor<1x32x7x1xf32>) -> tensor<1x32x7x7xf32>
    %284 = "tosa.reshape"(%283) <{new_shape = array<i64: 32, 7, 7>}> : (tensor<1x32x7x7xf32>) -> tensor<32x7x7xf32>
    %285 = "tosa.reshape"(%227) <{new_shape = array<i64: 32, 7, 128>}> : (tensor<1x32x7x128xf32>) -> tensor<32x7x128xf32>
    %286 = "tosa.matmul"(%284, %285) : (tensor<32x7x7xf32>, tensor<32x7x128xf32>) -> tensor<32x7x128xf32>
    %287 = "tosa.reshape"(%286) <{new_shape = array<i64: 1, 32, 7, 128>}> : (tensor<32x7x128xf32>) -> tensor<1x32x7x128xf32>
    %288 = "tosa.const"() <{value = dense<[0, 2, 1, 3]> : tensor<4xi32>}> : () -> tensor<4xi32>
    %289 = "tosa.transpose"(%287, %288) : (tensor<1x32x7x128xf32>, tensor<4xi32>) -> tensor<1x7x32x128xf32>
    %290 = "tosa.identity"(%289) : (tensor<1x7x32x128xf32>) -> tensor<1x7x32x128xf32>
    %291 = "tosa.reshape"(%290) <{new_shape = array<i64: 1, 7, 4096>}> : (tensor<1x7x32x128xf32>) -> tensor<1x7x4096xf32>
    %292 = "tosa.const"() <{value = dense<[1, 0]> : tensor<2xi32>}> : () -> tensor<2xi32>
    %293 = "tosa.transpose"(%arg76, %292) : (tensor<4096x4096xf32>, tensor<2xi32>) -> tensor<4096x4096xf32>
    %294 = "tosa.reshape"(%291) <{new_shape = array<i64: 7, 4096>}> : (tensor<1x7x4096xf32>) -> tensor<7x4096xf32>
    %295 = "arith.constant"() <{value = dense<0.000000e+00> : tensor<7x4096xf32>}> : () -> tensor<7x4096xf32>
    %296 = "linalg.matmul"(%294, %293, %295) <{cast = #linalg.type_fn<cast_signed>, operandSegmentSizes = array<i32: 2, 1>}> ({
    ^bb0(%arg420: f32, %arg421: f32, %arg422: f32):
      %4789 = "arith.mulf"(%arg420, %arg421) <{fastmath = #arith.fastmath<none>}> : (f32, f32) -> f32
      %4790 = "arith.addf"(%arg422, %4789) <{fastmath = #arith.fastmath<none>}> : (f32, f32) -> f32
      "linalg.yield"(%4790) : (f32) -> ()
    }) : (tensor<7x4096xf32>, tensor<4096x4096xf32>, tensor<7x4096xf32>) -> tensor<7x4096xf32>
    %297 = "tosa.reshape"(%296) <{new_shape = array<i64: 1, 7, 4096>}> : (tensor<7x4096xf32>) -> tensor<1x7x4096xf32>
    %298 = "tosa.add"(%183, %297) : (tensor<1x7x4096xf32>, tensor<1x7x4096xf32>) -> tensor<1x7x4096xf32>
    %299 = "tensor.empty"() : () -> tensor<1x7x4096xf32>
    %300 = "arith.constant"() <{value = 2 : i32}> : () -> i32
    %301 = "linalg.generic"(%298, %299) <{indexing_maps = [#map5, #map5], iterator_types = [#linalg.iterator_type<parallel>, #linalg.iterator_type<parallel>, #linalg.iterator_type<parallel>], operandSegmentSizes = array<i32: 1, 1>}> ({
    ^bb0(%arg420: f32, %arg421: f32):
      %4789 = "math.fpowi"(%arg420, %300) <{fastmath = #arith.fastmath<none>}> : (f32, i32) -> f32
      "linalg.yield"(%4789) : (f32) -> ()
    }) : (tensor<1x7x4096xf32>, tensor<1x7x4096xf32>) -> tensor<1x7x4096xf32>
    %302 = "arith.constant"() <{value = dense<0.000000e+00> : tensor<1x7x1xf32>}> : () -> tensor<1x7x1xf32>
    %303 = "linalg.generic"(%301, %302) <{indexing_maps = [#map6, #map7], iterator_types = [#linalg.iterator_type<parallel>, #linalg.iterator_type<parallel>, #linalg.iterator_type<reduction>, #linalg.iterator_type<parallel>], operandSegmentSizes = array<i32: 1, 1>}> ({
    ^bb0(%arg420: f32, %arg421: f32):
      %4789 = "arith.constant"() <{value = 4.096000e+03 : f32}> : () -> f32
      %4790 = "arith.divf"(%arg420, %4789) <{fastmath = #arith.fastmath<none>}> : (f32, f32) -> f32
      %4791 = "arith.addf"(%4790, %arg421) <{fastmath = #arith.fastmath<none>}> : (f32, f32) -> f32
      "linalg.yield"(%4791) : (f32) -> ()
    }) : (tensor<1x7x4096xf32>, tensor<1x7x1xf32>) -> tensor<1x7x1xf32>
    %304 = "tosa.const"() <{value = dense<9.99999997E-7> : tensor<1x7x1xf32>}> : () -> tensor<1x7x1xf32>
    %305 = "tosa.add"(%303, %304) : (tensor<1x7x1xf32>, tensor<1x7x1xf32>) -> tensor<1x7x1xf32>
    %306 = "tosa.rsqrt"(%305) : (tensor<1x7x1xf32>) -> tensor<1x7x1xf32>
    %307 = "tosa.mul"(%298, %306) <{shift = 0 : i8}> : (tensor<1x7x4096xf32>, tensor<1x7x1xf32>) -> tensor<1x7x4096xf32>
    %308 = "tosa.reshape"(%arg3) <{new_shape = array<i64: 1, 1, 4096>}> : (tensor<4096xf32>) -> tensor<1x1x4096xf32>
    %309 = "tosa.mul"(%308, %307) <{shift = 0 : i8}> : (tensor<1x1x4096xf32>, tensor<1x7x4096xf32>) -> tensor<1x7x4096xf32>
    %310 = "tosa.const"() <{value = dense<[1, 0]> : tensor<2xi32>}> : () -> tensor<2xi32>
    %311 = "tosa.transpose"(%arg77, %310) : (tensor<11008x4096xf32>, tensor<2xi32>) -> tensor<4096x11008xf32>
    %312 = "tosa.reshape"(%309) <{new_shape = array<i64: 7, 4096>}> : (tensor<1x7x4096xf32>) -> tensor<7x4096xf32>
    %313 = "arith.constant"() <{value = dense<0.000000e+00> : tensor<7x11008xf32>}> : () -> tensor<7x11008xf32>
    %314 = "linalg.matmul"(%312, %311, %313) <{cast = #linalg.type_fn<cast_signed>, operandSegmentSizes = array<i32: 2, 1>}> ({
    ^bb0(%arg420: f32, %arg421: f32, %arg422: f32):
      %4789 = "arith.mulf"(%arg420, %arg421) <{fastmath = #arith.fastmath<none>}> : (f32, f32) -> f32
      %4790 = "arith.addf"(%arg422, %4789) <{fastmath = #arith.fastmath<none>}> : (f32, f32) -> f32
      "linalg.yield"(%4790) : (f32) -> ()
    }) : (tensor<7x4096xf32>, tensor<4096x11008xf32>, tensor<7x11008xf32>) -> tensor<7x11008xf32>
    %315 = "tosa.reshape"(%314) <{new_shape = array<i64: 1, 7, 11008>}> : (tensor<7x11008xf32>) -> tensor<1x7x11008xf32>
    %316 = "tosa.sigmoid"(%315) : (tensor<1x7x11008xf32>) -> tensor<1x7x11008xf32>
    %317 = "tosa.mul"(%315, %316) <{shift = 0 : i8}> : (tensor<1x7x11008xf32>, tensor<1x7x11008xf32>) -> tensor<1x7x11008xf32>
    %318 = "tosa.const"() <{value = dense<[1, 0]> : tensor<2xi32>}> : () -> tensor<2xi32>
    %319 = "tosa.transpose"(%arg78, %318) : (tensor<11008x4096xf32>, tensor<2xi32>) -> tensor<4096x11008xf32>
    %320 = "tosa.reshape"(%309) <{new_shape = array<i64: 7, 4096>}> : (tensor<1x7x4096xf32>) -> tensor<7x4096xf32>
    %321 = "arith.constant"() <{value = dense<0.000000e+00> : tensor<7x11008xf32>}> : () -> tensor<7x11008xf32>
    %322 = "linalg.matmul"(%320, %319, %321) <{cast = #linalg.type_fn<cast_signed>, operandSegmentSizes = array<i32: 2, 1>}> ({
    ^bb0(%arg420: f32, %arg421: f32, %arg422: f32):
      %4789 = "arith.mulf"(%arg420, %arg421) <{fastmath = #arith.fastmath<none>}> : (f32, f32) -> f32
      %4790 = "arith.addf"(%arg422, %4789) <{fastmath = #arith.fastmath<none>}> : (f32, f32) -> f32
      "linalg.yield"(%4790) : (f32) -> ()
    }) : (tensor<7x4096xf32>, tensor<4096x11008xf32>, tensor<7x11008xf32>) -> tensor<7x11008xf32>
    %323 = "tosa.reshape"(%322) <{new_shape = array<i64: 1, 7, 11008>}> : (tensor<7x11008xf32>) -> tensor<1x7x11008xf32>
    %324 = "tosa.mul"(%317, %323) <{shift = 0 : i8}> : (tensor<1x7x11008xf32>, tensor<1x7x11008xf32>) -> tensor<1x7x11008xf32>
    %325 = "tosa.const"() <{value = dense<[1, 0]> : tensor<2xi32>}> : () -> tensor<2xi32>
    %326 = "tosa.transpose"(%arg79, %325) : (tensor<4096x11008xf32>, tensor<2xi32>) -> tensor<11008x4096xf32>
    %327 = "tosa.reshape"(%324) <{new_shape = array<i64: 7, 11008>}> : (tensor<1x7x11008xf32>) -> tensor<7x11008xf32>
    %328 = "arith.constant"() <{value = dense<0.000000e+00> : tensor<7x4096xf32>}> : () -> tensor<7x4096xf32>
    %329 = "linalg.matmul"(%327, %326, %328) <{cast = #linalg.type_fn<cast_signed>, operandSegmentSizes = array<i32: 2, 1>}> ({
    ^bb0(%arg420: f32, %arg421: f32, %arg422: f32):
      %4789 = "arith.mulf"(%arg420, %arg421) <{fastmath = #arith.fastmath<none>}> : (f32, f32) -> f32
      %4790 = "arith.addf"(%arg422, %4789) <{fastmath = #arith.fastmath<none>}> : (f32, f32) -> f32
      "linalg.yield"(%4790) : (f32) -> ()
    }) : (tensor<7x11008xf32>, tensor<11008x4096xf32>, tensor<7x4096xf32>) -> tensor<7x4096xf32>
    %330 = "tosa.reshape"(%329) <{new_shape = array<i64: 1, 7, 4096>}> : (tensor<7x4096xf32>) -> tensor<1x7x4096xf32>
    %331 = "tosa.add"(%298, %330) : (tensor<1x7x4096xf32>, tensor<1x7x4096xf32>) -> tensor<1x7x4096xf32>
    %332 = "tensor.empty"() : () -> tensor<1x7x4096xf32>
    %333 = "arith.constant"() <{value = 2 : i32}> : () -> i32
    %334 = "linalg.generic"(%331, %332) <{indexing_maps = [#map5, #map5], iterator_types = [#linalg.iterator_type<parallel>, #linalg.iterator_type<parallel>, #linalg.iterator_type<parallel>], operandSegmentSizes = array<i32: 1, 1>}> ({
    ^bb0(%arg420: f32, %arg421: f32):
      %4789 = "math.fpowi"(%arg420, %333) <{fastmath = #arith.fastmath<none>}> : (f32, i32) -> f32
      "linalg.yield"(%4789) : (f32) -> ()
    }) : (tensor<1x7x4096xf32>, tensor<1x7x4096xf32>) -> tensor<1x7x4096xf32>
    %335 = "arith.constant"() <{value = dense<0.000000e+00> : tensor<1x7x1xf32>}> : () -> tensor<1x7x1xf32>
    %336 = "linalg.generic"(%334, %335) <{indexing_maps = [#map6, #map7], iterator_types = [#linalg.iterator_type<parallel>, #linalg.iterator_type<parallel>, #linalg.iterator_type<reduction>, #linalg.iterator_type<parallel>], operandSegmentSizes = array<i32: 1, 1>}> ({
    ^bb0(%arg420: f32, %arg421: f32):
      %4789 = "arith.constant"() <{value = 4.096000e+03 : f32}> : () -> f32
      %4790 = "arith.divf"(%arg420, %4789) <{fastmath = #arith.fastmath<none>}> : (f32, f32) -> f32
      %4791 = "arith.addf"(%4790, %arg421) <{fastmath = #arith.fastmath<none>}> : (f32, f32) -> f32
      "linalg.yield"(%4791) : (f32) -> ()
    }) : (tensor<1x7x4096xf32>, tensor<1x7x1xf32>) -> tensor<1x7x1xf32>
    %337 = "tosa.const"() <{value = dense<9.99999997E-7> : tensor<1x7x1xf32>}> : () -> tensor<1x7x1xf32>
    %338 = "tosa.add"(%336, %337) : (tensor<1x7x1xf32>, tensor<1x7x1xf32>) -> tensor<1x7x1xf32>
    %339 = "tosa.rsqrt"(%338) : (tensor<1x7x1xf32>) -> tensor<1x7x1xf32>
    %340 = "tosa.mul"(%331, %339) <{shift = 0 : i8}> : (tensor<1x7x4096xf32>, tensor<1x7x1xf32>) -> tensor<1x7x4096xf32>
    %341 = "tosa.reshape"(%arg4) <{new_shape = array<i64: 1, 1, 4096>}> : (tensor<4096xf32>) -> tensor<1x1x4096xf32>
    %342 = "tosa.mul"(%341, %340) <{shift = 0 : i8}> : (tensor<1x1x4096xf32>, tensor<1x7x4096xf32>) -> tensor<1x7x4096xf32>
    %343 = "tosa.const"() <{value = dense<[1, 0]> : tensor<2xi32>}> : () -> tensor<2xi32>
    %344 = "tosa.transpose"(%arg80, %343) : (tensor<4096x4096xf32>, tensor<2xi32>) -> tensor<4096x4096xf32>
    %345 = "tosa.reshape"(%342) <{new_shape = array<i64: 7, 4096>}> : (tensor<1x7x4096xf32>) -> tensor<7x4096xf32>
    %346 = "arith.constant"() <{value = dense<0.000000e+00> : tensor<7x4096xf32>}> : () -> tensor<7x4096xf32>
    %347 = "linalg.matmul"(%345, %344, %346) <{cast = #linalg.type_fn<cast_signed>, operandSegmentSizes = array<i32: 2, 1>}> ({
    ^bb0(%arg420: f32, %arg421: f32, %arg422: f32):
      %4789 = "arith.mulf"(%arg420, %arg421) <{fastmath = #arith.fastmath<none>}> : (f32, f32) -> f32
      %4790 = "arith.addf"(%arg422, %4789) <{fastmath = #arith.fastmath<none>}> : (f32, f32) -> f32
      "linalg.yield"(%4790) : (f32) -> ()
    }) : (tensor<7x4096xf32>, tensor<4096x4096xf32>, tensor<7x4096xf32>) -> tensor<7x4096xf32>
    %348 = "tosa.reshape"(%347) <{new_shape = array<i64: 1, 7, 4096>}> : (tensor<7x4096xf32>) -> tensor<1x7x4096xf32>
    %349 = "tosa.const"() <{value = dense<[1, 0]> : tensor<2xi32>}> : () -> tensor<2xi32>
    %350 = "tosa.transpose"(%arg81, %349) : (tensor<4096x4096xf32>, tensor<2xi32>) -> tensor<4096x4096xf32>
    %351 = "tosa.reshape"(%342) <{new_shape = array<i64: 7, 4096>}> : (tensor<1x7x4096xf32>) -> tensor<7x4096xf32>
    %352 = "arith.constant"() <{value = dense<0.000000e+00> : tensor<1x4096xf32>}> : () -> tensor<1x4096xf32>
    %353 = "linalg.matmul"(%351, %350, %352) <{cast = #linalg.type_fn<cast_signed>, operandSegmentSizes = array<i32: 2, 1>}> ({
    ^bb0(%arg420: f32, %arg421: f32, %arg422: f32):
      %4789 = "arith.mulf"(%arg420, %arg421) <{fastmath = #arith.fastmath<none>}> : (f32, f32) -> f32
      %4790 = "arith.addf"(%arg422, %4789) <{fastmath = #arith.fastmath<none>}> : (f32, f32) -> f32
      "linalg.yield"(%4790) : (f32) -> ()
    }) : (tensor<7x4096xf32>, tensor<4096x4096xf32>, tensor<1x4096xf32>) -> tensor<1x4096xf32>
    %354 = "tensor.empty"() : () -> tensor<7x4096xf32>
    %355 = "tensor.insert_slice"(%353, %354) <{operandSegmentSizes = array<i32: 1, 1, 0, 0, 0>, static_offsets = array<i64: 0, 0>, static_sizes = array<i64: 1, 4096>, static_strides = array<i64: 1, 1>}> : (tensor<1x4096xf32>, tensor<7x4096xf32>) -> tensor<7x4096xf32>
    %356 = "tensor.insert_slice"(%arg356, %355) <{operandSegmentSizes = array<i32: 1, 1, 0, 0, 0>, static_offsets = array<i64: 1, 0>, static_sizes = array<i64: 7, 4096>, static_strides = array<i64: 1, 1>}> : (tensor<7x4096xf32>, tensor<7x4096xf32>) -> tensor<7x4096xf32>
    %357 = "tosa.reshape"(%356) <{new_shape = array<i64: 1, 7, 4096>}> : (tensor<7x4096xf32>) -> tensor<1x7x4096xf32>
    %358 = "tosa.const"() <{value = dense<[1, 0]> : tensor<2xi32>}> : () -> tensor<2xi32>
    %359 = "tosa.transpose"(%arg82, %358) : (tensor<4096x4096xf32>, tensor<2xi32>) -> tensor<4096x4096xf32>
    %360 = "tosa.reshape"(%342) <{new_shape = array<i64: 7, 4096>}> : (tensor<1x7x4096xf32>) -> tensor<7x4096xf32>
    %361 = "arith.constant"() <{value = dense<0.000000e+00> : tensor<1x4096xf32>}> : () -> tensor<1x4096xf32>
    %362 = "linalg.matmul"(%360, %359, %361) <{cast = #linalg.type_fn<cast_signed>, operandSegmentSizes = array<i32: 2, 1>}> ({
    ^bb0(%arg420: f32, %arg421: f32, %arg422: f32):
      %4789 = "arith.mulf"(%arg420, %arg421) <{fastmath = #arith.fastmath<none>}> : (f32, f32) -> f32
      %4790 = "arith.addf"(%arg422, %4789) <{fastmath = #arith.fastmath<none>}> : (f32, f32) -> f32
      "linalg.yield"(%4790) : (f32) -> ()
    }) : (tensor<7x4096xf32>, tensor<4096x4096xf32>, tensor<1x4096xf32>) -> tensor<1x4096xf32>
    %363 = "tensor.empty"() : () -> tensor<7x4096xf32>
    %364 = "tensor.insert_slice"(%362, %363) <{operandSegmentSizes = array<i32: 1, 1, 0, 0, 0>, static_offsets = array<i64: 0, 0>, static_sizes = array<i64: 1, 4096>, static_strides = array<i64: 1, 1>}> : (tensor<1x4096xf32>, tensor<7x4096xf32>) -> tensor<7x4096xf32>
    %365 = "tensor.insert_slice"(%arg356, %364) <{operandSegmentSizes = array<i32: 1, 1, 0, 0, 0>, static_offsets = array<i64: 1, 0>, static_sizes = array<i64: 7, 4096>, static_strides = array<i64: 1, 1>}> : (tensor<7x4096xf32>, tensor<7x4096xf32>) -> tensor<7x4096xf32>
    %366 = "tosa.reshape"(%365) <{new_shape = array<i64: 1, 7, 4096>}> : (tensor<7x4096xf32>) -> tensor<1x7x4096xf32>
    %367 = "tosa.reshape"(%348) <{new_shape = array<i64: 1, 7, 32, 128>}> : (tensor<1x7x4096xf32>) -> tensor<1x7x32x128xf32>
    %368 = "tosa.const"() <{value = dense<[0, 2, 1, 3]> : tensor<4xi32>}> : () -> tensor<4xi32>
    %369 = "tosa.transpose"(%367, %368) : (tensor<1x7x32x128xf32>, tensor<4xi32>) -> tensor<1x32x7x128xf32>
    %370 = "tosa.reshape"(%357) <{new_shape = array<i64: 1, 7, 32, 128>}> : (tensor<1x7x4096xf32>) -> tensor<1x7x32x128xf32>
    %371 = "tosa.const"() <{value = dense<[0, 2, 1, 3]> : tensor<4xi32>}> : () -> tensor<4xi32>
    %372 = "tosa.transpose"(%370, %371) : (tensor<1x7x32x128xf32>, tensor<4xi32>) -> tensor<1x32x7x128xf32>
    %373 = "tosa.reshape"(%366) <{new_shape = array<i64: 1, 7, 32, 128>}> : (tensor<1x7x4096xf32>) -> tensor<1x7x32x128xf32>
    %374 = "tosa.const"() <{value = dense<[0, 2, 1, 3]> : tensor<4xi32>}> : () -> tensor<4xi32>
    %375 = "tosa.transpose"(%373, %374) : (tensor<1x7x32x128xf32>, tensor<4xi32>) -> tensor<1x32x7x128xf32>
    %376 = "tensor.extract_slice"(%arg295) <{operandSegmentSizes = array<i32: 1, 0, 0, 0>, static_offsets = array<i64: 0, 0, 0, 0>, static_sizes = array<i64: 1, 1, 2048, 128>, static_strides = array<i64: 1, 1, 1, 1>}> : (tensor<1x1x2048x128xf32>) -> tensor<1x1x2048x128xf32>
    %377 = "tensor.extract_slice"(%376) <{operandSegmentSizes = array<i32: 1, 0, 0, 0>, static_offsets = array<i64: 0, 0, 0, 0>, static_sizes = array<i64: 1, 1, 2048, 128>, static_strides = array<i64: 1, 1, 1, 1>}> : (tensor<1x1x2048x128xf32>) -> tensor<1x1x2048x128xf32>
    %378 = "tensor.extract_slice"(%377) <{operandSegmentSizes = array<i32: 1, 0, 0, 0>, static_offsets = array<i64: 0, 0, 0, 0>, static_sizes = array<i64: 1, 1, 7, 128>, static_strides = array<i64: 1, 1, 1, 1>}> : (tensor<1x1x2048x128xf32>) -> tensor<1x1x7x128xf32>
    %379 = "tensor.extract_slice"(%arg296) <{operandSegmentSizes = array<i32: 1, 0, 0, 0>, static_offsets = array<i64: 0, 0, 0, 0>, static_sizes = array<i64: 1, 1, 2048, 128>, static_strides = array<i64: 1, 1, 1, 1>}> : (tensor<1x1x2048x128xf32>) -> tensor<1x1x2048x128xf32>
    %380 = "tensor.extract_slice"(%379) <{operandSegmentSizes = array<i32: 1, 0, 0, 0>, static_offsets = array<i64: 0, 0, 0, 0>, static_sizes = array<i64: 1, 1, 2048, 128>, static_strides = array<i64: 1, 1, 1, 1>}> : (tensor<1x1x2048x128xf32>) -> tensor<1x1x2048x128xf32>
    %381 = "tensor.extract_slice"(%380) <{operandSegmentSizes = array<i32: 1, 0, 0, 0>, static_offsets = array<i64: 0, 0, 0, 0>, static_sizes = array<i64: 1, 1, 7, 128>, static_strides = array<i64: 1, 1, 1, 1>}> : (tensor<1x1x2048x128xf32>) -> tensor<1x1x7x128xf32>
    %382 = "tensor.empty"() : () -> tensor<1x7x128xf32>
    %383 = "linalg.generic"(%378, %382) <{indexing_maps = [#map8, #map5], iterator_types = [#linalg.iterator_type<parallel>, #linalg.iterator_type<parallel>, #linalg.iterator_type<parallel>], operandSegmentSizes = array<i32: 1, 1>}> ({
    ^bb0(%arg420: f32, %arg421: f32):
      "linalg.yield"(%arg420) : (f32) -> ()
    }) : (tensor<1x1x7x128xf32>, tensor<1x7x128xf32>) -> tensor<1x7x128xf32>
    %384 = "tensor.empty"() : () -> tensor<7x128xf32>
    %385 = "linalg.generic"(%383, %384) <{indexing_maps = [#map9, #map3], iterator_types = [#linalg.iterator_type<parallel>, #linalg.iterator_type<parallel>], operandSegmentSizes = array<i32: 1, 1>}> ({
    ^bb0(%arg420: f32, %arg421: f32):
      "linalg.yield"(%arg420) : (f32) -> ()
    }) : (tensor<1x7x128xf32>, tensor<7x128xf32>) -> tensor<7x128xf32>
    %386 = "tensor.empty"() : () -> tensor<1x7x128xf32>
    %387 = "linalg.generic"(%381, %386) <{indexing_maps = [#map8, #map5], iterator_types = [#linalg.iterator_type<parallel>, #linalg.iterator_type<parallel>, #linalg.iterator_type<parallel>], operandSegmentSizes = array<i32: 1, 1>}> ({
    ^bb0(%arg420: f32, %arg421: f32):
      "linalg.yield"(%arg420) : (f32) -> ()
    }) : (tensor<1x1x7x128xf32>, tensor<1x7x128xf32>) -> tensor<1x7x128xf32>
    %388 = "tensor.empty"() : () -> tensor<7x128xf32>
    %389 = "linalg.generic"(%387, %388) <{indexing_maps = [#map9, #map3], iterator_types = [#linalg.iterator_type<parallel>, #linalg.iterator_type<parallel>], operandSegmentSizes = array<i32: 1, 1>}> ({
    ^bb0(%arg420: f32, %arg421: f32):
      "linalg.yield"(%arg420) : (f32) -> ()
    }) : (tensor<1x7x128xf32>, tensor<7x128xf32>) -> tensor<7x128xf32>
    %390 = "tensor.empty"() : () -> tensor<1x7x128xf32>
    %391 = "linalg.generic"(%2, %390) <{indexing_maps = [#map2, #map5], iterator_types = [#linalg.iterator_type<parallel>, #linalg.iterator_type<parallel>, #linalg.iterator_type<parallel>], operandSegmentSizes = array<i32: 1, 1>}> ({
    ^bb0(%arg420: i64, %arg421: f32):
      %4789 = "arith.index_cast"(%arg420) : (i64) -> index
      %4790 = "linalg.index"() <{dim = 2 : i64}> : () -> index
      %4791 = "tensor.extract"(%385, %4789, %4790) : (tensor<7x128xf32>, index, index) -> f32
      "linalg.yield"(%4791) : (f32) -> ()
    }) : (tensor<1x7xi64>, tensor<1x7x128xf32>) -> tensor<1x7x128xf32>
    %392 = "tosa.reshape"(%391) <{new_shape = array<i64: 1, 1, 7, 128>}> : (tensor<1x7x128xf32>) -> tensor<1x1x7x128xf32>
    %393 = "tensor.empty"() : () -> tensor<1x7x128xf32>
    %394 = "linalg.generic"(%2, %393) <{indexing_maps = [#map2, #map5], iterator_types = [#linalg.iterator_type<parallel>, #linalg.iterator_type<parallel>, #linalg.iterator_type<parallel>], operandSegmentSizes = array<i32: 1, 1>}> ({
    ^bb0(%arg420: i64, %arg421: f32):
      %4789 = "arith.index_cast"(%arg420) : (i64) -> index
      %4790 = "linalg.index"() <{dim = 2 : i64}> : () -> index
      %4791 = "tensor.extract"(%389, %4789, %4790) : (tensor<7x128xf32>, index, index) -> f32
      "linalg.yield"(%4791) : (f32) -> ()
    }) : (tensor<1x7xi64>, tensor<1x7x128xf32>) -> tensor<1x7x128xf32>
    %395 = "tosa.reshape"(%394) <{new_shape = array<i64: 1, 1, 7, 128>}> : (tensor<1x7x128xf32>) -> tensor<1x1x7x128xf32>
    %396 = "tosa.mul"(%369, %392) <{shift = 0 : i8}> : (tensor<1x32x7x128xf32>, tensor<1x1x7x128xf32>) -> tensor<1x32x7x128xf32>
    %397 = "tensor.extract_slice"(%369) <{operandSegmentSizes = array<i32: 1, 0, 0, 0>, static_offsets = array<i64: 0, 0, 0, 0>, static_sizes = array<i64: 1, 32, 7, 64>, static_strides = array<i64: 1, 1, 1, 1>}> : (tensor<1x32x7x128xf32>) -> tensor<1x32x7x64xf32>
    %398 = "tensor.extract_slice"(%369) <{operandSegmentSizes = array<i32: 1, 0, 0, 0>, static_offsets = array<i64: 0, 0, 0, 64>, static_sizes = array<i64: 1, 32, 7, 64>, static_strides = array<i64: 1, 1, 1, 1>}> : (tensor<1x32x7x128xf32>) -> tensor<1x32x7x64xf32>
    %399 = "tensor.empty"() : () -> tensor<1x32x7x64xf32>
    %400 = "linalg.negf"(%398, %399) <{operandSegmentSizes = array<i32: 1, 1>}> ({
    ^bb0(%arg420: f32, %arg421: f32):
      %4789 = "arith.negf"(%arg420) <{fastmath = #arith.fastmath<none>}> : (f32) -> f32
      "linalg.yield"(%4789) : (f32) -> ()
    }) : (tensor<1x32x7x64xf32>, tensor<1x32x7x64xf32>) -> tensor<1x32x7x64xf32>
    %401 = "tensor.empty"() : () -> tensor<1x32x7x128xf32>
    %402 = "tensor.insert_slice"(%400, %401) <{operandSegmentSizes = array<i32: 1, 1, 0, 0, 0>, static_offsets = array<i64: 0, 0, 0, 0>, static_sizes = array<i64: 1, 32, 7, 64>, static_strides = array<i64: 1, 1, 1, 1>}> : (tensor<1x32x7x64xf32>, tensor<1x32x7x128xf32>) -> tensor<1x32x7x128xf32>
    %403 = "tensor.insert_slice"(%397, %402) <{operandSegmentSizes = array<i32: 1, 1, 0, 0, 0>, static_offsets = array<i64: 0, 0, 0, 64>, static_sizes = array<i64: 1, 32, 7, 64>, static_strides = array<i64: 1, 1, 1, 1>}> : (tensor<1x32x7x64xf32>, tensor<1x32x7x128xf32>) -> tensor<1x32x7x128xf32>
    %404 = "tosa.mul"(%403, %395) <{shift = 0 : i8}> : (tensor<1x32x7x128xf32>, tensor<1x1x7x128xf32>) -> tensor<1x32x7x128xf32>
    %405 = "tosa.add"(%396, %404) : (tensor<1x32x7x128xf32>, tensor<1x32x7x128xf32>) -> tensor<1x32x7x128xf32>
    %406 = "tosa.mul"(%372, %392) <{shift = 0 : i8}> : (tensor<1x32x7x128xf32>, tensor<1x1x7x128xf32>) -> tensor<1x32x7x128xf32>
    %407 = "tensor.extract_slice"(%372) <{operandSegmentSizes = array<i32: 1, 0, 0, 0>, static_offsets = array<i64: 0, 0, 0, 0>, static_sizes = array<i64: 1, 32, 7, 64>, static_strides = array<i64: 1, 1, 1, 1>}> : (tensor<1x32x7x128xf32>) -> tensor<1x32x7x64xf32>
    %408 = "tensor.extract_slice"(%372) <{operandSegmentSizes = array<i32: 1, 0, 0, 0>, static_offsets = array<i64: 0, 0, 0, 64>, static_sizes = array<i64: 1, 32, 7, 64>, static_strides = array<i64: 1, 1, 1, 1>}> : (tensor<1x32x7x128xf32>) -> tensor<1x32x7x64xf32>
    %409 = "tensor.empty"() : () -> tensor<1x32x7x64xf32>
    %410 = "linalg.negf"(%408, %409) <{operandSegmentSizes = array<i32: 1, 1>}> ({
    ^bb0(%arg420: f32, %arg421: f32):
      %4789 = "arith.negf"(%arg420) <{fastmath = #arith.fastmath<none>}> : (f32) -> f32
      "linalg.yield"(%4789) : (f32) -> ()
    }) : (tensor<1x32x7x64xf32>, tensor<1x32x7x64xf32>) -> tensor<1x32x7x64xf32>
    %411 = "tensor.empty"() : () -> tensor<1x32x7x128xf32>
    %412 = "tensor.insert_slice"(%410, %411) <{operandSegmentSizes = array<i32: 1, 1, 0, 0, 0>, static_offsets = array<i64: 0, 0, 0, 0>, static_sizes = array<i64: 1, 32, 7, 64>, static_strides = array<i64: 1, 1, 1, 1>}> : (tensor<1x32x7x64xf32>, tensor<1x32x7x128xf32>) -> tensor<1x32x7x128xf32>
    %413 = "tensor.insert_slice"(%407, %412) <{operandSegmentSizes = array<i32: 1, 1, 0, 0, 0>, static_offsets = array<i64: 0, 0, 0, 64>, static_sizes = array<i64: 1, 32, 7, 64>, static_strides = array<i64: 1, 1, 1, 1>}> : (tensor<1x32x7x64xf32>, tensor<1x32x7x128xf32>) -> tensor<1x32x7x128xf32>
    %414 = "tosa.mul"(%413, %395) <{shift = 0 : i8}> : (tensor<1x32x7x128xf32>, tensor<1x1x7x128xf32>) -> tensor<1x32x7x128xf32>
    %415 = "tosa.add"(%406, %414) : (tensor<1x32x7x128xf32>, tensor<1x32x7x128xf32>) -> tensor<1x32x7x128xf32>
    %416 = "tosa.const"() <{value = dense<[0, 1, 3, 2]> : tensor<4xi32>}> : () -> tensor<4xi32>
    %417 = "tosa.transpose"(%415, %416) : (tensor<1x32x7x128xf32>, tensor<4xi32>) -> tensor<1x32x128x7xf32>
    %418 = "tosa.reshape"(%405) <{new_shape = array<i64: 32, 7, 128>}> : (tensor<1x32x7x128xf32>) -> tensor<32x7x128xf32>
    %419 = "tosa.reshape"(%417) <{new_shape = array<i64: 32, 128, 7>}> : (tensor<1x32x128x7xf32>) -> tensor<32x128x7xf32>
    %420 = "tosa.matmul"(%418, %419) : (tensor<32x7x128xf32>, tensor<32x128x7xf32>) -> tensor<32x7x7xf32>
    %421 = "tosa.reshape"(%420) <{new_shape = array<i64: 1, 32, 7, 7>}> : (tensor<32x7x7xf32>) -> tensor<1x32x7x7xf32>
    %422 = "tosa.const"() <{value = dense<11.3137083> : tensor<1x32x7x7xf32>}> : () -> tensor<1x32x7x7xf32>
    %423 = "tosa.reciprocal"(%422) : (tensor<1x32x7x7xf32>) -> tensor<1x32x7x7xf32>
    %424 = "tosa.mul"(%421, %423) <{shift = 0 : i8}> : (tensor<1x32x7x7xf32>, tensor<1x32x7x7xf32>) -> tensor<1x32x7x7xf32>
    %425 = "tosa.add"(%424, %35) : (tensor<1x32x7x7xf32>, tensor<1x1x7x7xf32>) -> tensor<1x32x7x7xf32>
    %426 = "tosa.reduce_max"(%425) <{axis = 3 : i32}> : (tensor<1x32x7x7xf32>) -> tensor<1x32x7x1xf32>
    %427 = "tosa.sub"(%425, %426) : (tensor<1x32x7x7xf32>, tensor<1x32x7x1xf32>) -> tensor<1x32x7x7xf32>
    %428 = "tosa.exp"(%427) : (tensor<1x32x7x7xf32>) -> tensor<1x32x7x7xf32>
    %429 = "tosa.reduce_sum"(%428) <{axis = 3 : i32}> : (tensor<1x32x7x7xf32>) -> tensor<1x32x7x1xf32>
    %430 = "tosa.reciprocal"(%429) : (tensor<1x32x7x1xf32>) -> tensor<1x32x7x1xf32>
    %431 = "tosa.mul"(%428, %430) <{shift = 0 : i8}> : (tensor<1x32x7x7xf32>, tensor<1x32x7x1xf32>) -> tensor<1x32x7x7xf32>
    %432 = "tosa.reshape"(%431) <{new_shape = array<i64: 32, 7, 7>}> : (tensor<1x32x7x7xf32>) -> tensor<32x7x7xf32>
    %433 = "tosa.reshape"(%375) <{new_shape = array<i64: 32, 7, 128>}> : (tensor<1x32x7x128xf32>) -> tensor<32x7x128xf32>
    %434 = "tosa.matmul"(%432, %433) : (tensor<32x7x7xf32>, tensor<32x7x128xf32>) -> tensor<32x7x128xf32>
    %435 = "tosa.reshape"(%434) <{new_shape = array<i64: 1, 32, 7, 128>}> : (tensor<32x7x128xf32>) -> tensor<1x32x7x128xf32>
    %436 = "tosa.const"() <{value = dense<[0, 2, 1, 3]> : tensor<4xi32>}> : () -> tensor<4xi32>
    %437 = "tosa.transpose"(%435, %436) : (tensor<1x32x7x128xf32>, tensor<4xi32>) -> tensor<1x7x32x128xf32>
    %438 = "tosa.identity"(%437) : (tensor<1x7x32x128xf32>) -> tensor<1x7x32x128xf32>
    %439 = "tosa.reshape"(%438) <{new_shape = array<i64: 1, 7, 4096>}> : (tensor<1x7x32x128xf32>) -> tensor<1x7x4096xf32>
    %440 = "tosa.const"() <{value = dense<[1, 0]> : tensor<2xi32>}> : () -> tensor<2xi32>
    %441 = "tosa.transpose"(%arg83, %440) : (tensor<4096x4096xf32>, tensor<2xi32>) -> tensor<4096x4096xf32>
    %442 = "tosa.reshape"(%439) <{new_shape = array<i64: 7, 4096>}> : (tensor<1x7x4096xf32>) -> tensor<7x4096xf32>
    %443 = "arith.constant"() <{value = dense<0.000000e+00> : tensor<7x4096xf32>}> : () -> tensor<7x4096xf32>
    %444 = "linalg.matmul"(%442, %441, %443) <{cast = #linalg.type_fn<cast_signed>, operandSegmentSizes = array<i32: 2, 1>}> ({
    ^bb0(%arg420: f32, %arg421: f32, %arg422: f32):
      %4789 = "arith.mulf"(%arg420, %arg421) <{fastmath = #arith.fastmath<none>}> : (f32, f32) -> f32
      %4790 = "arith.addf"(%arg422, %4789) <{fastmath = #arith.fastmath<none>}> : (f32, f32) -> f32
      "linalg.yield"(%4790) : (f32) -> ()
    }) : (tensor<7x4096xf32>, tensor<4096x4096xf32>, tensor<7x4096xf32>) -> tensor<7x4096xf32>
    %445 = "tosa.reshape"(%444) <{new_shape = array<i64: 1, 7, 4096>}> : (tensor<7x4096xf32>) -> tensor<1x7x4096xf32>
    %446 = "tosa.add"(%331, %445) : (tensor<1x7x4096xf32>, tensor<1x7x4096xf32>) -> tensor<1x7x4096xf32>
    %447 = "tensor.empty"() : () -> tensor<1x7x4096xf32>
    %448 = "arith.constant"() <{value = 2 : i32}> : () -> i32
    %449 = "linalg.generic"(%446, %447) <{indexing_maps = [#map5, #map5], iterator_types = [#linalg.iterator_type<parallel>, #linalg.iterator_type<parallel>, #linalg.iterator_type<parallel>], operandSegmentSizes = array<i32: 1, 1>}> ({
    ^bb0(%arg420: f32, %arg421: f32):
      %4789 = "math.fpowi"(%arg420, %448) <{fastmath = #arith.fastmath<none>}> : (f32, i32) -> f32
      "linalg.yield"(%4789) : (f32) -> ()
    }) : (tensor<1x7x4096xf32>, tensor<1x7x4096xf32>) -> tensor<1x7x4096xf32>
    %450 = "arith.constant"() <{value = dense<0.000000e+00> : tensor<1x7x1xf32>}> : () -> tensor<1x7x1xf32>
    %451 = "linalg.generic"(%449, %450) <{indexing_maps = [#map6, #map7], iterator_types = [#linalg.iterator_type<parallel>, #linalg.iterator_type<parallel>, #linalg.iterator_type<reduction>, #linalg.iterator_type<parallel>], operandSegmentSizes = array<i32: 1, 1>}> ({
    ^bb0(%arg420: f32, %arg421: f32):
      %4789 = "arith.constant"() <{value = 4.096000e+03 : f32}> : () -> f32
      %4790 = "arith.divf"(%arg420, %4789) <{fastmath = #arith.fastmath<none>}> : (f32, f32) -> f32
      %4791 = "arith.addf"(%4790, %arg421) <{fastmath = #arith.fastmath<none>}> : (f32, f32) -> f32
      "linalg.yield"(%4791) : (f32) -> ()
    }) : (tensor<1x7x4096xf32>, tensor<1x7x1xf32>) -> tensor<1x7x1xf32>
    %452 = "tosa.const"() <{value = dense<9.99999997E-7> : tensor<1x7x1xf32>}> : () -> tensor<1x7x1xf32>
    %453 = "tosa.add"(%451, %452) : (tensor<1x7x1xf32>, tensor<1x7x1xf32>) -> tensor<1x7x1xf32>
    %454 = "tosa.rsqrt"(%453) : (tensor<1x7x1xf32>) -> tensor<1x7x1xf32>
    %455 = "tosa.mul"(%446, %454) <{shift = 0 : i8}> : (tensor<1x7x4096xf32>, tensor<1x7x1xf32>) -> tensor<1x7x4096xf32>
    %456 = "tosa.reshape"(%arg5) <{new_shape = array<i64: 1, 1, 4096>}> : (tensor<4096xf32>) -> tensor<1x1x4096xf32>
    %457 = "tosa.mul"(%456, %455) <{shift = 0 : i8}> : (tensor<1x1x4096xf32>, tensor<1x7x4096xf32>) -> tensor<1x7x4096xf32>
    %458 = "tosa.const"() <{value = dense<[1, 0]> : tensor<2xi32>}> : () -> tensor<2xi32>
    %459 = "tosa.transpose"(%arg84, %458) : (tensor<11008x4096xf32>, tensor<2xi32>) -> tensor<4096x11008xf32>
    %460 = "tosa.reshape"(%457) <{new_shape = array<i64: 7, 4096>}> : (tensor<1x7x4096xf32>) -> tensor<7x4096xf32>
    %461 = "arith.constant"() <{value = dense<0.000000e+00> : tensor<7x11008xf32>}> : () -> tensor<7x11008xf32>
    %462 = "linalg.matmul"(%460, %459, %461) <{cast = #linalg.type_fn<cast_signed>, operandSegmentSizes = array<i32: 2, 1>}> ({
    ^bb0(%arg420: f32, %arg421: f32, %arg422: f32):
      %4789 = "arith.mulf"(%arg420, %arg421) <{fastmath = #arith.fastmath<none>}> : (f32, f32) -> f32
      %4790 = "arith.addf"(%arg422, %4789) <{fastmath = #arith.fastmath<none>}> : (f32, f32) -> f32
      "linalg.yield"(%4790) : (f32) -> ()
    }) : (tensor<7x4096xf32>, tensor<4096x11008xf32>, tensor<7x11008xf32>) -> tensor<7x11008xf32>
    %463 = "tosa.reshape"(%462) <{new_shape = array<i64: 1, 7, 11008>}> : (tensor<7x11008xf32>) -> tensor<1x7x11008xf32>
    %464 = "tosa.sigmoid"(%463) : (tensor<1x7x11008xf32>) -> tensor<1x7x11008xf32>
    %465 = "tosa.mul"(%463, %464) <{shift = 0 : i8}> : (tensor<1x7x11008xf32>, tensor<1x7x11008xf32>) -> tensor<1x7x11008xf32>
    %466 = "tosa.const"() <{value = dense<[1, 0]> : tensor<2xi32>}> : () -> tensor<2xi32>
    %467 = "tosa.transpose"(%arg85, %466) : (tensor<11008x4096xf32>, tensor<2xi32>) -> tensor<4096x11008xf32>
    %468 = "tosa.reshape"(%457) <{new_shape = array<i64: 7, 4096>}> : (tensor<1x7x4096xf32>) -> tensor<7x4096xf32>
    %469 = "arith.constant"() <{value = dense<0.000000e+00> : tensor<7x11008xf32>}> : () -> tensor<7x11008xf32>
    %470 = "linalg.matmul"(%468, %467, %469) <{cast = #linalg.type_fn<cast_signed>, operandSegmentSizes = array<i32: 2, 1>}> ({
    ^bb0(%arg420: f32, %arg421: f32, %arg422: f32):
      %4789 = "arith.mulf"(%arg420, %arg421) <{fastmath = #arith.fastmath<none>}> : (f32, f32) -> f32
      %4790 = "arith.addf"(%arg422, %4789) <{fastmath = #arith.fastmath<none>}> : (f32, f32) -> f32
      "linalg.yield"(%4790) : (f32) -> ()
    }) : (tensor<7x4096xf32>, tensor<4096x11008xf32>, tensor<7x11008xf32>) -> tensor<7x11008xf32>
    %471 = "tosa.reshape"(%470) <{new_shape = array<i64: 1, 7, 11008>}> : (tensor<7x11008xf32>) -> tensor<1x7x11008xf32>
    %472 = "tosa.mul"(%465, %471) <{shift = 0 : i8}> : (tensor<1x7x11008xf32>, tensor<1x7x11008xf32>) -> tensor<1x7x11008xf32>
    %473 = "tosa.const"() <{value = dense<[1, 0]> : tensor<2xi32>}> : () -> tensor<2xi32>
    %474 = "tosa.transpose"(%arg86, %473) : (tensor<4096x11008xf32>, tensor<2xi32>) -> tensor<11008x4096xf32>
    %475 = "tosa.reshape"(%472) <{new_shape = array<i64: 7, 11008>}> : (tensor<1x7x11008xf32>) -> tensor<7x11008xf32>
    %476 = "arith.constant"() <{value = dense<0.000000e+00> : tensor<7x4096xf32>}> : () -> tensor<7x4096xf32>
    %477 = "linalg.matmul"(%475, %474, %476) <{cast = #linalg.type_fn<cast_signed>, operandSegmentSizes = array<i32: 2, 1>}> ({
    ^bb0(%arg420: f32, %arg421: f32, %arg422: f32):
      %4789 = "arith.mulf"(%arg420, %arg421) <{fastmath = #arith.fastmath<none>}> : (f32, f32) -> f32
      %4790 = "arith.addf"(%arg422, %4789) <{fastmath = #arith.fastmath<none>}> : (f32, f32) -> f32
      "linalg.yield"(%4790) : (f32) -> ()
    }) : (tensor<7x11008xf32>, tensor<11008x4096xf32>, tensor<7x4096xf32>) -> tensor<7x4096xf32>
    %478 = "tosa.reshape"(%477) <{new_shape = array<i64: 1, 7, 4096>}> : (tensor<7x4096xf32>) -> tensor<1x7x4096xf32>
    %479 = "tosa.add"(%446, %478) : (tensor<1x7x4096xf32>, tensor<1x7x4096xf32>) -> tensor<1x7x4096xf32>
    %480 = "tensor.empty"() : () -> tensor<1x7x4096xf32>
    %481 = "arith.constant"() <{value = 2 : i32}> : () -> i32
    %482 = "linalg.generic"(%479, %480) <{indexing_maps = [#map5, #map5], iterator_types = [#linalg.iterator_type<parallel>, #linalg.iterator_type<parallel>, #linalg.iterator_type<parallel>], operandSegmentSizes = array<i32: 1, 1>}> ({
    ^bb0(%arg420: f32, %arg421: f32):
      %4789 = "math.fpowi"(%arg420, %481) <{fastmath = #arith.fastmath<none>}> : (f32, i32) -> f32
      "linalg.yield"(%4789) : (f32) -> ()
    }) : (tensor<1x7x4096xf32>, tensor<1x7x4096xf32>) -> tensor<1x7x4096xf32>
    %483 = "arith.constant"() <{value = dense<0.000000e+00> : tensor<1x7x1xf32>}> : () -> tensor<1x7x1xf32>
    %484 = "linalg.generic"(%482, %483) <{indexing_maps = [#map6, #map7], iterator_types = [#linalg.iterator_type<parallel>, #linalg.iterator_type<parallel>, #linalg.iterator_type<reduction>, #linalg.iterator_type<parallel>], operandSegmentSizes = array<i32: 1, 1>}> ({
    ^bb0(%arg420: f32, %arg421: f32):
      %4789 = "arith.constant"() <{value = 4.096000e+03 : f32}> : () -> f32
      %4790 = "arith.divf"(%arg420, %4789) <{fastmath = #arith.fastmath<none>}> : (f32, f32) -> f32
      %4791 = "arith.addf"(%4790, %arg421) <{fastmath = #arith.fastmath<none>}> : (f32, f32) -> f32
      "linalg.yield"(%4791) : (f32) -> ()
    }) : (tensor<1x7x4096xf32>, tensor<1x7x1xf32>) -> tensor<1x7x1xf32>
    %485 = "tosa.const"() <{value = dense<9.99999997E-7> : tensor<1x7x1xf32>}> : () -> tensor<1x7x1xf32>
    %486 = "tosa.add"(%484, %485) : (tensor<1x7x1xf32>, tensor<1x7x1xf32>) -> tensor<1x7x1xf32>
    %487 = "tosa.rsqrt"(%486) : (tensor<1x7x1xf32>) -> tensor<1x7x1xf32>
    %488 = "tosa.mul"(%479, %487) <{shift = 0 : i8}> : (tensor<1x7x4096xf32>, tensor<1x7x1xf32>) -> tensor<1x7x4096xf32>
    %489 = "tosa.reshape"(%arg6) <{new_shape = array<i64: 1, 1, 4096>}> : (tensor<4096xf32>) -> tensor<1x1x4096xf32>
    %490 = "tosa.mul"(%489, %488) <{shift = 0 : i8}> : (tensor<1x1x4096xf32>, tensor<1x7x4096xf32>) -> tensor<1x7x4096xf32>
    %491 = "tosa.const"() <{value = dense<[1, 0]> : tensor<2xi32>}> : () -> tensor<2xi32>
    %492 = "tosa.transpose"(%arg87, %491) : (tensor<4096x4096xf32>, tensor<2xi32>) -> tensor<4096x4096xf32>
    %493 = "tosa.reshape"(%490) <{new_shape = array<i64: 7, 4096>}> : (tensor<1x7x4096xf32>) -> tensor<7x4096xf32>
    %494 = "arith.constant"() <{value = dense<0.000000e+00> : tensor<7x4096xf32>}> : () -> tensor<7x4096xf32>
    %495 = "linalg.matmul"(%493, %492, %494) <{cast = #linalg.type_fn<cast_signed>, operandSegmentSizes = array<i32: 2, 1>}> ({
    ^bb0(%arg420: f32, %arg421: f32, %arg422: f32):
      %4789 = "arith.mulf"(%arg420, %arg421) <{fastmath = #arith.fastmath<none>}> : (f32, f32) -> f32
      %4790 = "arith.addf"(%arg422, %4789) <{fastmath = #arith.fastmath<none>}> : (f32, f32) -> f32
      "linalg.yield"(%4790) : (f32) -> ()
    }) : (tensor<7x4096xf32>, tensor<4096x4096xf32>, tensor<7x4096xf32>) -> tensor<7x4096xf32>
    %496 = "tosa.reshape"(%495) <{new_shape = array<i64: 1, 7, 4096>}> : (tensor<7x4096xf32>) -> tensor<1x7x4096xf32>
    %497 = "tosa.const"() <{value = dense<[1, 0]> : tensor<2xi32>}> : () -> tensor<2xi32>
    %498 = "tosa.transpose"(%arg88, %497) : (tensor<4096x4096xf32>, tensor<2xi32>) -> tensor<4096x4096xf32>
    %499 = "tosa.reshape"(%490) <{new_shape = array<i64: 7, 4096>}> : (tensor<1x7x4096xf32>) -> tensor<7x4096xf32>
    %500 = "arith.constant"() <{value = dense<0.000000e+00> : tensor<1x4096xf32>}> : () -> tensor<1x4096xf32>
    %501 = "linalg.matmul"(%499, %498, %500) <{cast = #linalg.type_fn<cast_signed>, operandSegmentSizes = array<i32: 2, 1>}> ({
    ^bb0(%arg420: f32, %arg421: f32, %arg422: f32):
      %4789 = "arith.mulf"(%arg420, %arg421) <{fastmath = #arith.fastmath<none>}> : (f32, f32) -> f32
      %4790 = "arith.addf"(%arg422, %4789) <{fastmath = #arith.fastmath<none>}> : (f32, f32) -> f32
      "linalg.yield"(%4790) : (f32) -> ()
    }) : (tensor<7x4096xf32>, tensor<4096x4096xf32>, tensor<1x4096xf32>) -> tensor<1x4096xf32>
    %502 = "tensor.empty"() : () -> tensor<7x4096xf32>
    %503 = "tensor.insert_slice"(%501, %502) <{operandSegmentSizes = array<i32: 1, 1, 0, 0, 0>, static_offsets = array<i64: 0, 0>, static_sizes = array<i64: 1, 4096>, static_strides = array<i64: 1, 1>}> : (tensor<1x4096xf32>, tensor<7x4096xf32>) -> tensor<7x4096xf32>
    %504 = "tensor.insert_slice"(%arg356, %503) <{operandSegmentSizes = array<i32: 1, 1, 0, 0, 0>, static_offsets = array<i64: 1, 0>, static_sizes = array<i64: 7, 4096>, static_strides = array<i64: 1, 1>}> : (tensor<7x4096xf32>, tensor<7x4096xf32>) -> tensor<7x4096xf32>
    %505 = "tosa.reshape"(%504) <{new_shape = array<i64: 1, 7, 4096>}> : (tensor<7x4096xf32>) -> tensor<1x7x4096xf32>
    %506 = "tosa.const"() <{value = dense<[1, 0]> : tensor<2xi32>}> : () -> tensor<2xi32>
    %507 = "tosa.transpose"(%arg89, %506) : (tensor<4096x4096xf32>, tensor<2xi32>) -> tensor<4096x4096xf32>
    %508 = "tosa.reshape"(%490) <{new_shape = array<i64: 7, 4096>}> : (tensor<1x7x4096xf32>) -> tensor<7x4096xf32>
    %509 = "arith.constant"() <{value = dense<0.000000e+00> : tensor<1x4096xf32>}> : () -> tensor<1x4096xf32>
    %510 = "linalg.matmul"(%508, %507, %509) <{cast = #linalg.type_fn<cast_signed>, operandSegmentSizes = array<i32: 2, 1>}> ({
    ^bb0(%arg420: f32, %arg421: f32, %arg422: f32):
      %4789 = "arith.mulf"(%arg420, %arg421) <{fastmath = #arith.fastmath<none>}> : (f32, f32) -> f32
      %4790 = "arith.addf"(%arg422, %4789) <{fastmath = #arith.fastmath<none>}> : (f32, f32) -> f32
      "linalg.yield"(%4790) : (f32) -> ()
    }) : (tensor<7x4096xf32>, tensor<4096x4096xf32>, tensor<1x4096xf32>) -> tensor<1x4096xf32>
    %511 = "tensor.empty"() : () -> tensor<7x4096xf32>
    %512 = "tensor.insert_slice"(%510, %511) <{operandSegmentSizes = array<i32: 1, 1, 0, 0, 0>, static_offsets = array<i64: 0, 0>, static_sizes = array<i64: 1, 4096>, static_strides = array<i64: 1, 1>}> : (tensor<1x4096xf32>, tensor<7x4096xf32>) -> tensor<7x4096xf32>
    %513 = "tensor.insert_slice"(%arg356, %512) <{operandSegmentSizes = array<i32: 1, 1, 0, 0, 0>, static_offsets = array<i64: 1, 0>, static_sizes = array<i64: 7, 4096>, static_strides = array<i64: 1, 1>}> : (tensor<7x4096xf32>, tensor<7x4096xf32>) -> tensor<7x4096xf32>
    %514 = "tosa.reshape"(%513) <{new_shape = array<i64: 1, 7, 4096>}> : (tensor<7x4096xf32>) -> tensor<1x7x4096xf32>
    %515 = "tosa.reshape"(%496) <{new_shape = array<i64: 1, 7, 32, 128>}> : (tensor<1x7x4096xf32>) -> tensor<1x7x32x128xf32>
    %516 = "tosa.const"() <{value = dense<[0, 2, 1, 3]> : tensor<4xi32>}> : () -> tensor<4xi32>
    %517 = "tosa.transpose"(%515, %516) : (tensor<1x7x32x128xf32>, tensor<4xi32>) -> tensor<1x32x7x128xf32>
    %518 = "tosa.reshape"(%505) <{new_shape = array<i64: 1, 7, 32, 128>}> : (tensor<1x7x4096xf32>) -> tensor<1x7x32x128xf32>
    %519 = "tosa.const"() <{value = dense<[0, 2, 1, 3]> : tensor<4xi32>}> : () -> tensor<4xi32>
    %520 = "tosa.transpose"(%518, %519) : (tensor<1x7x32x128xf32>, tensor<4xi32>) -> tensor<1x32x7x128xf32>
    %521 = "tosa.reshape"(%514) <{new_shape = array<i64: 1, 7, 32, 128>}> : (tensor<1x7x4096xf32>) -> tensor<1x7x32x128xf32>
    %522 = "tosa.const"() <{value = dense<[0, 2, 1, 3]> : tensor<4xi32>}> : () -> tensor<4xi32>
    %523 = "tosa.transpose"(%521, %522) : (tensor<1x7x32x128xf32>, tensor<4xi32>) -> tensor<1x32x7x128xf32>
    %524 = "tensor.extract_slice"(%arg297) <{operandSegmentSizes = array<i32: 1, 0, 0, 0>, static_offsets = array<i64: 0, 0, 0, 0>, static_sizes = array<i64: 1, 1, 2048, 128>, static_strides = array<i64: 1, 1, 1, 1>}> : (tensor<1x1x2048x128xf32>) -> tensor<1x1x2048x128xf32>
    %525 = "tensor.extract_slice"(%524) <{operandSegmentSizes = array<i32: 1, 0, 0, 0>, static_offsets = array<i64: 0, 0, 0, 0>, static_sizes = array<i64: 1, 1, 2048, 128>, static_strides = array<i64: 1, 1, 1, 1>}> : (tensor<1x1x2048x128xf32>) -> tensor<1x1x2048x128xf32>
    %526 = "tensor.extract_slice"(%525) <{operandSegmentSizes = array<i32: 1, 0, 0, 0>, static_offsets = array<i64: 0, 0, 0, 0>, static_sizes = array<i64: 1, 1, 7, 128>, static_strides = array<i64: 1, 1, 1, 1>}> : (tensor<1x1x2048x128xf32>) -> tensor<1x1x7x128xf32>
    %527 = "tensor.extract_slice"(%arg298) <{operandSegmentSizes = array<i32: 1, 0, 0, 0>, static_offsets = array<i64: 0, 0, 0, 0>, static_sizes = array<i64: 1, 1, 2048, 128>, static_strides = array<i64: 1, 1, 1, 1>}> : (tensor<1x1x2048x128xf32>) -> tensor<1x1x2048x128xf32>
    %528 = "tensor.extract_slice"(%527) <{operandSegmentSizes = array<i32: 1, 0, 0, 0>, static_offsets = array<i64: 0, 0, 0, 0>, static_sizes = array<i64: 1, 1, 2048, 128>, static_strides = array<i64: 1, 1, 1, 1>}> : (tensor<1x1x2048x128xf32>) -> tensor<1x1x2048x128xf32>
    %529 = "tensor.extract_slice"(%528) <{operandSegmentSizes = array<i32: 1, 0, 0, 0>, static_offsets = array<i64: 0, 0, 0, 0>, static_sizes = array<i64: 1, 1, 7, 128>, static_strides = array<i64: 1, 1, 1, 1>}> : (tensor<1x1x2048x128xf32>) -> tensor<1x1x7x128xf32>
    %530 = "tensor.empty"() : () -> tensor<1x7x128xf32>
    %531 = "linalg.generic"(%526, %530) <{indexing_maps = [#map8, #map5], iterator_types = [#linalg.iterator_type<parallel>, #linalg.iterator_type<parallel>, #linalg.iterator_type<parallel>], operandSegmentSizes = array<i32: 1, 1>}> ({
    ^bb0(%arg420: f32, %arg421: f32):
      "linalg.yield"(%arg420) : (f32) -> ()
    }) : (tensor<1x1x7x128xf32>, tensor<1x7x128xf32>) -> tensor<1x7x128xf32>
    %532 = "tensor.empty"() : () -> tensor<7x128xf32>
    %533 = "linalg.generic"(%531, %532) <{indexing_maps = [#map9, #map3], iterator_types = [#linalg.iterator_type<parallel>, #linalg.iterator_type<parallel>], operandSegmentSizes = array<i32: 1, 1>}> ({
    ^bb0(%arg420: f32, %arg421: f32):
      "linalg.yield"(%arg420) : (f32) -> ()
    }) : (tensor<1x7x128xf32>, tensor<7x128xf32>) -> tensor<7x128xf32>
    %534 = "tensor.empty"() : () -> tensor<1x7x128xf32>
    %535 = "linalg.generic"(%529, %534) <{indexing_maps = [#map8, #map5], iterator_types = [#linalg.iterator_type<parallel>, #linalg.iterator_type<parallel>, #linalg.iterator_type<parallel>], operandSegmentSizes = array<i32: 1, 1>}> ({
    ^bb0(%arg420: f32, %arg421: f32):
      "linalg.yield"(%arg420) : (f32) -> ()
    }) : (tensor<1x1x7x128xf32>, tensor<1x7x128xf32>) -> tensor<1x7x128xf32>
    %536 = "tensor.empty"() : () -> tensor<7x128xf32>
    %537 = "linalg.generic"(%535, %536) <{indexing_maps = [#map9, #map3], iterator_types = [#linalg.iterator_type<parallel>, #linalg.iterator_type<parallel>], operandSegmentSizes = array<i32: 1, 1>}> ({
    ^bb0(%arg420: f32, %arg421: f32):
      "linalg.yield"(%arg420) : (f32) -> ()
    }) : (tensor<1x7x128xf32>, tensor<7x128xf32>) -> tensor<7x128xf32>
    %538 = "tensor.empty"() : () -> tensor<1x7x128xf32>
    %539 = "linalg.generic"(%2, %538) <{indexing_maps = [#map2, #map5], iterator_types = [#linalg.iterator_type<parallel>, #linalg.iterator_type<parallel>, #linalg.iterator_type<parallel>], operandSegmentSizes = array<i32: 1, 1>}> ({
    ^bb0(%arg420: i64, %arg421: f32):
      %4789 = "arith.index_cast"(%arg420) : (i64) -> index
      %4790 = "linalg.index"() <{dim = 2 : i64}> : () -> index
      %4791 = "tensor.extract"(%533, %4789, %4790) : (tensor<7x128xf32>, index, index) -> f32
      "linalg.yield"(%4791) : (f32) -> ()
    }) : (tensor<1x7xi64>, tensor<1x7x128xf32>) -> tensor<1x7x128xf32>
    %540 = "tosa.reshape"(%539) <{new_shape = array<i64: 1, 1, 7, 128>}> : (tensor<1x7x128xf32>) -> tensor<1x1x7x128xf32>
    %541 = "tensor.empty"() : () -> tensor<1x7x128xf32>
    %542 = "linalg.generic"(%2, %541) <{indexing_maps = [#map2, #map5], iterator_types = [#linalg.iterator_type<parallel>, #linalg.iterator_type<parallel>, #linalg.iterator_type<parallel>], operandSegmentSizes = array<i32: 1, 1>}> ({
    ^bb0(%arg420: i64, %arg421: f32):
      %4789 = "arith.index_cast"(%arg420) : (i64) -> index
      %4790 = "linalg.index"() <{dim = 2 : i64}> : () -> index
      %4791 = "tensor.extract"(%537, %4789, %4790) : (tensor<7x128xf32>, index, index) -> f32
      "linalg.yield"(%4791) : (f32) -> ()
    }) : (tensor<1x7xi64>, tensor<1x7x128xf32>) -> tensor<1x7x128xf32>
    %543 = "tosa.reshape"(%542) <{new_shape = array<i64: 1, 1, 7, 128>}> : (tensor<1x7x128xf32>) -> tensor<1x1x7x128xf32>
    %544 = "tosa.mul"(%517, %540) <{shift = 0 : i8}> : (tensor<1x32x7x128xf32>, tensor<1x1x7x128xf32>) -> tensor<1x32x7x128xf32>
    %545 = "tensor.extract_slice"(%517) <{operandSegmentSizes = array<i32: 1, 0, 0, 0>, static_offsets = array<i64: 0, 0, 0, 0>, static_sizes = array<i64: 1, 32, 7, 64>, static_strides = array<i64: 1, 1, 1, 1>}> : (tensor<1x32x7x128xf32>) -> tensor<1x32x7x64xf32>
    %546 = "tensor.extract_slice"(%517) <{operandSegmentSizes = array<i32: 1, 0, 0, 0>, static_offsets = array<i64: 0, 0, 0, 64>, static_sizes = array<i64: 1, 32, 7, 64>, static_strides = array<i64: 1, 1, 1, 1>}> : (tensor<1x32x7x128xf32>) -> tensor<1x32x7x64xf32>
    %547 = "tensor.empty"() : () -> tensor<1x32x7x64xf32>
    %548 = "linalg.negf"(%546, %547) <{operandSegmentSizes = array<i32: 1, 1>}> ({
    ^bb0(%arg420: f32, %arg421: f32):
      %4789 = "arith.negf"(%arg420) <{fastmath = #arith.fastmath<none>}> : (f32) -> f32
      "linalg.yield"(%4789) : (f32) -> ()
    }) : (tensor<1x32x7x64xf32>, tensor<1x32x7x64xf32>) -> tensor<1x32x7x64xf32>
    %549 = "tensor.empty"() : () -> tensor<1x32x7x128xf32>
    %550 = "tensor.insert_slice"(%548, %549) <{operandSegmentSizes = array<i32: 1, 1, 0, 0, 0>, static_offsets = array<i64: 0, 0, 0, 0>, static_sizes = array<i64: 1, 32, 7, 64>, static_strides = array<i64: 1, 1, 1, 1>}> : (tensor<1x32x7x64xf32>, tensor<1x32x7x128xf32>) -> tensor<1x32x7x128xf32>
    %551 = "tensor.insert_slice"(%545, %550) <{operandSegmentSizes = array<i32: 1, 1, 0, 0, 0>, static_offsets = array<i64: 0, 0, 0, 64>, static_sizes = array<i64: 1, 32, 7, 64>, static_strides = array<i64: 1, 1, 1, 1>}> : (tensor<1x32x7x64xf32>, tensor<1x32x7x128xf32>) -> tensor<1x32x7x128xf32>
    %552 = "tosa.mul"(%551, %543) <{shift = 0 : i8}> : (tensor<1x32x7x128xf32>, tensor<1x1x7x128xf32>) -> tensor<1x32x7x128xf32>
    %553 = "tosa.add"(%544, %552) : (tensor<1x32x7x128xf32>, tensor<1x32x7x128xf32>) -> tensor<1x32x7x128xf32>
    %554 = "tosa.mul"(%520, %540) <{shift = 0 : i8}> : (tensor<1x32x7x128xf32>, tensor<1x1x7x128xf32>) -> tensor<1x32x7x128xf32>
    %555 = "tensor.extract_slice"(%520) <{operandSegmentSizes = array<i32: 1, 0, 0, 0>, static_offsets = array<i64: 0, 0, 0, 0>, static_sizes = array<i64: 1, 32, 7, 64>, static_strides = array<i64: 1, 1, 1, 1>}> : (tensor<1x32x7x128xf32>) -> tensor<1x32x7x64xf32>
    %556 = "tensor.extract_slice"(%520) <{operandSegmentSizes = array<i32: 1, 0, 0, 0>, static_offsets = array<i64: 0, 0, 0, 64>, static_sizes = array<i64: 1, 32, 7, 64>, static_strides = array<i64: 1, 1, 1, 1>}> : (tensor<1x32x7x128xf32>) -> tensor<1x32x7x64xf32>
    %557 = "tensor.empty"() : () -> tensor<1x32x7x64xf32>
    %558 = "linalg.negf"(%556, %557) <{operandSegmentSizes = array<i32: 1, 1>}> ({
    ^bb0(%arg420: f32, %arg421: f32):
      %4789 = "arith.negf"(%arg420) <{fastmath = #arith.fastmath<none>}> : (f32) -> f32
      "linalg.yield"(%4789) : (f32) -> ()
    }) : (tensor<1x32x7x64xf32>, tensor<1x32x7x64xf32>) -> tensor<1x32x7x64xf32>
    %559 = "tensor.empty"() : () -> tensor<1x32x7x128xf32>
    %560 = "tensor.insert_slice"(%558, %559) <{operandSegmentSizes = array<i32: 1, 1, 0, 0, 0>, static_offsets = array<i64: 0, 0, 0, 0>, static_sizes = array<i64: 1, 32, 7, 64>, static_strides = array<i64: 1, 1, 1, 1>}> : (tensor<1x32x7x64xf32>, tensor<1x32x7x128xf32>) -> tensor<1x32x7x128xf32>
    %561 = "tensor.insert_slice"(%555, %560) <{operandSegmentSizes = array<i32: 1, 1, 0, 0, 0>, static_offsets = array<i64: 0, 0, 0, 64>, static_sizes = array<i64: 1, 32, 7, 64>, static_strides = array<i64: 1, 1, 1, 1>}> : (tensor<1x32x7x64xf32>, tensor<1x32x7x128xf32>) -> tensor<1x32x7x128xf32>
    %562 = "tosa.mul"(%561, %543) <{shift = 0 : i8}> : (tensor<1x32x7x128xf32>, tensor<1x1x7x128xf32>) -> tensor<1x32x7x128xf32>
    %563 = "tosa.add"(%554, %562) : (tensor<1x32x7x128xf32>, tensor<1x32x7x128xf32>) -> tensor<1x32x7x128xf32>
    %564 = "tosa.const"() <{value = dense<[0, 1, 3, 2]> : tensor<4xi32>}> : () -> tensor<4xi32>
    %565 = "tosa.transpose"(%563, %564) : (tensor<1x32x7x128xf32>, tensor<4xi32>) -> tensor<1x32x128x7xf32>
    %566 = "tosa.reshape"(%553) <{new_shape = array<i64: 32, 7, 128>}> : (tensor<1x32x7x128xf32>) -> tensor<32x7x128xf32>
    %567 = "tosa.reshape"(%565) <{new_shape = array<i64: 32, 128, 7>}> : (tensor<1x32x128x7xf32>) -> tensor<32x128x7xf32>
    %568 = "tosa.matmul"(%566, %567) : (tensor<32x7x128xf32>, tensor<32x128x7xf32>) -> tensor<32x7x7xf32>
    %569 = "tosa.reshape"(%568) <{new_shape = array<i64: 1, 32, 7, 7>}> : (tensor<32x7x7xf32>) -> tensor<1x32x7x7xf32>
    %570 = "tosa.const"() <{value = dense<11.3137083> : tensor<1x32x7x7xf32>}> : () -> tensor<1x32x7x7xf32>
    %571 = "tosa.reciprocal"(%570) : (tensor<1x32x7x7xf32>) -> tensor<1x32x7x7xf32>
    %572 = "tosa.mul"(%569, %571) <{shift = 0 : i8}> : (tensor<1x32x7x7xf32>, tensor<1x32x7x7xf32>) -> tensor<1x32x7x7xf32>
    %573 = "tosa.add"(%572, %35) : (tensor<1x32x7x7xf32>, tensor<1x1x7x7xf32>) -> tensor<1x32x7x7xf32>
    %574 = "tosa.reduce_max"(%573) <{axis = 3 : i32}> : (tensor<1x32x7x7xf32>) -> tensor<1x32x7x1xf32>
    %575 = "tosa.sub"(%573, %574) : (tensor<1x32x7x7xf32>, tensor<1x32x7x1xf32>) -> tensor<1x32x7x7xf32>
    %576 = "tosa.exp"(%575) : (tensor<1x32x7x7xf32>) -> tensor<1x32x7x7xf32>
    %577 = "tosa.reduce_sum"(%576) <{axis = 3 : i32}> : (tensor<1x32x7x7xf32>) -> tensor<1x32x7x1xf32>
    %578 = "tosa.reciprocal"(%577) : (tensor<1x32x7x1xf32>) -> tensor<1x32x7x1xf32>
    %579 = "tosa.mul"(%576, %578) <{shift = 0 : i8}> : (tensor<1x32x7x7xf32>, tensor<1x32x7x1xf32>) -> tensor<1x32x7x7xf32>
    %580 = "tosa.reshape"(%579) <{new_shape = array<i64: 32, 7, 7>}> : (tensor<1x32x7x7xf32>) -> tensor<32x7x7xf32>
    %581 = "tosa.reshape"(%523) <{new_shape = array<i64: 32, 7, 128>}> : (tensor<1x32x7x128xf32>) -> tensor<32x7x128xf32>
    %582 = "tosa.matmul"(%580, %581) : (tensor<32x7x7xf32>, tensor<32x7x128xf32>) -> tensor<32x7x128xf32>
    %583 = "tosa.reshape"(%582) <{new_shape = array<i64: 1, 32, 7, 128>}> : (tensor<32x7x128xf32>) -> tensor<1x32x7x128xf32>
    %584 = "tosa.const"() <{value = dense<[0, 2, 1, 3]> : tensor<4xi32>}> : () -> tensor<4xi32>
    %585 = "tosa.transpose"(%583, %584) : (tensor<1x32x7x128xf32>, tensor<4xi32>) -> tensor<1x7x32x128xf32>
    %586 = "tosa.identity"(%585) : (tensor<1x7x32x128xf32>) -> tensor<1x7x32x128xf32>
    %587 = "tosa.reshape"(%586) <{new_shape = array<i64: 1, 7, 4096>}> : (tensor<1x7x32x128xf32>) -> tensor<1x7x4096xf32>
    %588 = "tosa.const"() <{value = dense<[1, 0]> : tensor<2xi32>}> : () -> tensor<2xi32>
    %589 = "tosa.transpose"(%arg90, %588) : (tensor<4096x4096xf32>, tensor<2xi32>) -> tensor<4096x4096xf32>
    %590 = "tosa.reshape"(%587) <{new_shape = array<i64: 7, 4096>}> : (tensor<1x7x4096xf32>) -> tensor<7x4096xf32>
    %591 = "arith.constant"() <{value = dense<0.000000e+00> : tensor<7x4096xf32>}> : () -> tensor<7x4096xf32>
    %592 = "linalg.matmul"(%590, %589, %591) <{cast = #linalg.type_fn<cast_signed>, operandSegmentSizes = array<i32: 2, 1>}> ({
    ^bb0(%arg420: f32, %arg421: f32, %arg422: f32):
      %4789 = "arith.mulf"(%arg420, %arg421) <{fastmath = #arith.fastmath<none>}> : (f32, f32) -> f32
      %4790 = "arith.addf"(%arg422, %4789) <{fastmath = #arith.fastmath<none>}> : (f32, f32) -> f32
      "linalg.yield"(%4790) : (f32) -> ()
    }) : (tensor<7x4096xf32>, tensor<4096x4096xf32>, tensor<7x4096xf32>) -> tensor<7x4096xf32>
    %593 = "tosa.reshape"(%592) <{new_shape = array<i64: 1, 7, 4096>}> : (tensor<7x4096xf32>) -> tensor<1x7x4096xf32>
    %594 = "tosa.add"(%479, %593) : (tensor<1x7x4096xf32>, tensor<1x7x4096xf32>) -> tensor<1x7x4096xf32>
    %595 = "tensor.empty"() : () -> tensor<1x7x4096xf32>
    %596 = "arith.constant"() <{value = 2 : i32}> : () -> i32
    %597 = "linalg.generic"(%594, %595) <{indexing_maps = [#map5, #map5], iterator_types = [#linalg.iterator_type<parallel>, #linalg.iterator_type<parallel>, #linalg.iterator_type<parallel>], operandSegmentSizes = array<i32: 1, 1>}> ({
    ^bb0(%arg420: f32, %arg421: f32):
      %4789 = "math.fpowi"(%arg420, %596) <{fastmath = #arith.fastmath<none>}> : (f32, i32) -> f32
      "linalg.yield"(%4789) : (f32) -> ()
    }) : (tensor<1x7x4096xf32>, tensor<1x7x4096xf32>) -> tensor<1x7x4096xf32>
    %598 = "arith.constant"() <{value = dense<0.000000e+00> : tensor<1x7x1xf32>}> : () -> tensor<1x7x1xf32>
    %599 = "linalg.generic"(%597, %598) <{indexing_maps = [#map6, #map7], iterator_types = [#linalg.iterator_type<parallel>, #linalg.iterator_type<parallel>, #linalg.iterator_type<reduction>, #linalg.iterator_type<parallel>], operandSegmentSizes = array<i32: 1, 1>}> ({
    ^bb0(%arg420: f32, %arg421: f32):
      %4789 = "arith.constant"() <{value = 4.096000e+03 : f32}> : () -> f32
      %4790 = "arith.divf"(%arg420, %4789) <{fastmath = #arith.fastmath<none>}> : (f32, f32) -> f32
      %4791 = "arith.addf"(%4790, %arg421) <{fastmath = #arith.fastmath<none>}> : (f32, f32) -> f32
      "linalg.yield"(%4791) : (f32) -> ()
    }) : (tensor<1x7x4096xf32>, tensor<1x7x1xf32>) -> tensor<1x7x1xf32>
    %600 = "tosa.const"() <{value = dense<9.99999997E-7> : tensor<1x7x1xf32>}> : () -> tensor<1x7x1xf32>
    %601 = "tosa.add"(%599, %600) : (tensor<1x7x1xf32>, tensor<1x7x1xf32>) -> tensor<1x7x1xf32>
    %602 = "tosa.rsqrt"(%601) : (tensor<1x7x1xf32>) -> tensor<1x7x1xf32>
    %603 = "tosa.mul"(%594, %602) <{shift = 0 : i8}> : (tensor<1x7x4096xf32>, tensor<1x7x1xf32>) -> tensor<1x7x4096xf32>
    %604 = "tosa.reshape"(%arg7) <{new_shape = array<i64: 1, 1, 4096>}> : (tensor<4096xf32>) -> tensor<1x1x4096xf32>
    %605 = "tosa.mul"(%604, %603) <{shift = 0 : i8}> : (tensor<1x1x4096xf32>, tensor<1x7x4096xf32>) -> tensor<1x7x4096xf32>
    %606 = "tosa.const"() <{value = dense<[1, 0]> : tensor<2xi32>}> : () -> tensor<2xi32>
    %607 = "tosa.transpose"(%arg91, %606) : (tensor<11008x4096xf32>, tensor<2xi32>) -> tensor<4096x11008xf32>
    %608 = "tosa.reshape"(%605) <{new_shape = array<i64: 7, 4096>}> : (tensor<1x7x4096xf32>) -> tensor<7x4096xf32>
    %609 = "arith.constant"() <{value = dense<0.000000e+00> : tensor<7x11008xf32>}> : () -> tensor<7x11008xf32>
    %610 = "linalg.matmul"(%608, %607, %609) <{cast = #linalg.type_fn<cast_signed>, operandSegmentSizes = array<i32: 2, 1>}> ({
    ^bb0(%arg420: f32, %arg421: f32, %arg422: f32):
      %4789 = "arith.mulf"(%arg420, %arg421) <{fastmath = #arith.fastmath<none>}> : (f32, f32) -> f32
      %4790 = "arith.addf"(%arg422, %4789) <{fastmath = #arith.fastmath<none>}> : (f32, f32) -> f32
      "linalg.yield"(%4790) : (f32) -> ()
    }) : (tensor<7x4096xf32>, tensor<4096x11008xf32>, tensor<7x11008xf32>) -> tensor<7x11008xf32>
    %611 = "tosa.reshape"(%610) <{new_shape = array<i64: 1, 7, 11008>}> : (tensor<7x11008xf32>) -> tensor<1x7x11008xf32>
    %612 = "tosa.sigmoid"(%611) : (tensor<1x7x11008xf32>) -> tensor<1x7x11008xf32>
    %613 = "tosa.mul"(%611, %612) <{shift = 0 : i8}> : (tensor<1x7x11008xf32>, tensor<1x7x11008xf32>) -> tensor<1x7x11008xf32>
    %614 = "tosa.const"() <{value = dense<[1, 0]> : tensor<2xi32>}> : () -> tensor<2xi32>
    %615 = "tosa.transpose"(%arg92, %614) : (tensor<11008x4096xf32>, tensor<2xi32>) -> tensor<4096x11008xf32>
    %616 = "tosa.reshape"(%605) <{new_shape = array<i64: 7, 4096>}> : (tensor<1x7x4096xf32>) -> tensor<7x4096xf32>
    %617 = "arith.constant"() <{value = dense<0.000000e+00> : tensor<7x11008xf32>}> : () -> tensor<7x11008xf32>
    %618 = "linalg.matmul"(%616, %615, %617) <{cast = #linalg.type_fn<cast_signed>, operandSegmentSizes = array<i32: 2, 1>}> ({
    ^bb0(%arg420: f32, %arg421: f32, %arg422: f32):
      %4789 = "arith.mulf"(%arg420, %arg421) <{fastmath = #arith.fastmath<none>}> : (f32, f32) -> f32
      %4790 = "arith.addf"(%arg422, %4789) <{fastmath = #arith.fastmath<none>}> : (f32, f32) -> f32
      "linalg.yield"(%4790) : (f32) -> ()
    }) : (tensor<7x4096xf32>, tensor<4096x11008xf32>, tensor<7x11008xf32>) -> tensor<7x11008xf32>
    %619 = "tosa.reshape"(%618) <{new_shape = array<i64: 1, 7, 11008>}> : (tensor<7x11008xf32>) -> tensor<1x7x11008xf32>
    %620 = "tosa.mul"(%613, %619) <{shift = 0 : i8}> : (tensor<1x7x11008xf32>, tensor<1x7x11008xf32>) -> tensor<1x7x11008xf32>
    %621 = "tosa.const"() <{value = dense<[1, 0]> : tensor<2xi32>}> : () -> tensor<2xi32>
    %622 = "tosa.transpose"(%arg93, %621) : (tensor<4096x11008xf32>, tensor<2xi32>) -> tensor<11008x4096xf32>
    %623 = "tosa.reshape"(%620) <{new_shape = array<i64: 7, 11008>}> : (tensor<1x7x11008xf32>) -> tensor<7x11008xf32>
    %624 = "arith.constant"() <{value = dense<0.000000e+00> : tensor<7x4096xf32>}> : () -> tensor<7x4096xf32>
    %625 = "linalg.matmul"(%623, %622, %624) <{cast = #linalg.type_fn<cast_signed>, operandSegmentSizes = array<i32: 2, 1>}> ({
    ^bb0(%arg420: f32, %arg421: f32, %arg422: f32):
      %4789 = "arith.mulf"(%arg420, %arg421) <{fastmath = #arith.fastmath<none>}> : (f32, f32) -> f32
      %4790 = "arith.addf"(%arg422, %4789) <{fastmath = #arith.fastmath<none>}> : (f32, f32) -> f32
      "linalg.yield"(%4790) : (f32) -> ()
    }) : (tensor<7x11008xf32>, tensor<11008x4096xf32>, tensor<7x4096xf32>) -> tensor<7x4096xf32>
    %626 = "tosa.reshape"(%625) <{new_shape = array<i64: 1, 7, 4096>}> : (tensor<7x4096xf32>) -> tensor<1x7x4096xf32>
    %627 = "tosa.add"(%594, %626) : (tensor<1x7x4096xf32>, tensor<1x7x4096xf32>) -> tensor<1x7x4096xf32>
    %628 = "tensor.empty"() : () -> tensor<1x7x4096xf32>
    %629 = "arith.constant"() <{value = 2 : i32}> : () -> i32
    %630 = "linalg.generic"(%627, %628) <{indexing_maps = [#map5, #map5], iterator_types = [#linalg.iterator_type<parallel>, #linalg.iterator_type<parallel>, #linalg.iterator_type<parallel>], operandSegmentSizes = array<i32: 1, 1>}> ({
    ^bb0(%arg420: f32, %arg421: f32):
      %4789 = "math.fpowi"(%arg420, %629) <{fastmath = #arith.fastmath<none>}> : (f32, i32) -> f32
      "linalg.yield"(%4789) : (f32) -> ()
    }) : (tensor<1x7x4096xf32>, tensor<1x7x4096xf32>) -> tensor<1x7x4096xf32>
    %631 = "arith.constant"() <{value = dense<0.000000e+00> : tensor<1x7x1xf32>}> : () -> tensor<1x7x1xf32>
    %632 = "linalg.generic"(%630, %631) <{indexing_maps = [#map6, #map7], iterator_types = [#linalg.iterator_type<parallel>, #linalg.iterator_type<parallel>, #linalg.iterator_type<reduction>, #linalg.iterator_type<parallel>], operandSegmentSizes = array<i32: 1, 1>}> ({
    ^bb0(%arg420: f32, %arg421: f32):
      %4789 = "arith.constant"() <{value = 4.096000e+03 : f32}> : () -> f32
      %4790 = "arith.divf"(%arg420, %4789) <{fastmath = #arith.fastmath<none>}> : (f32, f32) -> f32
      %4791 = "arith.addf"(%4790, %arg421) <{fastmath = #arith.fastmath<none>}> : (f32, f32) -> f32
      "linalg.yield"(%4791) : (f32) -> ()
    }) : (tensor<1x7x4096xf32>, tensor<1x7x1xf32>) -> tensor<1x7x1xf32>
    %633 = "tosa.const"() <{value = dense<9.99999997E-7> : tensor<1x7x1xf32>}> : () -> tensor<1x7x1xf32>
    %634 = "tosa.add"(%632, %633) : (tensor<1x7x1xf32>, tensor<1x7x1xf32>) -> tensor<1x7x1xf32>
    %635 = "tosa.rsqrt"(%634) : (tensor<1x7x1xf32>) -> tensor<1x7x1xf32>
    %636 = "tosa.mul"(%627, %635) <{shift = 0 : i8}> : (tensor<1x7x4096xf32>, tensor<1x7x1xf32>) -> tensor<1x7x4096xf32>
    %637 = "tosa.reshape"(%arg8) <{new_shape = array<i64: 1, 1, 4096>}> : (tensor<4096xf32>) -> tensor<1x1x4096xf32>
    %638 = "tosa.mul"(%637, %636) <{shift = 0 : i8}> : (tensor<1x1x4096xf32>, tensor<1x7x4096xf32>) -> tensor<1x7x4096xf32>
    %639 = "tosa.const"() <{value = dense<[1, 0]> : tensor<2xi32>}> : () -> tensor<2xi32>
    %640 = "tosa.transpose"(%arg94, %639) : (tensor<4096x4096xf32>, tensor<2xi32>) -> tensor<4096x4096xf32>
    %641 = "tosa.reshape"(%638) <{new_shape = array<i64: 7, 4096>}> : (tensor<1x7x4096xf32>) -> tensor<7x4096xf32>
    %642 = "arith.constant"() <{value = dense<0.000000e+00> : tensor<7x4096xf32>}> : () -> tensor<7x4096xf32>
    %643 = "linalg.matmul"(%641, %640, %642) <{cast = #linalg.type_fn<cast_signed>, operandSegmentSizes = array<i32: 2, 1>}> ({
    ^bb0(%arg420: f32, %arg421: f32, %arg422: f32):
      %4789 = "arith.mulf"(%arg420, %arg421) <{fastmath = #arith.fastmath<none>}> : (f32, f32) -> f32
      %4790 = "arith.addf"(%arg422, %4789) <{fastmath = #arith.fastmath<none>}> : (f32, f32) -> f32
      "linalg.yield"(%4790) : (f32) -> ()
    }) : (tensor<7x4096xf32>, tensor<4096x4096xf32>, tensor<7x4096xf32>) -> tensor<7x4096xf32>
    %644 = "tosa.reshape"(%643) <{new_shape = array<i64: 1, 7, 4096>}> : (tensor<7x4096xf32>) -> tensor<1x7x4096xf32>
    %645 = "tosa.const"() <{value = dense<[1, 0]> : tensor<2xi32>}> : () -> tensor<2xi32>
    %646 = "tosa.transpose"(%arg95, %645) : (tensor<4096x4096xf32>, tensor<2xi32>) -> tensor<4096x4096xf32>
    %647 = "tosa.reshape"(%638) <{new_shape = array<i64: 7, 4096>}> : (tensor<1x7x4096xf32>) -> tensor<7x4096xf32>
    %648 = "arith.constant"() <{value = dense<0.000000e+00> : tensor<1x4096xf32>}> : () -> tensor<1x4096xf32>
    %649 = "linalg.matmul"(%647, %646, %648) <{cast = #linalg.type_fn<cast_signed>, operandSegmentSizes = array<i32: 2, 1>}> ({
    ^bb0(%arg420: f32, %arg421: f32, %arg422: f32):
      %4789 = "arith.mulf"(%arg420, %arg421) <{fastmath = #arith.fastmath<none>}> : (f32, f32) -> f32
      %4790 = "arith.addf"(%arg422, %4789) <{fastmath = #arith.fastmath<none>}> : (f32, f32) -> f32
      "linalg.yield"(%4790) : (f32) -> ()
    }) : (tensor<7x4096xf32>, tensor<4096x4096xf32>, tensor<1x4096xf32>) -> tensor<1x4096xf32>
    %650 = "tensor.empty"() : () -> tensor<7x4096xf32>
    %651 = "tensor.insert_slice"(%649, %650) <{operandSegmentSizes = array<i32: 1, 1, 0, 0, 0>, static_offsets = array<i64: 0, 0>, static_sizes = array<i64: 1, 4096>, static_strides = array<i64: 1, 1>}> : (tensor<1x4096xf32>, tensor<7x4096xf32>) -> tensor<7x4096xf32>
    %652 = "tensor.insert_slice"(%arg356, %651) <{operandSegmentSizes = array<i32: 1, 1, 0, 0, 0>, static_offsets = array<i64: 1, 0>, static_sizes = array<i64: 7, 4096>, static_strides = array<i64: 1, 1>}> : (tensor<7x4096xf32>, tensor<7x4096xf32>) -> tensor<7x4096xf32>
    %653 = "tosa.reshape"(%652) <{new_shape = array<i64: 1, 7, 4096>}> : (tensor<7x4096xf32>) -> tensor<1x7x4096xf32>
    %654 = "tosa.const"() <{value = dense<[1, 0]> : tensor<2xi32>}> : () -> tensor<2xi32>
    %655 = "tosa.transpose"(%arg96, %654) : (tensor<4096x4096xf32>, tensor<2xi32>) -> tensor<4096x4096xf32>
    %656 = "tosa.reshape"(%638) <{new_shape = array<i64: 7, 4096>}> : (tensor<1x7x4096xf32>) -> tensor<7x4096xf32>
    %657 = "arith.constant"() <{value = dense<0.000000e+00> : tensor<1x4096xf32>}> : () -> tensor<1x4096xf32>
    %658 = "linalg.matmul"(%656, %655, %657) <{cast = #linalg.type_fn<cast_signed>, operandSegmentSizes = array<i32: 2, 1>}> ({
    ^bb0(%arg420: f32, %arg421: f32, %arg422: f32):
      %4789 = "arith.mulf"(%arg420, %arg421) <{fastmath = #arith.fastmath<none>}> : (f32, f32) -> f32
      %4790 = "arith.addf"(%arg422, %4789) <{fastmath = #arith.fastmath<none>}> : (f32, f32) -> f32
      "linalg.yield"(%4790) : (f32) -> ()
    }) : (tensor<7x4096xf32>, tensor<4096x4096xf32>, tensor<1x4096xf32>) -> tensor<1x4096xf32>
    %659 = "tensor.empty"() : () -> tensor<7x4096xf32>
    %660 = "tensor.insert_slice"(%658, %659) <{operandSegmentSizes = array<i32: 1, 1, 0, 0, 0>, static_offsets = array<i64: 0, 0>, static_sizes = array<i64: 1, 4096>, static_strides = array<i64: 1, 1>}> : (tensor<1x4096xf32>, tensor<7x4096xf32>) -> tensor<7x4096xf32>
    %661 = "tensor.insert_slice"(%arg356, %660) <{operandSegmentSizes = array<i32: 1, 1, 0, 0, 0>, static_offsets = array<i64: 1, 0>, static_sizes = array<i64: 7, 4096>, static_strides = array<i64: 1, 1>}> : (tensor<7x4096xf32>, tensor<7x4096xf32>) -> tensor<7x4096xf32>
    %662 = "tosa.reshape"(%661) <{new_shape = array<i64: 1, 7, 4096>}> : (tensor<7x4096xf32>) -> tensor<1x7x4096xf32>
    %663 = "tosa.reshape"(%644) <{new_shape = array<i64: 1, 7, 32, 128>}> : (tensor<1x7x4096xf32>) -> tensor<1x7x32x128xf32>
    %664 = "tosa.const"() <{value = dense<[0, 2, 1, 3]> : tensor<4xi32>}> : () -> tensor<4xi32>
    %665 = "tosa.transpose"(%663, %664) : (tensor<1x7x32x128xf32>, tensor<4xi32>) -> tensor<1x32x7x128xf32>
    %666 = "tosa.reshape"(%653) <{new_shape = array<i64: 1, 7, 32, 128>}> : (tensor<1x7x4096xf32>) -> tensor<1x7x32x128xf32>
    %667 = "tosa.const"() <{value = dense<[0, 2, 1, 3]> : tensor<4xi32>}> : () -> tensor<4xi32>
    %668 = "tosa.transpose"(%666, %667) : (tensor<1x7x32x128xf32>, tensor<4xi32>) -> tensor<1x32x7x128xf32>
    %669 = "tosa.reshape"(%662) <{new_shape = array<i64: 1, 7, 32, 128>}> : (tensor<1x7x4096xf32>) -> tensor<1x7x32x128xf32>
    %670 = "tosa.const"() <{value = dense<[0, 2, 1, 3]> : tensor<4xi32>}> : () -> tensor<4xi32>
    %671 = "tosa.transpose"(%669, %670) : (tensor<1x7x32x128xf32>, tensor<4xi32>) -> tensor<1x32x7x128xf32>
    %672 = "tensor.extract_slice"(%arg299) <{operandSegmentSizes = array<i32: 1, 0, 0, 0>, static_offsets = array<i64: 0, 0, 0, 0>, static_sizes = array<i64: 1, 1, 2048, 128>, static_strides = array<i64: 1, 1, 1, 1>}> : (tensor<1x1x2048x128xf32>) -> tensor<1x1x2048x128xf32>
    %673 = "tensor.extract_slice"(%672) <{operandSegmentSizes = array<i32: 1, 0, 0, 0>, static_offsets = array<i64: 0, 0, 0, 0>, static_sizes = array<i64: 1, 1, 2048, 128>, static_strides = array<i64: 1, 1, 1, 1>}> : (tensor<1x1x2048x128xf32>) -> tensor<1x1x2048x128xf32>
    %674 = "tensor.extract_slice"(%673) <{operandSegmentSizes = array<i32: 1, 0, 0, 0>, static_offsets = array<i64: 0, 0, 0, 0>, static_sizes = array<i64: 1, 1, 7, 128>, static_strides = array<i64: 1, 1, 1, 1>}> : (tensor<1x1x2048x128xf32>) -> tensor<1x1x7x128xf32>
    %675 = "tensor.extract_slice"(%arg300) <{operandSegmentSizes = array<i32: 1, 0, 0, 0>, static_offsets = array<i64: 0, 0, 0, 0>, static_sizes = array<i64: 1, 1, 2048, 128>, static_strides = array<i64: 1, 1, 1, 1>}> : (tensor<1x1x2048x128xf32>) -> tensor<1x1x2048x128xf32>
    %676 = "tensor.extract_slice"(%675) <{operandSegmentSizes = array<i32: 1, 0, 0, 0>, static_offsets = array<i64: 0, 0, 0, 0>, static_sizes = array<i64: 1, 1, 2048, 128>, static_strides = array<i64: 1, 1, 1, 1>}> : (tensor<1x1x2048x128xf32>) -> tensor<1x1x2048x128xf32>
    %677 = "tensor.extract_slice"(%676) <{operandSegmentSizes = array<i32: 1, 0, 0, 0>, static_offsets = array<i64: 0, 0, 0, 0>, static_sizes = array<i64: 1, 1, 7, 128>, static_strides = array<i64: 1, 1, 1, 1>}> : (tensor<1x1x2048x128xf32>) -> tensor<1x1x7x128xf32>
    %678 = "tensor.empty"() : () -> tensor<1x7x128xf32>
    %679 = "linalg.generic"(%674, %678) <{indexing_maps = [#map8, #map5], iterator_types = [#linalg.iterator_type<parallel>, #linalg.iterator_type<parallel>, #linalg.iterator_type<parallel>], operandSegmentSizes = array<i32: 1, 1>}> ({
    ^bb0(%arg420: f32, %arg421: f32):
      "linalg.yield"(%arg420) : (f32) -> ()
    }) : (tensor<1x1x7x128xf32>, tensor<1x7x128xf32>) -> tensor<1x7x128xf32>
    %680 = "tensor.empty"() : () -> tensor<7x128xf32>
    %681 = "linalg.generic"(%679, %680) <{indexing_maps = [#map9, #map3], iterator_types = [#linalg.iterator_type<parallel>, #linalg.iterator_type<parallel>], operandSegmentSizes = array<i32: 1, 1>}> ({
    ^bb0(%arg420: f32, %arg421: f32):
      "linalg.yield"(%arg420) : (f32) -> ()
    }) : (tensor<1x7x128xf32>, tensor<7x128xf32>) -> tensor<7x128xf32>
    %682 = "tensor.empty"() : () -> tensor<1x7x128xf32>
    %683 = "linalg.generic"(%677, %682) <{indexing_maps = [#map8, #map5], iterator_types = [#linalg.iterator_type<parallel>, #linalg.iterator_type<parallel>, #linalg.iterator_type<parallel>], operandSegmentSizes = array<i32: 1, 1>}> ({
    ^bb0(%arg420: f32, %arg421: f32):
      "linalg.yield"(%arg420) : (f32) -> ()
    }) : (tensor<1x1x7x128xf32>, tensor<1x7x128xf32>) -> tensor<1x7x128xf32>
    %684 = "tensor.empty"() : () -> tensor<7x128xf32>
    %685 = "linalg.generic"(%683, %684) <{indexing_maps = [#map9, #map3], iterator_types = [#linalg.iterator_type<parallel>, #linalg.iterator_type<parallel>], operandSegmentSizes = array<i32: 1, 1>}> ({
    ^bb0(%arg420: f32, %arg421: f32):
      "linalg.yield"(%arg420) : (f32) -> ()
    }) : (tensor<1x7x128xf32>, tensor<7x128xf32>) -> tensor<7x128xf32>
    %686 = "tensor.empty"() : () -> tensor<1x7x128xf32>
    %687 = "linalg.generic"(%2, %686) <{indexing_maps = [#map2, #map5], iterator_types = [#linalg.iterator_type<parallel>, #linalg.iterator_type<parallel>, #linalg.iterator_type<parallel>], operandSegmentSizes = array<i32: 1, 1>}> ({
    ^bb0(%arg420: i64, %arg421: f32):
      %4789 = "arith.index_cast"(%arg420) : (i64) -> index
      %4790 = "linalg.index"() <{dim = 2 : i64}> : () -> index
      %4791 = "tensor.extract"(%681, %4789, %4790) : (tensor<7x128xf32>, index, index) -> f32
      "linalg.yield"(%4791) : (f32) -> ()
    }) : (tensor<1x7xi64>, tensor<1x7x128xf32>) -> tensor<1x7x128xf32>
    %688 = "tosa.reshape"(%687) <{new_shape = array<i64: 1, 1, 7, 128>}> : (tensor<1x7x128xf32>) -> tensor<1x1x7x128xf32>
    %689 = "tensor.empty"() : () -> tensor<1x7x128xf32>
    %690 = "linalg.generic"(%2, %689) <{indexing_maps = [#map2, #map5], iterator_types = [#linalg.iterator_type<parallel>, #linalg.iterator_type<parallel>, #linalg.iterator_type<parallel>], operandSegmentSizes = array<i32: 1, 1>}> ({
    ^bb0(%arg420: i64, %arg421: f32):
      %4789 = "arith.index_cast"(%arg420) : (i64) -> index
      %4790 = "linalg.index"() <{dim = 2 : i64}> : () -> index
      %4791 = "tensor.extract"(%685, %4789, %4790) : (tensor<7x128xf32>, index, index) -> f32
      "linalg.yield"(%4791) : (f32) -> ()
    }) : (tensor<1x7xi64>, tensor<1x7x128xf32>) -> tensor<1x7x128xf32>
    %691 = "tosa.reshape"(%690) <{new_shape = array<i64: 1, 1, 7, 128>}> : (tensor<1x7x128xf32>) -> tensor<1x1x7x128xf32>
    %692 = "tosa.mul"(%665, %688) <{shift = 0 : i8}> : (tensor<1x32x7x128xf32>, tensor<1x1x7x128xf32>) -> tensor<1x32x7x128xf32>
    %693 = "tensor.extract_slice"(%665) <{operandSegmentSizes = array<i32: 1, 0, 0, 0>, static_offsets = array<i64: 0, 0, 0, 0>, static_sizes = array<i64: 1, 32, 7, 64>, static_strides = array<i64: 1, 1, 1, 1>}> : (tensor<1x32x7x128xf32>) -> tensor<1x32x7x64xf32>
    %694 = "tensor.extract_slice"(%665) <{operandSegmentSizes = array<i32: 1, 0, 0, 0>, static_offsets = array<i64: 0, 0, 0, 64>, static_sizes = array<i64: 1, 32, 7, 64>, static_strides = array<i64: 1, 1, 1, 1>}> : (tensor<1x32x7x128xf32>) -> tensor<1x32x7x64xf32>
    %695 = "tensor.empty"() : () -> tensor<1x32x7x64xf32>
    %696 = "linalg.negf"(%694, %695) <{operandSegmentSizes = array<i32: 1, 1>}> ({
    ^bb0(%arg420: f32, %arg421: f32):
      %4789 = "arith.negf"(%arg420) <{fastmath = #arith.fastmath<none>}> : (f32) -> f32
      "linalg.yield"(%4789) : (f32) -> ()
    }) : (tensor<1x32x7x64xf32>, tensor<1x32x7x64xf32>) -> tensor<1x32x7x64xf32>
    %697 = "tensor.empty"() : () -> tensor<1x32x7x128xf32>
    %698 = "tensor.insert_slice"(%696, %697) <{operandSegmentSizes = array<i32: 1, 1, 0, 0, 0>, static_offsets = array<i64: 0, 0, 0, 0>, static_sizes = array<i64: 1, 32, 7, 64>, static_strides = array<i64: 1, 1, 1, 1>}> : (tensor<1x32x7x64xf32>, tensor<1x32x7x128xf32>) -> tensor<1x32x7x128xf32>
    %699 = "tensor.insert_slice"(%693, %698) <{operandSegmentSizes = array<i32: 1, 1, 0, 0, 0>, static_offsets = array<i64: 0, 0, 0, 64>, static_sizes = array<i64: 1, 32, 7, 64>, static_strides = array<i64: 1, 1, 1, 1>}> : (tensor<1x32x7x64xf32>, tensor<1x32x7x128xf32>) -> tensor<1x32x7x128xf32>
    %700 = "tosa.mul"(%699, %691) <{shift = 0 : i8}> : (tensor<1x32x7x128xf32>, tensor<1x1x7x128xf32>) -> tensor<1x32x7x128xf32>
    %701 = "tosa.add"(%692, %700) : (tensor<1x32x7x128xf32>, tensor<1x32x7x128xf32>) -> tensor<1x32x7x128xf32>
    %702 = "tosa.mul"(%668, %688) <{shift = 0 : i8}> : (tensor<1x32x7x128xf32>, tensor<1x1x7x128xf32>) -> tensor<1x32x7x128xf32>
    %703 = "tensor.extract_slice"(%668) <{operandSegmentSizes = array<i32: 1, 0, 0, 0>, static_offsets = array<i64: 0, 0, 0, 0>, static_sizes = array<i64: 1, 32, 7, 64>, static_strides = array<i64: 1, 1, 1, 1>}> : (tensor<1x32x7x128xf32>) -> tensor<1x32x7x64xf32>
    %704 = "tensor.extract_slice"(%668) <{operandSegmentSizes = array<i32: 1, 0, 0, 0>, static_offsets = array<i64: 0, 0, 0, 64>, static_sizes = array<i64: 1, 32, 7, 64>, static_strides = array<i64: 1, 1, 1, 1>}> : (tensor<1x32x7x128xf32>) -> tensor<1x32x7x64xf32>
    %705 = "tensor.empty"() : () -> tensor<1x32x7x64xf32>
    %706 = "linalg.negf"(%704, %705) <{operandSegmentSizes = array<i32: 1, 1>}> ({
    ^bb0(%arg420: f32, %arg421: f32):
      %4789 = "arith.negf"(%arg420) <{fastmath = #arith.fastmath<none>}> : (f32) -> f32
      "linalg.yield"(%4789) : (f32) -> ()
    }) : (tensor<1x32x7x64xf32>, tensor<1x32x7x64xf32>) -> tensor<1x32x7x64xf32>
    %707 = "tensor.empty"() : () -> tensor<1x32x7x128xf32>
    %708 = "tensor.insert_slice"(%706, %707) <{operandSegmentSizes = array<i32: 1, 1, 0, 0, 0>, static_offsets = array<i64: 0, 0, 0, 0>, static_sizes = array<i64: 1, 32, 7, 64>, static_strides = array<i64: 1, 1, 1, 1>}> : (tensor<1x32x7x64xf32>, tensor<1x32x7x128xf32>) -> tensor<1x32x7x128xf32>
    %709 = "tensor.insert_slice"(%703, %708) <{operandSegmentSizes = array<i32: 1, 1, 0, 0, 0>, static_offsets = array<i64: 0, 0, 0, 64>, static_sizes = array<i64: 1, 32, 7, 64>, static_strides = array<i64: 1, 1, 1, 1>}> : (tensor<1x32x7x64xf32>, tensor<1x32x7x128xf32>) -> tensor<1x32x7x128xf32>
    %710 = "tosa.mul"(%709, %691) <{shift = 0 : i8}> : (tensor<1x32x7x128xf32>, tensor<1x1x7x128xf32>) -> tensor<1x32x7x128xf32>
    %711 = "tosa.add"(%702, %710) : (tensor<1x32x7x128xf32>, tensor<1x32x7x128xf32>) -> tensor<1x32x7x128xf32>
    %712 = "tosa.const"() <{value = dense<[0, 1, 3, 2]> : tensor<4xi32>}> : () -> tensor<4xi32>
    %713 = "tosa.transpose"(%711, %712) : (tensor<1x32x7x128xf32>, tensor<4xi32>) -> tensor<1x32x128x7xf32>
    %714 = "tosa.reshape"(%701) <{new_shape = array<i64: 32, 7, 128>}> : (tensor<1x32x7x128xf32>) -> tensor<32x7x128xf32>
    %715 = "tosa.reshape"(%713) <{new_shape = array<i64: 32, 128, 7>}> : (tensor<1x32x128x7xf32>) -> tensor<32x128x7xf32>
    %716 = "tosa.matmul"(%714, %715) : (tensor<32x7x128xf32>, tensor<32x128x7xf32>) -> tensor<32x7x7xf32>
    %717 = "tosa.reshape"(%716) <{new_shape = array<i64: 1, 32, 7, 7>}> : (tensor<32x7x7xf32>) -> tensor<1x32x7x7xf32>
    %718 = "tosa.const"() <{value = dense<11.3137083> : tensor<1x32x7x7xf32>}> : () -> tensor<1x32x7x7xf32>
    %719 = "tosa.reciprocal"(%718) : (tensor<1x32x7x7xf32>) -> tensor<1x32x7x7xf32>
    %720 = "tosa.mul"(%717, %719) <{shift = 0 : i8}> : (tensor<1x32x7x7xf32>, tensor<1x32x7x7xf32>) -> tensor<1x32x7x7xf32>
    %721 = "tosa.add"(%720, %35) : (tensor<1x32x7x7xf32>, tensor<1x1x7x7xf32>) -> tensor<1x32x7x7xf32>
    %722 = "tosa.reduce_max"(%721) <{axis = 3 : i32}> : (tensor<1x32x7x7xf32>) -> tensor<1x32x7x1xf32>
    %723 = "tosa.sub"(%721, %722) : (tensor<1x32x7x7xf32>, tensor<1x32x7x1xf32>) -> tensor<1x32x7x7xf32>
    %724 = "tosa.exp"(%723) : (tensor<1x32x7x7xf32>) -> tensor<1x32x7x7xf32>
    %725 = "tosa.reduce_sum"(%724) <{axis = 3 : i32}> : (tensor<1x32x7x7xf32>) -> tensor<1x32x7x1xf32>
    %726 = "tosa.reciprocal"(%725) : (tensor<1x32x7x1xf32>) -> tensor<1x32x7x1xf32>
    %727 = "tosa.mul"(%724, %726) <{shift = 0 : i8}> : (tensor<1x32x7x7xf32>, tensor<1x32x7x1xf32>) -> tensor<1x32x7x7xf32>
    %728 = "tosa.reshape"(%727) <{new_shape = array<i64: 32, 7, 7>}> : (tensor<1x32x7x7xf32>) -> tensor<32x7x7xf32>
…
    %4514 = "tosa.reshape"(%4501) <{new_shape = array<i64: 1, 7, 32, 128>}> : (tensor<1x7x4096xf32>) -> tensor<1x7x32x128xf32>
    %4515 = "tosa.const"() <{value = dense<[0, 2, 1, 3]> : tensor<4xi32>}> : () -> tensor<4xi32>
    %4516 = "tosa.transpose"(%4514, %4515) : (tensor<1x7x32x128xf32>, tensor<4xi32>) -> tensor<1x32x7x128xf32>
    %4517 = "tosa.reshape"(%4510) <{new_shape = array<i64: 1, 7, 32, 128>}> : (tensor<1x7x4096xf32>) -> tensor<1x7x32x128xf32>
    %4518 = "tosa.const"() <{value = dense<[0, 2, 1, 3]> : tensor<4xi32>}> : () -> tensor<4xi32>
    %4519 = "tosa.transpose"(%4517, %4518) : (tensor<1x7x32x128xf32>, tensor<4xi32>) -> tensor<1x32x7x128xf32>
    %4520 = "tensor.extract_slice"(%arg351) <{operandSegmentSizes = array<i32: 1, 0, 0, 0>, static_offsets = array<i64: 0, 0, 0, 0>, static_sizes = array<i64: 1, 1, 2048, 128>, static_strides = array<i64: 1, 1, 1, 1>}> : (tensor<1x1x2048x128xf32>) -> tensor<1x1x2048x128xf32>
    %4521 = "tensor.extract_slice"(%4520) <{operandSegmentSizes = array<i32: 1, 0, 0, 0>, static_offsets = array<i64: 0, 0, 0, 0>, static_sizes = array<i64: 1, 1, 2048, 128>, static_strides = array<i64: 1, 1, 1, 1>}> : (tensor<1x1x2048x128xf32>) -> tensor<1x1x2048x128xf32>
    %4522 = "tensor.extract_slice"(%4521) <{operandSegmentSizes = array<i32: 1, 0, 0, 0>, static_offsets = array<i64: 0, 0, 0, 0>, static_sizes = array<i64: 1, 1, 7, 128>, static_strides = array<i64: 1, 1, 1, 1>}> : (tensor<1x1x2048x128xf32>) -> tensor<1x1x7x128xf32>
    %4523 = "tensor.extract_slice"(%arg352) <{operandSegmentSizes = array<i32: 1, 0, 0, 0>, static_offsets = array<i64: 0, 0, 0, 0>, static_sizes = array<i64: 1, 1, 2048, 128>, static_strides = array<i64: 1, 1, 1, 1>}> : (tensor<1x1x2048x128xf32>) -> tensor<1x1x2048x128xf32>
    %4524 = "tensor.extract_slice"(%4523) <{operandSegmentSizes = array<i32: 1, 0, 0, 0>, static_offsets = array<i64: 0, 0, 0, 0>, static_sizes = array<i64: 1, 1, 2048, 128>, static_strides = array<i64: 1, 1, 1, 1>}> : (tensor<1x1x2048x128xf32>) -> tensor<1x1x2048x128xf32>
    %4525 = "tensor.extract_slice"(%4524) <{operandSegmentSizes = array<i32: 1, 0, 0, 0>, static_offsets = array<i64: 0, 0, 0, 0>, static_sizes = array<i64: 1, 1, 7, 128>, static_strides = array<i64: 1, 1, 1, 1>}> : (tensor<1x1x2048x128xf32>) -> tensor<1x1x7x128xf32>
    %4526 = "tensor.empty"() : () -> tensor<1x7x128xf32>
    %4527 = "linalg.generic"(%4522, %4526) <{indexing_maps = [#map8, #map5], iterator_types = [#linalg.iterator_type<parallel>, #linalg.iterator_type<parallel>, #linalg.iterator_type<parallel>], operandSegmentSizes = array<i32: 1, 1>}> ({
    ^bb0(%arg420: f32, %arg421: f32):
      "linalg.yield"(%arg420) : (f32) -> ()
    }) : (tensor<1x1x7x128xf32>, tensor<1x7x128xf32>) -> tensor<1x7x128xf32>
    %4528 = "tensor.empty"() : () -> tensor<7x128xf32>
    %4529 = "linalg.generic"(%4527, %4528) <{indexing_maps = [#map9, #map3], iterator_types = [#linalg.iterator_type<parallel>, #linalg.iterator_type<parallel>], operandSegmentSizes = array<i32: 1, 1>}> ({
    ^bb0(%arg420: f32, %arg421: f32):
      "linalg.yield"(%arg420) : (f32) -> ()
    }) : (tensor<1x7x128xf32>, tensor<7x128xf32>) -> tensor<7x128xf32>
    %4530 = "tensor.empty"() : () -> tensor<1x7x128xf32>
    %4531 = "linalg.generic"(%4525, %4530) <{indexing_maps = [#map8, #map5], iterator_types = [#linalg.iterator_type<parallel>, #linalg.iterator_type<parallel>, #linalg.iterator_type<parallel>], operandSegmentSizes = array<i32: 1, 1>}> ({
    ^bb0(%arg420: f32, %arg421: f32):
      "linalg.yield"(%arg420) : (f32) -> ()
    }) : (tensor<1x1x7x128xf32>, tensor<1x7x128xf32>) -> tensor<1x7x128xf32>
    %4532 = "tensor.empty"() : () -> tensor<7x128xf32>
    %4533 = "linalg.generic"(%4531, %4532) <{indexing_maps = [#map9, #map3], iterator_types = [#linalg.iterator_type<parallel>, #linalg.iterator_type<parallel>], operandSegmentSizes = array<i32: 1, 1>}> ({
    ^bb0(%arg420: f32, %arg421: f32):
      "linalg.yield"(%arg420) : (f32) -> ()
    }) : (tensor<1x7x128xf32>, tensor<7x128xf32>) -> tensor<7x128xf32>
    %4534 = "tensor.empty"() : () -> tensor<1x7x128xf32>
    %4535 = "linalg.generic"(%2, %4534) <{indexing_maps = [#map2, #map5], iterator_types = [#linalg.iterator_type<parallel>, #linalg.iterator_type<parallel>, #linalg.iterator_type<parallel>], operandSegmentSizes = array<i32: 1, 1>}> ({
    ^bb0(%arg420: i64, %arg421: f32):
      %4789 = "arith.index_cast"(%arg420) : (i64) -> index
      %4790 = "linalg.index"() <{dim = 2 : i64}> : () -> index
      %4791 = "tensor.extract"(%4529, %4789, %4790) : (tensor<7x128xf32>, index, index) -> f32
      "linalg.yield"(%4791) : (f32) -> ()
    }) : (tensor<1x7xi64>, tensor<1x7x128xf32>) -> tensor<1x7x128xf32>
    %4536 = "tosa.reshape"(%4535) <{new_shape = array<i64: 1, 1, 7, 128>}> : (tensor<1x7x128xf32>) -> tensor<1x1x7x128xf32>
    %4537 = "tensor.empty"() : () -> tensor<1x7x128xf32>
    %4538 = "linalg.generic"(%2, %4537) <{indexing_maps = [#map2, #map5], iterator_types = [#linalg.iterator_type<parallel>, #linalg.iterator_type<parallel>, #linalg.iterator_type<parallel>], operandSegmentSizes = array<i32: 1, 1>}> ({
    ^bb0(%arg420: i64, %arg421: f32):
      %4789 = "arith.index_cast"(%arg420) : (i64) -> index
      %4790 = "linalg.index"() <{dim = 2 : i64}> : () -> index
      %4791 = "tensor.extract"(%4533, %4789, %4790) : (tensor<7x128xf32>, index, index) -> f32
      "linalg.yield"(%4791) : (f32) -> ()
    }) : (tensor<1x7xi64>, tensor<1x7x128xf32>) -> tensor<1x7x128xf32>
    %4539 = "tosa.reshape"(%4538) <{new_shape = array<i64: 1, 1, 7, 128>}> : (tensor<1x7x128xf32>) -> tensor<1x1x7x128xf32>
    %4540 = "tosa.mul"(%4513, %4536) <{shift = 0 : i8}> : (tensor<1x32x7x128xf32>, tensor<1x1x7x128xf32>) -> tensor<1x32x7x128xf32>
    %4541 = "tensor.extract_slice"(%4513) <{operandSegmentSizes = array<i32: 1, 0, 0, 0>, static_offsets = array<i64: 0, 0, 0, 0>, static_sizes = array<i64: 1, 32, 7, 64>, static_strides = array<i64: 1, 1, 1, 1>}> : (tensor<1x32x7x128xf32>) -> tensor<1x32x7x64xf32>
    %4542 = "tensor.extract_slice"(%4513) <{operandSegmentSizes = array<i32: 1, 0, 0, 0>, static_offsets = array<i64: 0, 0, 0, 64>, static_sizes = array<i64: 1, 32, 7, 64>, static_strides = array<i64: 1, 1, 1, 1>}> : (tensor<1x32x7x128xf32>) -> tensor<1x32x7x64xf32>
    %4543 = "tensor.empty"() : () -> tensor<1x32x7x64xf32>
    %4544 = "linalg.negf"(%4542, %4543) <{operandSegmentSizes = array<i32: 1, 1>}> ({
    ^bb0(%arg420: f32, %arg421: f32):
      %4789 = "arith.negf"(%arg420) <{fastmath = #arith.fastmath<none>}> : (f32) -> f32
      "linalg.yield"(%4789) : (f32) -> ()
    }) : (tensor<1x32x7x64xf32>, tensor<1x32x7x64xf32>) -> tensor<1x32x7x64xf32>
    %4545 = "tensor.empty"() : () -> tensor<1x32x7x128xf32>
    %4546 = "tensor.insert_slice"(%4544, %4545) <{operandSegmentSizes = array<i32: 1, 1, 0, 0, 0>, static_offsets = array<i64: 0, 0, 0, 0>, static_sizes = array<i64: 1, 32, 7, 64>, static_strides = array<i64: 1, 1, 1, 1>}> : (tensor<1x32x7x64xf32>, tensor<1x32x7x128xf32>) -> tensor<1x32x7x128xf32>
    %4547 = "tensor.insert_slice"(%4541, %4546) <{operandSegmentSizes = array<i32: 1, 1, 0, 0, 0>, static_offsets = array<i64: 0, 0, 0, 64>, static_sizes = array<i64: 1, 32, 7, 64>, static_strides = array<i64: 1, 1, 1, 1>}> : (tensor<1x32x7x64xf32>, tensor<1x32x7x128xf32>) -> tensor<1x32x7x128xf32>
    %4548 = "tosa.mul"(%4547, %4539) <{shift = 0 : i8}> : (tensor<1x32x7x128xf32>, tensor<1x1x7x128xf32>) -> tensor<1x32x7x128xf32>
    %4549 = "tosa.add"(%4540, %4548) : (tensor<1x32x7x128xf32>, tensor<1x32x7x128xf32>) -> tensor<1x32x7x128xf32>
    %4550 = "tosa.mul"(%4516, %4536) <{shift = 0 : i8}> : (tensor<1x32x7x128xf32>, tensor<1x1x7x128xf32>) -> tensor<1x32x7x128xf32>
    %4551 = "tensor.extract_slice"(%4516) <{operandSegmentSizes = array<i32: 1, 0, 0, 0>, static_offsets = array<i64: 0, 0, 0, 0>, static_sizes = array<i64: 1, 32, 7, 64>, static_strides = array<i64: 1, 1, 1, 1>}> : (tensor<1x32x7x128xf32>) -> tensor<1x32x7x64xf32>
    %4552 = "tensor.extract_slice"(%4516) <{operandSegmentSizes = array<i32: 1, 0, 0, 0>, static_offsets = array<i64: 0, 0, 0, 64>, static_sizes = array<i64: 1, 32, 7, 64>, static_strides = array<i64: 1, 1, 1, 1>}> : (tensor<1x32x7x128xf32>) -> tensor<1x32x7x64xf32>
    %4553 = "tensor.empty"() : () -> tensor<1x32x7x64xf32>
    %4554 = "linalg.negf"(%4552, %4553) <{operandSegmentSizes = array<i32: 1, 1>}> ({
    ^bb0(%arg420: f32, %arg421: f32):
      %4789 = "arith.negf"(%arg420) <{fastmath = #arith.fastmath<none>}> : (f32) -> f32
      "linalg.yield"(%4789) : (f32) -> ()
    }) : (tensor<1x32x7x64xf32>, tensor<1x32x7x64xf32>) -> tensor<1x32x7x64xf32>
    %4555 = "tensor.empty"() : () -> tensor<1x32x7x128xf32>
    %4556 = "tensor.insert_slice"(%4554, %4555) <{operandSegmentSizes = array<i32: 1, 1, 0, 0, 0>, static_offsets = array<i64: 0, 0, 0, 0>, static_sizes = array<i64: 1, 32, 7, 64>, static_strides = array<i64: 1, 1, 1, 1>}> : (tensor<1x32x7x64xf32>, tensor<1x32x7x128xf32>) -> tensor<1x32x7x128xf32>
    %4557 = "tensor.insert_slice"(%4551, %4556) <{operandSegmentSizes = array<i32: 1, 1, 0, 0, 0>, static_offsets = array<i64: 0, 0, 0, 64>, static_sizes = array<i64: 1, 32, 7, 64>, static_strides = array<i64: 1, 1, 1, 1>}> : (tensor<1x32x7x64xf32>, tensor<1x32x7x128xf32>) -> tensor<1x32x7x128xf32>
    %4558 = "tosa.mul"(%4557, %4539) <{shift = 0 : i8}> : (tensor<1x32x7x128xf32>, tensor<1x1x7x128xf32>) -> tensor<1x32x7x128xf32>
    %4559 = "tosa.add"(%4550, %4558) : (tensor<1x32x7x128xf32>, tensor<1x32x7x128xf32>) -> tensor<1x32x7x128xf32>
    %4560 = "tosa.const"() <{value = dense<[0, 1, 3, 2]> : tensor<4xi32>}> : () -> tensor<4xi32>
    %4561 = "tosa.transpose"(%4559, %4560) : (tensor<1x32x7x128xf32>, tensor<4xi32>) -> tensor<1x32x128x7xf32>
    %4562 = "tosa.reshape"(%4549) <{new_shape = array<i64: 32, 7, 128>}> : (tensor<1x32x7x128xf32>) -> tensor<32x7x128xf32>
    %4563 = "tosa.reshape"(%4561) <{new_shape = array<i64: 32, 128, 7>}> : (tensor<1x32x128x7xf32>) -> tensor<32x128x7xf32>
    %4564 = "tosa.matmul"(%4562, %4563) : (tensor<32x7x128xf32>, tensor<32x128x7xf32>) -> tensor<32x7x7xf32>
    %4565 = "tosa.reshape"(%4564) <{new_shape = array<i64: 1, 32, 7, 7>}> : (tensor<32x7x7xf32>) -> tensor<1x32x7x7xf32>
    %4566 = "tosa.const"() <{value = dense<11.3137083> : tensor<1x32x7x7xf32>}> : () -> tensor<1x32x7x7xf32>
    %4567 = "tosa.reciprocal"(%4566) : (tensor<1x32x7x7xf32>) -> tensor<1x32x7x7xf32>
    %4568 = "tosa.mul"(%4565, %4567) <{shift = 0 : i8}> : (tensor<1x32x7x7xf32>, tensor<1x32x7x7xf32>) -> tensor<1x32x7x7xf32>
    %4569 = "tosa.add"(%4568, %35) : (tensor<1x32x7x7xf32>, tensor<1x1x7x7xf32>) -> tensor<1x32x7x7xf32>
    %4570 = "tosa.reduce_max"(%4569) <{axis = 3 : i32}> : (tensor<1x32x7x7xf32>) -> tensor<1x32x7x1xf32>
    %4571 = "tosa.sub"(%4569, %4570) : (tensor<1x32x7x7xf32>, tensor<1x32x7x1xf32>) -> tensor<1x32x7x7xf32>
    %4572 = "tosa.exp"(%4571) : (tensor<1x32x7x7xf32>) -> tensor<1x32x7x7xf32>
    %4573 = "tosa.reduce_sum"(%4572) <{axis = 3 : i32}> : (tensor<1x32x7x7xf32>) -> tensor<1x32x7x1xf32>
    %4574 = "tosa.reciprocal"(%4573) : (tensor<1x32x7x1xf32>) -> tensor<1x32x7x1xf32>
    %4575 = "tosa.mul"(%4572, %4574) <{shift = 0 : i8}> : (tensor<1x32x7x7xf32>, tensor<1x32x7x1xf32>) -> tensor<1x32x7x7xf32>
    %4576 = "tosa.reshape"(%4575) <{new_shape = array<i64: 32, 7, 7>}> : (tensor<1x32x7x7xf32>) -> tensor<32x7x7xf32>
    %4577 = "tosa.reshape"(%4519) <{new_shape = array<i64: 32, 7, 128>}> : (tensor<1x32x7x128xf32>) -> tensor<32x7x128xf32>
    %4578 = "tosa.matmul"(%4576, %4577) : (tensor<32x7x7xf32>, tensor<32x7x128xf32>) -> tensor<32x7x128xf32>
    %4579 = "tosa.reshape"(%4578) <{new_shape = array<i64: 1, 32, 7, 128>}> : (tensor<32x7x128xf32>) -> tensor<1x32x7x128xf32>
    %4580 = "tosa.const"() <{value = dense<[0, 2, 1, 3]> : tensor<4xi32>}> : () -> tensor<4xi32>
    %4581 = "tosa.transpose"(%4579, %4580) : (tensor<1x32x7x128xf32>, tensor<4xi32>) -> tensor<1x7x32x128xf32>
    %4582 = "tosa.identity"(%4581) : (tensor<1x7x32x128xf32>) -> tensor<1x7x32x128xf32>
    %4583 = "tosa.reshape"(%4582) <{new_shape = array<i64: 1, 7, 4096>}> : (tensor<1x7x32x128xf32>) -> tensor<1x7x4096xf32>
    %4584 = "tosa.const"() <{value = dense<[1, 0]> : tensor<2xi32>}> : () -> tensor<2xi32>
    %4585 = "tosa.transpose"(%arg279, %4584) : (tensor<4096x4096xf32>, tensor<2xi32>) -> tensor<4096x4096xf32>
    %4586 = "tosa.reshape"(%4583) <{new_shape = array<i64: 7, 4096>}> : (tensor<1x7x4096xf32>) -> tensor<7x4096xf32>
    %4587 = "arith.constant"() <{value = dense<0.000000e+00> : tensor<7x4096xf32>}> : () -> tensor<7x4096xf32>
    %4588 = "linalg.matmul"(%4586, %4585, %4587) <{cast = #linalg.type_fn<cast_signed>, operandSegmentSizes = array<i32: 2, 1>}> ({
    ^bb0(%arg420: f32, %arg421: f32, %arg422: f32):
      %4789 = "arith.mulf"(%arg420, %arg421) <{fastmath = #arith.fastmath<none>}> : (f32, f32) -> f32
      %4790 = "arith.addf"(%arg422, %4789) <{fastmath = #arith.fastmath<none>}> : (f32, f32) -> f32
      "linalg.yield"(%4790) : (f32) -> ()
    }) : (tensor<7x4096xf32>, tensor<4096x4096xf32>, tensor<7x4096xf32>) -> tensor<7x4096xf32>
    %4589 = "tosa.reshape"(%4588) <{new_shape = array<i64: 1, 7, 4096>}> : (tensor<7x4096xf32>) -> tensor<1x7x4096xf32>
    %4590 = "tosa.add"(%4475, %4589) : (tensor<1x7x4096xf32>, tensor<1x7x4096xf32>) -> tensor<1x7x4096xf32>
    %4591 = "tensor.empty"() : () -> tensor<1x7x4096xf32>
    %4592 = "arith.constant"() <{value = 2 : i32}> : () -> i32
    %4593 = "linalg.generic"(%4590, %4591) <{indexing_maps = [#map5, #map5], iterator_types = [#linalg.iterator_type<parallel>, #linalg.iterator_type<parallel>, #linalg.iterator_type<parallel>], operandSegmentSizes = array<i32: 1, 1>}> ({
    ^bb0(%arg420: f32, %arg421: f32):
      %4789 = "math.fpowi"(%arg420, %4592) <{fastmath = #arith.fastmath<none>}> : (f32, i32) -> f32
      "linalg.yield"(%4789) : (f32) -> ()
    }) : (tensor<1x7x4096xf32>, tensor<1x7x4096xf32>) -> tensor<1x7x4096xf32>
    %4594 = "arith.constant"() <{value = dense<0.000000e+00> : tensor<1x7x1xf32>}> : () -> tensor<1x7x1xf32>
    %4595 = "linalg.generic"(%4593, %4594) <{indexing_maps = [#map6, #map7], iterator_types = [#linalg.iterator_type<parallel>, #linalg.iterator_type<parallel>, #linalg.iterator_type<reduction>, #linalg.iterator_type<parallel>], operandSegmentSizes = array<i32: 1, 1>}> ({
    ^bb0(%arg420: f32, %arg421: f32):
      %4789 = "arith.constant"() <{value = 4.096000e+03 : f32}> : () -> f32
      %4790 = "arith.divf"(%arg420, %4789) <{fastmath = #arith.fastmath<none>}> : (f32, f32) -> f32
      %4791 = "arith.addf"(%4790, %arg421) <{fastmath = #arith.fastmath<none>}> : (f32, f32) -> f32
      "linalg.yield"(%4791) : (f32) -> ()
    }) : (tensor<1x7x4096xf32>, tensor<1x7x1xf32>) -> tensor<1x7x1xf32>
    %4596 = "tosa.const"() <{value = dense<9.99999997E-7> : tensor<1x7x1xf32>}> : () -> tensor<1x7x1xf32>
    %4597 = "tosa.add"(%4595, %4596) : (tensor<1x7x1xf32>, tensor<1x7x1xf32>) -> tensor<1x7x1xf32>
    %4598 = "tosa.rsqrt"(%4597) : (tensor<1x7x1xf32>) -> tensor<1x7x1xf32>
    %4599 = "tosa.mul"(%4590, %4598) <{shift = 0 : i8}> : (tensor<1x7x4096xf32>, tensor<1x7x1xf32>) -> tensor<1x7x4096xf32>
    %4600 = "tosa.reshape"(%arg61) <{new_shape = array<i64: 1, 1, 4096>}> : (tensor<4096xf32>) -> tensor<1x1x4096xf32>
    %4601 = "tosa.mul"(%4600, %4599) <{shift = 0 : i8}> : (tensor<1x1x4096xf32>, tensor<1x7x4096xf32>) -> tensor<1x7x4096xf32>
    %4602 = "tosa.const"() <{value = dense<[1, 0]> : tensor<2xi32>}> : () -> tensor<2xi32>
    %4603 = "tosa.transpose"(%arg280, %4602) : (tensor<11008x4096xf32>, tensor<2xi32>) -> tensor<4096x11008xf32>
    %4604 = "tosa.reshape"(%4601) <{new_shape = array<i64: 7, 4096>}> : (tensor<1x7x4096xf32>) -> tensor<7x4096xf32>
    %4605 = "arith.constant"() <{value = dense<0.000000e+00> : tensor<7x11008xf32>}> : () -> tensor<7x11008xf32>
    %4606 = "linalg.matmul"(%4604, %4603, %4605) <{cast = #linalg.type_fn<cast_signed>, operandSegmentSizes = array<i32: 2, 1>}> ({
    ^bb0(%arg420: f32, %arg421: f32, %arg422: f32):
      %4789 = "arith.mulf"(%arg420, %arg421) <{fastmath = #arith.fastmath<none>}> : (f32, f32) -> f32
      %4790 = "arith.addf"(%arg422, %4789) <{fastmath = #arith.fastmath<none>}> : (f32, f32) -> f32
      "linalg.yield"(%4790) : (f32) -> ()
    }) : (tensor<7x4096xf32>, tensor<4096x11008xf32>, tensor<7x11008xf32>) -> tensor<7x11008xf32>
    %4607 = "tosa.reshape"(%4606) <{new_shape = array<i64: 1, 7, 11008>}> : (tensor<7x11008xf32>) -> tensor<1x7x11008xf32>
    %4608 = "tosa.sigmoid"(%4607) : (tensor<1x7x11008xf32>) -> tensor<1x7x11008xf32>
    %4609 = "tosa.mul"(%4607, %4608) <{shift = 0 : i8}> : (tensor<1x7x11008xf32>, tensor<1x7x11008xf32>) -> tensor<1x7x11008xf32>
    %4610 = "tosa.const"() <{value = dense<[1, 0]> : tensor<2xi32>}> : () -> tensor<2xi32>
    %4611 = "tosa.transpose"(%arg281, %4610) : (tensor<11008x4096xf32>, tensor<2xi32>) -> tensor<4096x11008xf32>
    %4612 = "tosa.reshape"(%4601) <{new_shape = array<i64: 7, 4096>}> : (tensor<1x7x4096xf32>) -> tensor<7x4096xf32>
    %4613 = "arith.constant"() <{value = dense<0.000000e+00> : tensor<7x11008xf32>}> : () -> tensor<7x11008xf32>
    %4614 = "linalg.matmul"(%4612, %4611, %4613) <{cast = #linalg.type_fn<cast_signed>, operandSegmentSizes = array<i32: 2, 1>}> ({
    ^bb0(%arg420: f32, %arg421: f32, %arg422: f32):
      %4789 = "arith.mulf"(%arg420, %arg421) <{fastmath = #arith.fastmath<none>}> : (f32, f32) -> f32
      %4790 = "arith.addf"(%arg422, %4789) <{fastmath = #arith.fastmath<none>}> : (f32, f32) -> f32
      "linalg.yield"(%4790) : (f32) -> ()
    }) : (tensor<7x4096xf32>, tensor<4096x11008xf32>, tensor<7x11008xf32>) -> tensor<7x11008xf32>
    %4615 = "tosa.reshape"(%4614) <{new_shape = array<i64: 1, 7, 11008>}> : (tensor<7x11008xf32>) -> tensor<1x7x11008xf32>
    %4616 = "tosa.mul"(%4609, %4615) <{shift = 0 : i8}> : (tensor<1x7x11008xf32>, tensor<1x7x11008xf32>) -> tensor<1x7x11008xf32>
    %4617 = "tosa.const"() <{value = dense<[1, 0]> : tensor<2xi32>}> : () -> tensor<2xi32>
    %4618 = "tosa.transpose"(%arg282, %4617) : (tensor<4096x11008xf32>, tensor<2xi32>) -> tensor<11008x4096xf32>
    %4619 = "tosa.reshape"(%4616) <{new_shape = array<i64: 7, 11008>}> : (tensor<1x7x11008xf32>) -> tensor<7x11008xf32>
    %4620 = "arith.constant"() <{value = dense<0.000000e+00> : tensor<7x4096xf32>}> : () -> tensor<7x4096xf32>
    %4621 = "linalg.matmul"(%4619, %4618, %4620) <{cast = #linalg.type_fn<cast_signed>, operandSegmentSizes = array<i32: 2, 1>}> ({
    ^bb0(%arg420: f32, %arg421: f32, %arg422: f32):
      %4789 = "arith.mulf"(%arg420, %arg421) <{fastmath = #arith.fastmath<none>}> : (f32, f32) -> f32
      %4790 = "arith.addf"(%arg422, %4789) <{fastmath = #arith.fastmath<none>}> : (f32, f32) -> f32
      "linalg.yield"(%4790) : (f32) -> ()
    }) : (tensor<7x11008xf32>, tensor<11008x4096xf32>, tensor<7x4096xf32>) -> tensor<7x4096xf32>
    %4622 = "tosa.reshape"(%4621) <{new_shape = array<i64: 1, 7, 4096>}> : (tensor<7x4096xf32>) -> tensor<1x7x4096xf32>
    %4623 = "tosa.add"(%4590, %4622) : (tensor<1x7x4096xf32>, tensor<1x7x4096xf32>) -> tensor<1x7x4096xf32>
    %4624 = "tensor.empty"() : () -> tensor<1x7x4096xf32>
    %4625 = "arith.constant"() <{value = 2 : i32}> : () -> i32
    %4626 = "linalg.generic"(%4623, %4624) <{indexing_maps = [#map5, #map5], iterator_types = [#linalg.iterator_type<parallel>, #linalg.iterator_type<parallel>, #linalg.iterator_type<parallel>], operandSegmentSizes = array<i32: 1, 1>}> ({
    ^bb0(%arg420: f32, %arg421: f32):
      %4789 = "math.fpowi"(%arg420, %4625) <{fastmath = #arith.fastmath<none>}> : (f32, i32) -> f32
      "linalg.yield"(%4789) : (f32) -> ()
    }) : (tensor<1x7x4096xf32>, tensor<1x7x4096xf32>) -> tensor<1x7x4096xf32>
    %4627 = "arith.constant"() <{value = dense<0.000000e+00> : tensor<1x7x1xf32>}> : () -> tensor<1x7x1xf32>
    %4628 = "linalg.generic"(%4626, %4627) <{indexing_maps = [#map6, #map7], iterator_types = [#linalg.iterator_type<parallel>, #linalg.iterator_type<parallel>, #linalg.iterator_type<reduction>, #linalg.iterator_type<parallel>], operandSegmentSizes = array<i32: 1, 1>}> ({
    ^bb0(%arg420: f32, %arg421: f32):
      %4789 = "arith.constant"() <{value = 4.096000e+03 : f32}> : () -> f32
      %4790 = "arith.divf"(%arg420, %4789) <{fastmath = #arith.fastmath<none>}> : (f32, f32) -> f32
      %4791 = "arith.addf"(%4790, %arg421) <{fastmath = #arith.fastmath<none>}> : (f32, f32) -> f32
      "linalg.yield"(%4791) : (f32) -> ()
    }) : (tensor<1x7x4096xf32>, tensor<1x7x1xf32>) -> tensor<1x7x1xf32>
    %4629 = "tosa.const"() <{value = dense<9.99999997E-7> : tensor<1x7x1xf32>}> : () -> tensor<1x7x1xf32>
    %4630 = "tosa.add"(%4628, %4629) : (tensor<1x7x1xf32>, tensor<1x7x1xf32>) -> tensor<1x7x1xf32>
    %4631 = "tosa.rsqrt"(%4630) : (tensor<1x7x1xf32>) -> tensor<1x7x1xf32>
    %4632 = "tosa.mul"(%4623, %4631) <{shift = 0 : i8}> : (tensor<1x7x4096xf32>, tensor<1x7x1xf32>) -> tensor<1x7x4096xf32>
    %4633 = "tosa.reshape"(%arg62) <{new_shape = array<i64: 1, 1, 4096>}> : (tensor<4096xf32>) -> tensor<1x1x4096xf32>
    %4634 = "tosa.mul"(%4633, %4632) <{shift = 0 : i8}> : (tensor<1x1x4096xf32>, tensor<1x7x4096xf32>) -> tensor<1x7x4096xf32>
    %4635 = "tosa.const"() <{value = dense<[1, 0]> : tensor<2xi32>}> : () -> tensor<2xi32>
    %4636 = "tosa.transpose"(%arg283, %4635) : (tensor<4096x4096xf32>, tensor<2xi32>) -> tensor<4096x4096xf32>
    %4637 = "tosa.reshape"(%4634) <{new_shape = array<i64: 7, 4096>}> : (tensor<1x7x4096xf32>) -> tensor<7x4096xf32>
    %4638 = "arith.constant"() <{value = dense<0.000000e+00> : tensor<7x4096xf32>}> : () -> tensor<7x4096xf32>
    %4639 = "linalg.matmul"(%4637, %4636, %4638) <{cast = #linalg.type_fn<cast_signed>, operandSegmentSizes = array<i32: 2, 1>}> ({
    ^bb0(%arg420: f32, %arg421: f32, %arg422: f32):
      %4789 = "arith.mulf"(%arg420, %arg421) <{fastmath = #arith.fastmath<none>}> : (f32, f32) -> f32
      %4790 = "arith.addf"(%arg422, %4789) <{fastmath = #arith.fastmath<none>}> : (f32, f32) -> f32
      "linalg.yield"(%4790) : (f32) -> ()
    }) : (tensor<7x4096xf32>, tensor<4096x4096xf32>, tensor<7x4096xf32>) -> tensor<7x4096xf32>
    %4640 = "tosa.reshape"(%4639) <{new_shape = array<i64: 1, 7, 4096>}> : (tensor<7x4096xf32>) -> tensor<1x7x4096xf32>
    %4641 = "tosa.const"() <{value = dense<[1, 0]> : tensor<2xi32>}> : () -> tensor<2xi32>
    %4642 = "tosa.transpose"(%arg284, %4641) : (tensor<4096x4096xf32>, tensor<2xi32>) -> tensor<4096x4096xf32>
    %4643 = "tosa.reshape"(%4634) <{new_shape = array<i64: 7, 4096>}> : (tensor<1x7x4096xf32>) -> tensor<7x4096xf32>
    %4644 = "arith.constant"() <{value = dense<0.000000e+00> : tensor<1x4096xf32>}> : () -> tensor<1x4096xf32>
    %4645 = "linalg.matmul"(%4643, %4642, %4644) <{cast = #linalg.type_fn<cast_signed>, operandSegmentSizes = array<i32: 2, 1>}> ({
    ^bb0(%arg420: f32, %arg421: f32, %arg422: f32):
      %4789 = "arith.mulf"(%arg420, %arg421) <{fastmath = #arith.fastmath<none>}> : (f32, f32) -> f32
      %4790 = "arith.addf"(%arg422, %4789) <{fastmath = #arith.fastmath<none>}> : (f32, f32) -> f32
      "linalg.yield"(%4790) : (f32) -> ()
    }) : (tensor<7x4096xf32>, tensor<4096x4096xf32>, tensor<1x4096xf32>) -> tensor<1x4096xf32>
    %4646 = "tensor.empty"() : () -> tensor<7x4096xf32>
    %4647 = "tensor.insert_slice"(%4645, %4646) <{operandSegmentSizes = array<i32: 1, 1, 0, 0, 0>, static_offsets = array<i64: 0, 0>, static_sizes = array<i64: 1, 4096>, static_strides = array<i64: 1, 1>}> : (tensor<1x4096xf32>, tensor<7x4096xf32>) -> tensor<7x4096xf32>
    %4648 = "tensor.insert_slice"(%arg356, %4647) <{operandSegmentSizes = array<i32: 1, 1, 0, 0, 0>, static_offsets = array<i64: 1, 0>, static_sizes = array<i64: 7, 4096>, static_strides = array<i64: 1, 1>}> : (tensor<7x4096xf32>, tensor<7x4096xf32>) -> tensor<7x4096xf32>
    %4649 = "tosa.reshape"(%4648) <{new_shape = array<i64: 1, 7, 4096>}> : (tensor<7x4096xf32>) -> tensor<1x7x4096xf32>
    %4650 = "tosa.const"() <{value = dense<[1, 0]> : tensor<2xi32>}> : () -> tensor<2xi32>
    %4651 = "tosa.transpose"(%arg285, %4650) : (tensor<4096x4096xf32>, tensor<2xi32>) -> tensor<4096x4096xf32>
    %4652 = "tosa.reshape"(%4634) <{new_shape = array<i64: 7, 4096>}> : (tensor<1x7x4096xf32>) -> tensor<7x4096xf32>
    %4653 = "arith.constant"() <{value = dense<0.000000e+00> : tensor<1x4096xf32>}> : () -> tensor<1x4096xf32>
    %4654 = "linalg.matmul"(%4652, %4651, %4653) <{cast = #linalg.type_fn<cast_signed>, operandSegmentSizes = array<i32: 2, 1>}> ({
    ^bb0(%arg420: f32, %arg421: f32, %arg422: f32):
      %4789 = "arith.mulf"(%arg420, %arg421) <{fastmath = #arith.fastmath<none>}> : (f32, f32) -> f32
      %4790 = "arith.addf"(%arg422, %4789) <{fastmath = #arith.fastmath<none>}> : (f32, f32) -> f32
      "linalg.yield"(%4790) : (f32) -> ()
    }) : (tensor<7x4096xf32>, tensor<4096x4096xf32>, tensor<1x4096xf32>) -> tensor<1x4096xf32>
    %4655 = "tensor.empty"() : () -> tensor<7x4096xf32>
    %4656 = "tensor.insert_slice"(%4654, %4655) <{operandSegmentSizes = array<i32: 1, 1, 0, 0, 0>, static_offsets = array<i64: 0, 0>, static_sizes = array<i64: 1, 4096>, static_strides = array<i64: 1, 1>}> : (tensor<1x4096xf32>, tensor<7x4096xf32>) -> tensor<7x4096xf32>
    %4657 = "tensor.insert_slice"(%arg356, %4656) <{operandSegmentSizes = array<i32: 1, 1, 0, 0, 0>, static_offsets = array<i64: 1, 0>, static_sizes = array<i64: 7, 4096>, static_strides = array<i64: 1, 1>}> : (tensor<7x4096xf32>, tensor<7x4096xf32>) -> tensor<7x4096xf32>
    %4658 = "tosa.reshape"(%4657) <{new_shape = array<i64: 1, 7, 4096>}> : (tensor<7x4096xf32>) -> tensor<1x7x4096xf32>
    %4659 = "tosa.reshape"(%4640) <{new_shape = array<i64: 1, 7, 32, 128>}> : (tensor<1x7x4096xf32>) -> tensor<1x7x32x128xf32>
    %4660 = "tosa.const"() <{value = dense<[0, 2, 1, 3]> : tensor<4xi32>}> : () -> tensor<4xi32>
    %4661 = "tosa.transpose"(%4659, %4660) : (tensor<1x7x32x128xf32>, tensor<4xi32>) -> tensor<1x32x7x128xf32>
    %4662 = "tosa.reshape"(%4649) <{new_shape = array<i64: 1, 7, 32, 128>}> : (tensor<1x7x4096xf32>) -> tensor<1x7x32x128xf32>
    %4663 = "tosa.const"() <{value = dense<[0, 2, 1, 3]> : tensor<4xi32>}> : () -> tensor<4xi32>
    %4664 = "tosa.transpose"(%4662, %4663) : (tensor<1x7x32x128xf32>, tensor<4xi32>) -> tensor<1x32x7x128xf32>
    %4665 = "tosa.reshape"(%4658) <{new_shape = array<i64: 1, 7, 32, 128>}> : (tensor<1x7x4096xf32>) -> tensor<1x7x32x128xf32>
    %4666 = "tosa.const"() <{value = dense<[0, 2, 1, 3]> : tensor<4xi32>}> : () -> tensor<4xi32>
    %4667 = "tosa.transpose"(%4665, %4666) : (tensor<1x7x32x128xf32>, tensor<4xi32>) -> tensor<1x32x7x128xf32>
    %4668 = "tensor.extract_slice"(%arg353) <{operandSegmentSizes = array<i32: 1, 0, 0, 0>, static_offsets = array<i64: 0, 0, 0, 0>, static_sizes = array<i64: 1, 1, 2048, 128>, static_strides = array<i64: 1, 1, 1, 1>}> : (tensor<1x1x2048x128xf32>) -> tensor<1x1x2048x128xf32>
    %4669 = "tensor.extract_slice"(%4668) <{operandSegmentSizes = array<i32: 1, 0, 0, 0>, static_offsets = array<i64: 0, 0, 0, 0>, static_sizes = array<i64: 1, 1, 2048, 128>, static_strides = array<i64: 1, 1, 1, 1>}> : (tensor<1x1x2048x128xf32>) -> tensor<1x1x2048x128xf32>
    %4670 = "tensor.extract_slice"(%4669) <{operandSegmentSizes = array<i32: 1, 0, 0, 0>, static_offsets = array<i64: 0, 0, 0, 0>, static_sizes = array<i64: 1, 1, 7, 128>, static_strides = array<i64: 1, 1, 1, 1>}> : (tensor<1x1x2048x128xf32>) -> tensor<1x1x7x128xf32>
    %4671 = "tensor.extract_slice"(%arg354) <{operandSegmentSizes = array<i32: 1, 0, 0, 0>, static_offsets = array<i64: 0, 0, 0, 0>, static_sizes = array<i64: 1, 1, 2048, 128>, static_strides = array<i64: 1, 1, 1, 1>}> : (tensor<1x1x2048x128xf32>) -> tensor<1x1x2048x128xf32>
    %4672 = "tensor.extract_slice"(%4671) <{operandSegmentSizes = array<i32: 1, 0, 0, 0>, static_offsets = array<i64: 0, 0, 0, 0>, static_sizes = array<i64: 1, 1, 2048, 128>, static_strides = array<i64: 1, 1, 1, 1>}> : (tensor<1x1x2048x128xf32>) -> tensor<1x1x2048x128xf32>
    %4673 = "tensor.extract_slice"(%4672) <{operandSegmentSizes = array<i32: 1, 0, 0, 0>, static_offsets = array<i64: 0, 0, 0, 0>, static_sizes = array<i64: 1, 1, 7, 128>, static_strides = array<i64: 1, 1, 1, 1>}> : (tensor<1x1x2048x128xf32>) -> tensor<1x1x7x128xf32>
    %4674 = "tensor.empty"() : () -> tensor<1x7x128xf32>
    %4675 = "linalg.generic"(%4670, %4674) <{indexing_maps = [#map8, #map5], iterator_types = [#linalg.iterator_type<parallel>, #linalg.iterator_type<parallel>, #linalg.iterator_type<parallel>], operandSegmentSizes = array<i32: 1, 1>}> ({
    ^bb0(%arg420: f32, %arg421: f32):
      "linalg.yield"(%arg420) : (f32) -> ()
    }) : (tensor<1x1x7x128xf32>, tensor<1x7x128xf32>) -> tensor<1x7x128xf32>
    %4676 = "tensor.empty"() : () -> tensor<7x128xf32>
    %4677 = "linalg.generic"(%4675, %4676) <{indexing_maps = [#map9, #map3], iterator_types = [#linalg.iterator_type<parallel>, #linalg.iterator_type<parallel>], operandSegmentSizes = array<i32: 1, 1>}> ({
    ^bb0(%arg420: f32, %arg421: f32):
      "linalg.yield"(%arg420) : (f32) -> ()
    }) : (tensor<1x7x128xf32>, tensor<7x128xf32>) -> tensor<7x128xf32>
    %4678 = "tensor.empty"() : () -> tensor<1x7x128xf32>
    %4679 = "linalg.generic"(%4673, %4678) <{indexing_maps = [#map8, #map5], iterator_types = [#linalg.iterator_type<parallel>, #linalg.iterator_type<parallel>, #linalg.iterator_type<parallel>], operandSegmentSizes = array<i32: 1, 1>}> ({
    ^bb0(%arg420: f32, %arg421: f32):
      "linalg.yield"(%arg420) : (f32) -> ()
    }) : (tensor<1x1x7x128xf32>, tensor<1x7x128xf32>) -> tensor<1x7x128xf32>
    %4680 = "tensor.empty"() : () -> tensor<7x128xf32>
    %4681 = "linalg.generic"(%4679, %4680) <{indexing_maps = [#map9, #map3], iterator_types = [#linalg.iterator_type<parallel>, #linalg.iterator_type<parallel>], operandSegmentSizes = array<i32: 1, 1>}> ({
    ^bb0(%arg420: f32, %arg421: f32):
      "linalg.yield"(%arg420) : (f32) -> ()
    }) : (tensor<1x7x128xf32>, tensor<7x128xf32>) -> tensor<7x128xf32>
    %4682 = "tensor.empty"() : () -> tensor<1x7x128xf32>
    %4683 = "linalg.generic"(%2, %4682) <{indexing_maps = [#map2, #map5], iterator_types = [#linalg.iterator_type<parallel>, #linalg.iterator_type<parallel>, #linalg.iterator_type<parallel>], operandSegmentSizes = array<i32: 1, 1>}> ({
    ^bb0(%arg420: i64, %arg421: f32):
      %4789 = "arith.index_cast"(%arg420) : (i64) -> index
      %4790 = "linalg.index"() <{dim = 2 : i64}> : () -> index
      %4791 = "tensor.extract"(%4677, %4789, %4790) : (tensor<7x128xf32>, index, index) -> f32
      "linalg.yield"(%4791) : (f32) -> ()
    }) : (tensor<1x7xi64>, tensor<1x7x128xf32>) -> tensor<1x7x128xf32>
    %4684 = "tosa.reshape"(%4683) <{new_shape = array<i64: 1, 1, 7, 128>}> : (tensor<1x7x128xf32>) -> tensor<1x1x7x128xf32>
    %4685 = "tensor.empty"() : () -> tensor<1x7x128xf32>
    %4686 = "linalg.generic"(%2, %4685) <{indexing_maps = [#map2, #map5], iterator_types = [#linalg.iterator_type<parallel>, #linalg.iterator_type<parallel>, #linalg.iterator_type<parallel>], operandSegmentSizes = array<i32: 1, 1>}> ({
    ^bb0(%arg420: i64, %arg421: f32):
      %4789 = "arith.index_cast"(%arg420) : (i64) -> index
      %4790 = "linalg.index"() <{dim = 2 : i64}> : () -> index
      %4791 = "tensor.extract"(%4681, %4789, %4790) : (tensor<7x128xf32>, index, index) -> f32
      "linalg.yield"(%4791) : (f32) -> ()
    }) : (tensor<1x7xi64>, tensor<1x7x128xf32>) -> tensor<1x7x128xf32>
    %4687 = "tosa.reshape"(%4686) <{new_shape = array<i64: 1, 1, 7, 128>}> : (tensor<1x7x128xf32>) -> tensor<1x1x7x128xf32>
    %4688 = "tosa.mul"(%4661, %4684) <{shift = 0 : i8}> : (tensor<1x32x7x128xf32>, tensor<1x1x7x128xf32>) -> tensor<1x32x7x128xf32>
    %4689 = "tensor.extract_slice"(%4661) <{operandSegmentSizes = array<i32: 1, 0, 0, 0>, static_offsets = array<i64: 0, 0, 0, 0>, static_sizes = array<i64: 1, 32, 7, 64>, static_strides = array<i64: 1, 1, 1, 1>}> : (tensor<1x32x7x128xf32>) -> tensor<1x32x7x64xf32>
    %4690 = "tensor.extract_slice"(%4661) <{operandSegmentSizes = array<i32: 1, 0, 0, 0>, static_offsets = array<i64: 0, 0, 0, 64>, static_sizes = array<i64: 1, 32, 7, 64>, static_strides = array<i64: 1, 1, 1, 1>}> : (tensor<1x32x7x128xf32>) -> tensor<1x32x7x64xf32>
    %4691 = "tensor.empty"() : () -> tensor<1x32x7x64xf32>
    %4692 = "linalg.negf"(%4690, %4691) <{operandSegmentSizes = array<i32: 1, 1>}> ({
    ^bb0(%arg420: f32, %arg421: f32):
      %4789 = "arith.negf"(%arg420) <{fastmath = #arith.fastmath<none>}> : (f32) -> f32
      "linalg.yield"(%4789) : (f32) -> ()
    }) : (tensor<1x32x7x64xf32>, tensor<1x32x7x64xf32>) -> tensor<1x32x7x64xf32>
    %4693 = "tensor.empty"() : () -> tensor<1x32x7x128xf32>
    %4694 = "tensor.insert_slice"(%4692, %4693) <{operandSegmentSizes = array<i32: 1, 1, 0, 0, 0>, static_offsets = array<i64: 0, 0, 0, 0>, static_sizes = array<i64: 1, 32, 7, 64>, static_strides = array<i64: 1, 1, 1, 1>}> : (tensor<1x32x7x64xf32>, tensor<1x32x7x128xf32>) -> tensor<1x32x7x128xf32>
    %4695 = "tensor.insert_slice"(%4689, %4694) <{operandSegmentSizes = array<i32: 1, 1, 0, 0, 0>, static_offsets = array<i64: 0, 0, 0, 64>, static_sizes = array<i64: 1, 32, 7, 64>, static_strides = array<i64: 1, 1, 1, 1>}> : (tensor<1x32x7x64xf32>, tensor<1x32x7x128xf32>) -> tensor<1x32x7x128xf32>
    %4696 = "tosa.mul"(%4695, %4687) <{shift = 0 : i8}> : (tensor<1x32x7x128xf32>, tensor<1x1x7x128xf32>) -> tensor<1x32x7x128xf32>
    %4697 = "tosa.add"(%4688, %4696) : (tensor<1x32x7x128xf32>, tensor<1x32x7x128xf32>) -> tensor<1x32x7x128xf32>
    %4698 = "tosa.mul"(%4664, %4684) <{shift = 0 : i8}> : (tensor<1x32x7x128xf32>, tensor<1x1x7x128xf32>) -> tensor<1x32x7x128xf32>
    %4699 = "tensor.extract_slice"(%4664) <{operandSegmentSizes = array<i32: 1, 0, 0, 0>, static_offsets = array<i64: 0, 0, 0, 0>, static_sizes = array<i64: 1, 32, 7, 64>, static_strides = array<i64: 1, 1, 1, 1>}> : (tensor<1x32x7x128xf32>) -> tensor<1x32x7x64xf32>
    %4700 = "tensor.extract_slice"(%4664) <{operandSegmentSizes = array<i32: 1, 0, 0, 0>, static_offsets = array<i64: 0, 0, 0, 64>, static_sizes = array<i64: 1, 32, 7, 64>, static_strides = array<i64: 1, 1, 1, 1>}> : (tensor<1x32x7x128xf32>) -> tensor<1x32x7x64xf32>
    %4701 = "tensor.empty"() : () -> tensor<1x32x7x64xf32>
    %4702 = "linalg.negf"(%4700, %4701) <{operandSegmentSizes = array<i32: 1, 1>}> ({
    ^bb0(%arg420: f32, %arg421: f32):
      %4789 = "arith.negf"(%arg420) <{fastmath = #arith.fastmath<none>}> : (f32) -> f32
      "linalg.yield"(%4789) : (f32) -> ()
    }) : (tensor<1x32x7x64xf32>, tensor<1x32x7x64xf32>) -> tensor<1x32x7x64xf32>
    %4703 = "tensor.empty"() : () -> tensor<1x32x7x128xf32>
    %4704 = "tensor.insert_slice"(%4702, %4703) <{operandSegmentSizes = array<i32: 1, 1, 0, 0, 0>, static_offsets = array<i64: 0, 0, 0, 0>, static_sizes = array<i64: 1, 32, 7, 64>, static_strides = array<i64: 1, 1, 1, 1>}> : (tensor<1x32x7x64xf32>, tensor<1x32x7x128xf32>) -> tensor<1x32x7x128xf32>
    %4705 = "tensor.insert_slice"(%4699, %4704) <{operandSegmentSizes = array<i32: 1, 1, 0, 0, 0>, static_offsets = array<i64: 0, 0, 0, 64>, static_sizes = array<i64: 1, 32, 7, 64>, static_strides = array<i64: 1, 1, 1, 1>}> : (tensor<1x32x7x64xf32>, tensor<1x32x7x128xf32>) -> tensor<1x32x7x128xf32>
    %4706 = "tosa.mul"(%4705, %4687) <{shift = 0 : i8}> : (tensor<1x32x7x128xf32>, tensor<1x1x7x128xf32>) -> tensor<1x32x7x128xf32>
    %4707 = "tosa.add"(%4698, %4706) : (tensor<1x32x7x128xf32>, tensor<1x32x7x128xf32>) -> tensor<1x32x7x128xf32>
    %4708 = "tosa.const"() <{value = dense<[0, 1, 3, 2]> : tensor<4xi32>}> : () -> tensor<4xi32>
    %4709 = "tosa.transpose"(%4707, %4708) : (tensor<1x32x7x128xf32>, tensor<4xi32>) -> tensor<1x32x128x7xf32>
    %4710 = "tosa.reshape"(%4697) <{new_shape = array<i64: 32, 7, 128>}> : (tensor<1x32x7x128xf32>) -> tensor<32x7x128xf32>
    %4711 = "tosa.reshape"(%4709) <{new_shape = array<i64: 32, 128, 7>}> : (tensor<1x32x128x7xf32>) -> tensor<32x128x7xf32>
    %4712 = "tosa.matmul"(%4710, %4711) : (tensor<32x7x128xf32>, tensor<32x128x7xf32>) -> tensor<32x7x7xf32>
    %4713 = "tosa.reshape"(%4712) <{new_shape = array<i64: 1, 32, 7, 7>}> : (tensor<32x7x7xf32>) -> tensor<1x32x7x7xf32>
    %4714 = "tosa.const"() <{value = dense<11.3137083> : tensor<1x32x7x7xf32>}> : () -> tensor<1x32x7x7xf32>
    %4715 = "tosa.reciprocal"(%4714) : (tensor<1x32x7x7xf32>) -> tensor<1x32x7x7xf32>
    %4716 = "tosa.mul"(%4713, %4715) <{shift = 0 : i8}> : (tensor<1x32x7x7xf32>, tensor<1x32x7x7xf32>) -> tensor<1x32x7x7xf32>
    %4717 = "tosa.add"(%4716, %35) : (tensor<1x32x7x7xf32>, tensor<1x1x7x7xf32>) -> tensor<1x32x7x7xf32>
    %4718 = "tosa.reduce_max"(%4717) <{axis = 3 : i32}> : (tensor<1x32x7x7xf32>) -> tensor<1x32x7x1xf32>
    %4719 = "tosa.sub"(%4717, %4718) : (tensor<1x32x7x7xf32>, tensor<1x32x7x1xf32>) -> tensor<1x32x7x7xf32>
    %4720 = "tosa.exp"(%4719) : (tensor<1x32x7x7xf32>) -> tensor<1x32x7x7xf32>
    %4721 = "tosa.reduce_sum"(%4720) <{axis = 3 : i32}> : (tensor<1x32x7x7xf32>) -> tensor<1x32x7x1xf32>
    %4722 = "tosa.reciprocal"(%4721) : (tensor<1x32x7x1xf32>) -> tensor<1x32x7x1xf32>
    %4723 = "tosa.mul"(%4720, %4722) <{shift = 0 : i8}> : (tensor<1x32x7x7xf32>, tensor<1x32x7x1xf32>) -> tensor<1x32x7x7xf32>
    %4724 = "tosa.reshape"(%4723) <{new_shape = array<i64: 32, 7, 7>}> : (tensor<1x32x7x7xf32>) -> tensor<32x7x7xf32>
    %4725 = "tosa.reshape"(%4667) <{new_shape = array<i64: 32, 7, 128>}> : (tensor<1x32x7x128xf32>) -> tensor<32x7x128xf32>
    %4726 = "tosa.matmul"(%4724, %4725) : (tensor<32x7x7xf32>, tensor<32x7x128xf32>) -> tensor<32x7x128xf32>
    %4727 = "tosa.reshape"(%4726) <{new_shape = array<i64: 1, 32, 7, 128>}> : (tensor<32x7x128xf32>) -> tensor<1x32x7x128xf32>
    %4728 = "tosa.const"() <{value = dense<[0, 2, 1, 3]> : tensor<4xi32>}> : () -> tensor<4xi32>
    %4729 = "tosa.transpose"(%4727, %4728) : (tensor<1x32x7x128xf32>, tensor<4xi32>) -> tensor<1x7x32x128xf32>
    %4730 = "tosa.identity"(%4729) : (tensor<1x7x32x128xf32>) -> tensor<1x7x32x128xf32>
    %4731 = "tosa.reshape"(%4730) <{new_shape = array<i64: 1, 7, 4096>}> : (tensor<1x7x32x128xf32>) -> tensor<1x7x4096xf32>
    %4732 = "tosa.const"() <{value = dense<[1, 0]> : tensor<2xi32>}> : () -> tensor<2xi32>
    %4733 = "tosa.transpose"(%arg286, %4732) : (tensor<4096x4096xf32>, tensor<2xi32>) -> tensor<4096x4096xf32>
    %4734 = "tosa.reshape"(%4731) <{new_shape = array<i64: 7, 4096>}> : (tensor<1x7x4096xf32>) -> tensor<7x4096xf32>
    %4735 = "arith.constant"() <{value = dense<0.000000e+00> : tensor<7x4096xf32>}> : () -> tensor<7x4096xf32>
    %4736 = "linalg.matmul"(%4734, %4733, %4735) <{cast = #linalg.type_fn<cast_signed>, operandSegmentSizes = array<i32: 2, 1>}> ({
    ^bb0(%arg420: f32, %arg421: f32, %arg422: f32):
      %4789 = "arith.mulf"(%arg420, %arg421) <{fastmath = #arith.fastmath<none>}> : (f32, f32) -> f32
      %4790 = "arith.addf"(%arg422, %4789) <{fastmath = #arith.fastmath<none>}> : (f32, f32) -> f32
      "linalg.yield"(%4790) : (f32) -> ()
    }) : (tensor<7x4096xf32>, tensor<4096x4096xf32>, tensor<7x4096xf32>) -> tensor<7x4096xf32>
    %4737 = "tosa.reshape"(%4736) <{new_shape = array<i64: 1, 7, 4096>}> : (tensor<7x4096xf32>) -> tensor<1x7x4096xf32>
    %4738 = "tosa.add"(%4623, %4737) : (tensor<1x7x4096xf32>, tensor<1x7x4096xf32>) -> tensor<1x7x4096xf32>
    %4739 = "tensor.empty"() : () -> tensor<1x7x4096xf32>
    %4740 = "arith.constant"() <{value = 2 : i32}> : () -> i32
    %4741 = "linalg.generic"(%4738, %4739) <{indexing_maps = [#map5, #map5], iterator_types = [#linalg.iterator_type<parallel>, #linalg.iterator_type<parallel>, #linalg.iterator_type<parallel>], operandSegmentSizes = array<i32: 1, 1>}> ({
    ^bb0(%arg420: f32, %arg421: f32):
      %4789 = "math.fpowi"(%arg420, %4740) <{fastmath = #arith.fastmath<none>}> : (f32, i32) -> f32
      "linalg.yield"(%4789) : (f32) -> ()
    }) : (tensor<1x7x4096xf32>, tensor<1x7x4096xf32>) -> tensor<1x7x4096xf32>
    %4742 = "arith.constant"() <{value = dense<0.000000e+00> : tensor<1x7x1xf32>}> : () -> tensor<1x7x1xf32>
    %4743 = "linalg.generic"(%4741, %4742) <{indexing_maps = [#map6, #map7], iterator_types = [#linalg.iterator_type<parallel>, #linalg.iterator_type<parallel>, #linalg.iterator_type<reduction>, #linalg.iterator_type<parallel>], operandSegmentSizes = array<i32: 1, 1>}> ({
    ^bb0(%arg420: f32, %arg421: f32):
      %4789 = "arith.constant"() <{value = 4.096000e+03 : f32}> : () -> f32
      %4790 = "arith.divf"(%arg420, %4789) <{fastmath = #arith.fastmath<none>}> : (f32, f32) -> f32
      %4791 = "arith.addf"(%4790, %arg421) <{fastmath = #arith.fastmath<none>}> : (f32, f32) -> f32
      "linalg.yield"(%4791) : (f32) -> ()
    }) : (tensor<1x7x4096xf32>, tensor<1x7x1xf32>) -> tensor<1x7x1xf32>
    %4744 = "tosa.const"() <{value = dense<9.99999997E-7> : tensor<1x7x1xf32>}> : () -> tensor<1x7x1xf32>
    %4745 = "tosa.add"(%4743, %4744) : (tensor<1x7x1xf32>, tensor<1x7x1xf32>) -> tensor<1x7x1xf32>
    %4746 = "tosa.rsqrt"(%4745) : (tensor<1x7x1xf32>) -> tensor<1x7x1xf32>
    %4747 = "tosa.mul"(%4738, %4746) <{shift = 0 : i8}> : (tensor<1x7x4096xf32>, tensor<1x7x1xf32>) -> tensor<1x7x4096xf32>
    %4748 = "tosa.reshape"(%arg63) <{new_shape = array<i64: 1, 1, 4096>}> : (tensor<4096xf32>) -> tensor<1x1x4096xf32>
    %4749 = "tosa.mul"(%4748, %4747) <{shift = 0 : i8}> : (tensor<1x1x4096xf32>, tensor<1x7x4096xf32>) -> tensor<1x7x4096xf32>
    %4750 = "tosa.const"() <{value = dense<[1, 0]> : tensor<2xi32>}> : () -> tensor<2xi32>
    %4751 = "tosa.transpose"(%arg287, %4750) : (tensor<11008x4096xf32>, tensor<2xi32>) -> tensor<4096x11008xf32>
    %4752 = "tosa.reshape"(%4749) <{new_shape = array<i64: 7, 4096>}> : (tensor<1x7x4096xf32>) -> tensor<7x4096xf32>
    %4753 = "arith.constant"() <{value = dense<0.000000e+00> : tensor<7x11008xf32>}> : () -> tensor<7x11008xf32>
    %4754 = "linalg.matmul"(%4752, %4751, %4753) <{cast = #linalg.type_fn<cast_signed>, operandSegmentSizes = array<i32: 2, 1>}> ({
    ^bb0(%arg420: f32, %arg421: f32, %arg422: f32):
      %4789 = "arith.mulf"(%arg420, %arg421) <{fastmath = #arith.fastmath<none>}> : (f32, f32) -> f32
      %4790 = "arith.addf"(%arg422, %4789) <{fastmath = #arith.fastmath<none>}> : (f32, f32) -> f32
      "linalg.yield"(%4790) : (f32) -> ()
    }) : (tensor<7x4096xf32>, tensor<4096x11008xf32>, tensor<7x11008xf32>) -> tensor<7x11008xf32>
    %4755 = "tosa.reshape"(%4754) <{new_shape = array<i64: 1, 7, 11008>}> : (tensor<7x11008xf32>) -> tensor<1x7x11008xf32>
    %4756 = "tosa.sigmoid"(%4755) : (tensor<1x7x11008xf32>) -> tensor<1x7x11008xf32>
    %4757 = "tosa.mul"(%4755, %4756) <{shift = 0 : i8}> : (tensor<1x7x11008xf32>, tensor<1x7x11008xf32>) -> tensor<1x7x11008xf32>
    %4758 = "tosa.const"() <{value = dense<[1, 0]> : tensor<2xi32>}> : () -> tensor<2xi32>
    %4759 = "tosa.transpose"(%arg288, %4758) : (tensor<11008x4096xf32>, tensor<2xi32>) -> tensor<4096x11008xf32>
    %4760 = "tosa.reshape"(%4749) <{new_shape = array<i64: 7, 4096>}> : (tensor<1x7x4096xf32>) -> tensor<7x4096xf32>
    %4761 = "arith.constant"() <{value = dense<0.000000e+00> : tensor<7x11008xf32>}> : () -> tensor<7x11008xf32>
    %4762 = "linalg.matmul"(%4760, %4759, %4761) <{cast = #linalg.type_fn<cast_signed>, operandSegmentSizes = array<i32: 2, 1>}> ({
    ^bb0(%arg420: f32, %arg421: f32, %arg422: f32):
      %4789 = "arith.mulf"(%arg420, %arg421) <{fastmath = #arith.fastmath<none>}> : (f32, f32) -> f32
      %4790 = "arith.addf"(%arg422, %4789) <{fastmath = #arith.fastmath<none>}> : (f32, f32) -> f32
      "linalg.yield"(%4790) : (f32) -> ()
    }) : (tensor<7x4096xf32>, tensor<4096x11008xf32>, tensor<7x11008xf32>) -> tensor<7x11008xf32>
    %4763 = "tosa.reshape"(%4762) <{new_shape = array<i64: 1, 7, 11008>}> : (tensor<7x11008xf32>) -> tensor<1x7x11008xf32>
    %4764 = "tosa.mul"(%4757, %4763) <{shift = 0 : i8}> : (tensor<1x7x11008xf32>, tensor<1x7x11008xf32>) -> tensor<1x7x11008xf32>
    %4765 = "tosa.const"() <{value = dense<[1, 0]> : tensor<2xi32>}> : () -> tensor<2xi32>
    %4766 = "tosa.transpose"(%arg289, %4765) : (tensor<4096x11008xf32>, tensor<2xi32>) -> tensor<11008x4096xf32>
    %4767 = "tosa.reshape"(%4764) <{new_shape = array<i64: 7, 11008>}> : (tensor<1x7x11008xf32>) -> tensor<7x11008xf32>
    %4768 = "arith.constant"() <{value = dense<0.000000e+00> : tensor<7x4096xf32>}> : () -> tensor<7x4096xf32>
    %4769 = "linalg.matmul"(%4767, %4766, %4768) <{cast = #linalg.type_fn<cast_signed>, operandSegmentSizes = array<i32: 2, 1>}> ({
    ^bb0(%arg420: f32, %arg421: f32, %arg422: f32):
      %4789 = "arith.mulf"(%arg420, %arg421) <{fastmath = #arith.fastmath<none>}> : (f32, f32) -> f32
      %4790 = "arith.addf"(%arg422, %4789) <{fastmath = #arith.fastmath<none>}> : (f32, f32) -> f32
      "linalg.yield"(%4790) : (f32) -> ()
    }) : (tensor<7x11008xf32>, tensor<11008x4096xf32>, tensor<7x4096xf32>) -> tensor<7x4096xf32>
    %4770 = "tosa.reshape"(%4769) <{new_shape = array<i64: 1, 7, 4096>}> : (tensor<7x4096xf32>) -> tensor<1x7x4096xf32>
    %4771 = "tosa.add"(%4738, %4770) : (tensor<1x7x4096xf32>, tensor<1x7x4096xf32>) -> tensor<1x7x4096xf32>
    %4772 = "tensor.empty"() : () -> tensor<1x7x4096xf32>
    %4773 = "arith.constant"() <{value = 2 : i32}> : () -> i32
    %4774 = "linalg.generic"(%4771, %4772) <{indexing_maps = [#map5, #map5], iterator_types = [#linalg.iterator_type<parallel>, #linalg.iterator_type<parallel>, #linalg.iterator_type<parallel>], operandSegmentSizes = array<i32: 1, 1>}> ({
    ^bb0(%arg420: f32, %arg421: f32):
      %4789 = "math.fpowi"(%arg420, %4773) <{fastmath = #arith.fastmath<none>}> : (f32, i32) -> f32
      "linalg.yield"(%4789) : (f32) -> ()
    }) : (tensor<1x7x4096xf32>, tensor<1x7x4096xf32>) -> tensor<1x7x4096xf32>
    %4775 = "arith.constant"() <{value = dense<0.000000e+00> : tensor<1x7x1xf32>}> : () -> tensor<1x7x1xf32>
    %4776 = "linalg.generic"(%4774, %4775) <{indexing_maps = [#map6, #map7], iterator_types = [#linalg.iterator_type<parallel>, #linalg.iterator_type<parallel>, #linalg.iterator_type<reduction>, #linalg.iterator_type<parallel>], operandSegmentSizes = array<i32: 1, 1>}> ({
    ^bb0(%arg420: f32, %arg421: f32):
      %4789 = "arith.constant"() <{value = 4.096000e+03 : f32}> : () -> f32
      %4790 = "arith.divf"(%arg420, %4789) <{fastmath = #arith.fastmath<none>}> : (f32, f32) -> f32
      %4791 = "arith.addf"(%4790, %arg421) <{fastmath = #arith.fastmath<none>}> : (f32, f32) -> f32
      "linalg.yield"(%4791) : (f32) -> ()
    }) : (tensor<1x7x4096xf32>, tensor<1x7x1xf32>) -> tensor<1x7x1xf32>
    %4777 = "tosa.const"() <{value = dense<9.99999997E-7> : tensor<1x7x1xf32>}> : () -> tensor<1x7x1xf32>
    %4778 = "tosa.add"(%4776, %4777) : (tensor<1x7x1xf32>, tensor<1x7x1xf32>) -> tensor<1x7x1xf32>
    %4779 = "tosa.rsqrt"(%4778) : (tensor<1x7x1xf32>) -> tensor<1x7x1xf32>
    %4780 = "tosa.mul"(%4771, %4779) <{shift = 0 : i8}> : (tensor<1x7x4096xf32>, tensor<1x7x1xf32>) -> tensor<1x7x4096xf32>
    %4781 = "tosa.reshape"(%arg64) <{new_shape = array<i64: 1, 1, 4096>}> : (tensor<4096xf32>) -> tensor<1x1x4096xf32>
    %4782 = "tosa.mul"(%4781, %4780) <{shift = 0 : i8}> : (tensor<1x1x4096xf32>, tensor<1x7x4096xf32>) -> tensor<1x7x4096xf32>
    %4783 = "tosa.const"() <{value = dense<[1, 0]> : tensor<2xi32>}> : () -> tensor<2xi32>
    %4784 = "tosa.transpose"(%arg290, %4783) : (tensor<32000x4096xf32>, tensor<2xi32>) -> tensor<4096x32000xf32>
    %4785 = "tosa.reshape"(%4782) <{new_shape = array<i64: 7, 4096>}> : (tensor<1x7x4096xf32>) -> tensor<7x4096xf32>
    %4786 = "arith.constant"() <{value = dense<0.000000e+00> : tensor<7x32000xf32>}> : () -> tensor<7x32000xf32>
    %4787 = "linalg.matmul"(%4785, %4784, %4786) <{cast = #linalg.type_fn<cast_signed>, operandSegmentSizes = array<i32: 2, 1>}> ({
    ^bb0(%arg420: f32, %arg421: f32, %arg422: f32):
      %4789 = "arith.mulf"(%arg420, %arg421) <{fastmath = #arith.fastmath<none>}> : (f32, f32) -> f32
      %4790 = "arith.addf"(%arg422, %4789) <{fastmath = #arith.fastmath<none>}> : (f32, f32) -> f32
      "linalg.yield"(%4790) : (f32) -> ()
    }) : (tensor<7x4096xf32>, tensor<4096x32000xf32>, tensor<7x32000xf32>) -> tensor<7x32000xf32>
    %4788 = "tosa.reshape"(%4787) <{new_shape = array<i64: 1, 7, 32000>}> : (tensor<7x32000xf32>) -> tensor<1x7x32000xf32>
    "func.return"(%4788, %4782, %60, %69, %208, %217, %356, %365, %504, %513, %652, %661, %800, %809, %948, %957, %1096, %1105, %1244, %1253, %1392, %1401, %1540, %1549, %1688, %1697, %1836, %1845, %1984, %1993, %2132, %2141, %2280, %2289, %2428, %2437, %2576, %2585, %2724, %2733, %2872, %2881, %3020, %3029, %3168, %3177, %3316, %3325, %3464, %3473, %3612, %3621, %3760, %3769, %3908, %3917, %4056, %4065, %4204, %4213, %4352, %4361, %4500, %4509, %4648, %4657) : (tensor<1x7x32000xf32>, tensor<1x7x4096xf32>, tensor<7x4096xf32>, tensor<7x4096xf32>, tensor<7x4096xf32>, tensor<7x4096xf32>, tensor<7x4096xf32>, tensor<7x4096xf32>, tensor<7x4096xf32>, tensor<7x4096xf32>, tensor<7x4096xf32>, tensor<7x4096xf32>, tensor<7x4096xf32>, tensor<7x4096xf32>, tensor<7x4096xf32>, tensor<7x4096xf32>, tensor<7x4096xf32>, tensor<7x4096xf32>, tensor<7x4096xf32>, tensor<7x4096xf32>, tensor<7x4096xf32>, tensor<7x4096xf32>, tensor<7x4096xf32>, tensor<7x4096xf32>, tensor<7x4096xf32>, tensor<7x4096xf32>, tensor<7x4096xf32>, tensor<7x4096xf32>, tensor<7x4096xf32>, tensor<7x4096xf32>, tensor<7x4096xf32>, tensor<7x4096xf32>, tensor<7x4096xf32>, tensor<7x4096xf32>, tensor<7x4096xf32>, tensor<7x4096xf32>, tensor<7x4096xf32>, tensor<7x4096xf32>, tensor<7x4096xf32>, tensor<7x4096xf32>, tensor<7x4096xf32>, tensor<7x4096xf32>, tensor<7x4096xf32>, tensor<7x4096xf32>, tensor<7x4096xf32>, tensor<7x4096xf32>, tensor<7x4096xf32>, tensor<7x4096xf32>, tensor<7x4096xf32>, tensor<7x4096xf32>, tensor<7x4096xf32>, tensor<7x4096xf32>, tensor<7x4096xf32>, tensor<7x4096xf32>, tensor<7x4096xf32>, tensor<7x4096xf32>, tensor<7x4096xf32>, tensor<7x4096xf32>, tensor<7x4096xf32>, tensor<7x4096xf32>, tensor<7x4096xf32>, tensor<7x4096xf32>, tensor<7x4096xf32>, tensor<7x4096xf32>, tensor<7x4096xf32>, tensor<7x4096xf32>) -> ()
  }) : () -> ()
}) : () -> ()

